model/autoencoder.pth (torch, 905082 bytes, 20 tensors)

encoder.0.weight f4 [128, 784]
000000 1f 51 cd 9f 67 97 bf 20 05 00 a0 21 f4 12 3c 21
       -8.695508e-20 3.2456848e-19 1.0842027e-18 6.372196e-19
000010 fb 57 9b 20 c3 c3 34 21 78 81 46 21 6b 35 8e a1
       2.6316242e-19 6.124546e-19 6.725636e-19 -9.636434e-19
000020 2b 28 56 a1 27 51 9f 21 b1 78 19 20 d1 ab 40 a0
       -7.255918e-19 1.079574e-18 1.2999538e-19 -1.6319882e-19
000030 42 ff 73 a1 f9 b1 72 a0 8f 1f c8 21 d3 4b 77 21
       -8.2669433e-19 -2.0557084e-19 1.3560881e-18 8.378721e-19
000040 97 70 b7 20 e8 bc a6 21 03 9a 7e 21 db b4 f5 a0
       3.1075912e-19 1.1298601e-18 8.626238e-19 -4.1624295e-19
000050 86 17 80 a1 03 6c b8 9f a1 e4 96 21 83 df 71 a1
       -8.679844e-19 -7.810572e-20 1.0224913e-18 -8.194979e-19
000060 b4 1c 8c a1 8c c3 af 21 cf fa 04 a1 ec dc 05 a1
       -9.494367e-19 1.1910222e-18 -4.505528e-19 -4.535454e-19
000070 1d d7 ae a0 a6 32 1f a1 93 c1 86 a0 02 ac 5f a1
       -2.9619097e-19 -5.393833e-19 -2.282858e-19 -7.578299e-19
000080 cf 52 69 a0 4a 6f 61 a1 ea c7 2a 20 9f a6 83 a1
       -1.9763267e-19 -7.6380255e-19 1.4465706e-19 -8.92101e-19
000090 b6 a3 af 21 af 1f 56 a1 63 c9 57 21 3a 15 4a a1
       1.1901795e-18 -7.2547953e-19 7.3111367e-19 -6.8468355e-19
0000a0 fd 62 63 21 3a 2d a1 a1 bb e1 be a0 ce 94 2c a1
       7.70416e-19 -1.0921756e-18 -3.2336628e-19 -5.847281e-19
0000b0 0a 3c ab 21 93 b3 70 21 33 5e 5d 21 2a a8 b5 21
       1.1603303e-18 8.155283e-19 7.5002384e-19 1.230955e-18
0000c0 2d af 17 a1 dd 31 3b 21 60 50 87 9f c0 25 86 a0
       -5.1392633e-19 6.342406e-19 -5.730769e-20 -2.2725464e-19
0000d0 f7 25 ab 21 18 9b b2 21 b0 0e cf 20 c0 42 07 a1
       1.159746e-18 1.2102802e-18 3.5076883e-19 -4.582812e-19
0000e0 e2 86 b4 a1 1c 09 a3 a1 7e 5f e3 a0 be 61 b0 a1
       -1.2232978e-18 -1.1047721e-18 -3.8518487e-19 -1.1952096e-18
0000f0 d5 5b 9c 21 e1 14 d9 20 5f fa 71 a0 a0 7f 53 a1
       1.0595279e-18 3.6775046e-19 -2.0496335e-19 -7.165849e-19
000100 08 35 ab 21 7a 1b 0e a1 1d 26 f7 1f d8 df a3 a0
       1.1601448e-18 -4.8147836e-19 1.0467162e-19 -2.7761401e-19
000110 52 c4 56 a0 4b b5 c6 a1 25 30 9d 21 62 e3 54 a1
       -1.8191462e-19 -1.346499e-18 1.0651478e-18 -7.212933e-19
000120 75 c2 9b a1 93 7d 3f a1 b9 cf 98 21 85 da c3 a1
       -1.0554681e-18 -6.4879513e-19 1.0354904e-18 -1.3271556e-18
000130 2f 4d 9e 21 f7 ed 01 a1 69 d9 b5 20 ba 9f db 20
       1.0726927e-18 -4.4021844e-19 3.0806463e-19 3.720574e-19
000140 10 5b bf a0 d3 b0 cb a1 26 ef 4e 21 9a 5b de a0
       -3.2416919e-19 -1.380262e-18 7.0112025e-19 -3.766888e-19
000150 c1 6e 90 a0 8b bf 77 21 35 f2 bb a1 ed 15 d9 9f
       -2.446784e-19 8.394036e-19 -1.2735725e-18 -9.193935e-20
000160 ae 7e aa 21 c2 82 5e 21 b9 60 0a 21 a3 55 67 21
       1.155318e-18 7.538958e-19 4.688423e-19 7.8379184e-19
000170 f7 49 a5 20 e0 16 d1 a0 f3 17 40 21 45 23 ab a1
       2.8001033e-19 -3.5421115e-19 6.5083827e-19 -1.1596746e-18
000180 b4 3b df 21 bd 0f 38 a1 6c 99 d2 20 c7 c2 08 a1
       1.5126871e-18 -6.2362454e-19 3.567691e-19 -4.633638e-19
000190 22 cb 8a a1 76 cc f4 a1 c3 fc a0 a1 28 6e cd 21
       -9.405013e-19 -1.6588203e-18 -1.0908927e-18 1.3920498e-18
0001a0 43 bf 76 21 a5 0d d1 a0 29 f1 ac 21 e6 21 ff 20
       8.3601175e-19 -3.5415006e-19 1.1719008e-18 4.3221112e-19
0001b0 01 4b 06 a0 58 81 89 a1 07 87 8d a1 77 eb 48 a1
       -1.1375058e-19 -9.317718e-19 -9.590273e-19 -6.807427e-19
0001c0 45 e7 6f a1 bf e2 15 a1 23 5a 14 21 cd bb c6 a1
       -8.128243e-19 -5.078326e-19 5.0263645e-19 -1.3466712e-18
0001d0 68 fe 72 a1 6d d2 1f a1 dd ed a9 a1 11 48 a7 a1
       -8.2329493e-19 -5.414979e-19 -1.1514847e-18 -1.1335436e-18
0001e0 17 ba d1 a1 7d 84 d1 21 37 84 80 20 58 f5 e3 a1
       -1.4211648e-18 1.419746e-18 2.1771536e-19 -1.544706e-18
0001f0 24 41 cc a1 a6 16 bf a1 78 15 ff a1 99 df a7 a1
       -1.384082e-18 -1.2948658e-18 -1.7285155e-18 -1.1375546e-18
000200 76 24 80 a2 1c fd 4c a2 4d fa 0c 22 39 b7 7b 21
       -3.4733074e-18 -2.778115e-18 1.9106046e-18 8.52846e-19
000210 0d 01 40 21 23 e6 aa 20 d4 12 9d 21 93 85 dd a1
       6.505352e-19 2.8951412e-19 1.0643718e-18 -1.5010899e-18
000220 aa 1e 5f a0 68 f7 0d 21 71 45 91 a1 c4 ac a9 1e
       -1.889898e-19 4.81001e-19 -9.843963e-19 1.7965025e-20
000230 90 31 57 21 f0 e8 54 a1 cf a6 79 a1 ab ef a4 21
       7.291043e-19 -7.2136684e-19 -8.458525e-19 1.1176512e-18
000240 6f 7a 91 a1 c9 29 4f a1 fc 57 db 20 fb 7f 31 a0
       -9.85799e-19 -7.018963e-19 3.7158266e-19 -1.5034828e-19
000250 14 96 cc 9f b8 64 f3 a1 6a 3c 66 9e 67 f8 43 a2
       -8.6645644e-20 -1.6492981e-18 -1.2188592e-20 -2.6558931e-18
000260 44 37 0d 22 85 55 d0 a1 2e b9 0d a2 f0 c7 0e 22
       1.913832e-18 -1.4117265e-18 -1.9207097e-18 1.9350435e-18
000270 5e e8 f4 a2 61 21 95 a2 b3 b8 c5 21 d0 d1 60 a2
       -6.638236e-18 -4.0421872e-18 1.3398129e-18 -3.0468735e-18
000280 17 59 36 a2 ac fc 2b a2 05 a2 e4 20 9a 3a 47 a1
       -2.4712763e-18 -2.3308585e-18 3.8731918e-19 -6.750138e-19
000290 0d cb 16 a1 e8 01 7d a1 cf 45 95 a1 83 37 cc a0
       -5.109071e-19 -8.5722257e-19 -1.0115111e-18 -3.459568e-19
0002a0 c9 6b bc 1f 89 16 21 21 e5 02 bd a1 d9 e5 2a 21
       7.979941e-20 5.4578747e-19 -1.2807904e-18 5.790244e-19
0002b0 cf 49 69 21 0d 8c 69 a1 78 d3 d0 a1 5d 9f 6c a1
       7.9041156e-19 -7.9128826e-19 -1.4150604e-18 -8.0170826e-19
0002c0 6b b1 2c a0 93 86 8d a1 f2 a0 00 a2 02 d3 1e 22
       -1.462767e-19 -9.590153e-19 -1.7432438e-18 2.15247e-18
0002d0 fa 40 13 22 57 d2 c3 a1 92 64 94 a2 6f 5f 01 a3
       1.9956613e-18 -1.326939e-18 -4.0221963e-18 -7.013313e-18
0002e0 f4 ea 0c 22 d1 ae c1 a2 5e 39 04 a3 fe 4f cb a2
       1.9097921e-18 -5.249785e-18 -7.167882e-18 -5.5107955e-18
0002f0 b9 7b 7c a2 6a e2 40 a0 a0 aa c4 9e c5 f4 0b a1
       -3.4217867e-18 -1.6337947e-19 -2.0822876e-20 -4.741898e-19
000300 c5 f4 c3 a1 18 af e6 a0 2c cc 5f a1 a4 4e 06 a1
       -1.3278504e-18 -3.9079383e-19 -7.582556e-19 -4.5505046e-19
000310 18 cc c5 21 aa 4a b0 a0 f9 88 4f a1 81 ba a7 a0
       1.3403262e-18 -2.9864968e-19 -7.031561e-19 -2.8414318e-19
000320 ca 72 a7 a1 07 e2 48 21 a4 9d c5 a1 3b b6 ca 20
       -1.1346745e-18 6.806178e-19 -1.3390966e-18 3.434072e-19
000330 43 73 bc 21 90 a2 69 a2 33 3f d6 21 92 fe da 21
       1.2769885e-18 -3.1663448e-18 1.4517933e-18 1.4839639e-18
000340 e1 92 e2 21 bc 87 10 a3 03 47 3e 22 06 8b 9d a2
       1.5353234e-18 -7.8349985e-18 2.5787395e-18 -4.270213e-18
000350 5a cf 3b a2 a7 06 88 a2 7e cc 11 a3 e5 d7 bc a2
       -2.5452997e-18 -3.6869917e-18 -7.903769e-18 -5.118609e-18
000360 d0 72 49 22 86 49 19 21 e1 57 10 22 eb 3e d8 21
       2.730136e-18 5.1935724e-19 1.9562162e-18 1.4653384e-18
000370 c9 2b 61 1f ad 76 d8 a0 39 bf 2b a1 8d d4 d6 20
       4.768182e-20 -3.6670356e-19 -5.8190135e-19 3.6393664e-19
000380 02 73 96 21 93 2d 63 a1 b9 74 91 a1 dd 18 46 21
       1.0194838e-18 -7.697091e-19 -9.856478e-19 6.7117916e-19
000390 58 1d ec a0 07 95 d1 a1 73 a0 ca 20 60 bb b1 a1
       -3.9999373e-19 -1.4201838e-18 3.4326307e-19 -1.2043584e-18
0003a0 67 5b 64 a2 38 15 93 a2 09 93 5e a0 c5 89 2c a2
       -3.094815e-18 -3.9866896e-18 -1.8852781e-19 -2.3383281e-18
0003b0 34 d0 93 a2 39 92 48 22 cf 3c 3b a3 22 8f 4d a3
       -4.0064873e-18 2.7182464e-18 -1.0150167e-17 -1.1143382e-17
0003c0 c7 0d 59 a3 86 e7 4a 22 93 81 bf 22 14 b4 cd a1
       -1.1766511e-17 2.7498672e-18 5.1907846e-18 -1.3939007e-18
0003d0 4a 49 6f a2 ee fe 31 21 b6 ad cb a1 36 cd 2d a2
       -3.2429339e-18 6.030733e-19 -1.3801796e-18 -2.355451e-18
0003e0 e1 2c d5 a1 cb 0d 87 a1 82 15 65 21 46 0d 9c 21
       -1.4445321e-18 -9.151607e-19 7.7616683e-19 1.0574485e-18
0003f0 1a b5 81 a1 36 ce ab a1 bb 29 c7 a1 dc d1 a3 a0
       -8.789317e-19 -1.1641994e-18 -1.349581e-18 -2.7752147e-19

encoder.0.bias f4 [128]
000000 8d 13 9c 22 aa a6 61 a1 6f dc ee a1 7e 85 a4 3e
       4.2304585e-18 -7.6453543e-19 -1.6185856e-18 0.32133096
000010 8c bb ad 3e f5 5e 39 bd 03 7b 73 aa 81 b0 85 3e
       0.3393215 -0.045256574 -2.1625414e-13 0.26111224
000020 06 01 4d be 5d 65 7f a3 6a 97 39 1e 25 b8 58 a3
       -0.20019922 -1.3845042e-17 9.82513e-21 -1.17483776e-17
000030 85 39 ce 3e 33 c9 2f be 6b bc 39 a2 81 e2 b9 22
       0.4027826 -0.17166595 -2.5171923e-18 5.038417e-18
000040 84 89 34 3f 72 64 77 a5 60 01 81 3e 76 9d 61 a4
       0.7052233 -2.1457867e-16 0.25196362 -4.8922472e-17
000050 61 df 78 a1 a5 00 dc bd 0d d5 2e 3d 7b ab 0b be
       -8.432131e-19 -0.107423104 0.04268365 -0.13639633
000060 6e 18 9b be 12 4b 41 a4 2e 26 4e be 5e 79 cb 3e
       -0.30292076 -4.191379e-17 -0.20131752 0.39741033
000070 ca 68 d8 a2 9b aa 9c a2 2a 0f 1c 3e f7 fc 7f 3e
       -5.8657867e-18 -4.246452e-18 0.1524016 0.24998842
000080 53 c1 87 22 f8 4a 0c a3 9e 66 ad a4 08 16 a5 3e
       3.6796513e-18 -7.6052905e-18 -7.520063e-17 0.3224337
000090 2a 78 0f 3f 39 0e c1 3e 93 87 9e be 6f 00 6c be
       0.5604273 0.37706164 -0.3096281 -0.2304704
0000a0 91 15 bd a9 7f 4f f5 3d 91 f1 a7 3e 20 24 1b bd
       -8.397027e-14 0.11978053 0.32801488 -0.03787625
0000b0 a2 8f e0 3d 4e ae 56 a2 b6 03 83 bd 6c c5 0a 3f
       0.10964896 -2.9094684e-18 -0.06397192 0.5420749
0000c0 18 c3 18 a4 14 2a 12 3f a1 c2 99 a2 6f bb 02 3c
       -3.3124997e-17 0.57095456 -4.1676804e-18 0.007979258
0000d0 44 96 23 ba 68 88 9a be 1b 0d db 3e 71 cb a7 a3
       -0.0006240348 -0.30182195 0.42783436 -1.8192337e-17
0000e0 9d 9d 94 3d 6b 3e 17 3f f3 43 ea be 1f a1 81 3d
       0.07256625 0.5907962 -0.45754966 0.063295595
0000f0 df ad ed bc 63 89 4c bd 73 e1 34 3e a9 d8 ec a2
       -0.029013572 -0.04993571 0.17664127 -6.4197326e-18
000100 06 e1 59 be 2e 89 39 a5 3b 4b ab 20 67 ff 0b 3e
       -0.21277246 -1.609267e-16 2.901831e-19 0.13671647
000110 4e 5c a5 3e 97 9e 0e a2 83 c6 04 3e f9 8b 3a bf
       0.32296985 -1.9328545e-18 0.12966351 -0.7286983
000120 e7 77 91 be 32 c2 07 be b7 57 2d 3f 34 ae a6 3e
       -0.2841179 -0.13257673 0.6771197 0.3255478
000130 3a c6 2a a2 e7 10 2f be 8c 9f b2 3d 7d 60 e7 3e
       -2.3144236e-18 -0.17096291 0.087218374 0.45190802
000140 44 e5 1a bf 31 46 8e 3e 07 1e 9e 3e 76 e9 09 a2
       -0.6050608 0.27787927 0.30882284 -1.8690555e-18
000150 94 87 32 a6 ec c5 a1 a6 8f d5 15 a6 2b 80 89 be
       -6.19399e-16 -1.1225266e-15 -5.1984185e-16 -0.26855597
000160 40 0e 0e 3f 5c 27 a4 3e 39 62 80 a2 2b 09 68 a2
       0.55490494 0.3206128 -3.4798467e-18 -3.1446716e-18
000170 79 5b 00 3f 64 ec 16 3f db 50 51 a2 53 11 98 a2
       0.50139576 0.58954453 -2.8367586e-18 -4.1218025e-18
000180 14 e2 cd 3e 1a 73 2e bf 30 d4 a2 bd 8f 01 99 3e
       0.40211546 -0.6814438 -0.07950628 0.29884002
000190 f7 b2 8e 3e 19 9a 53 a2 75 61 82 be e1 aa 69 a2
       0.27870914 -2.867741e-18 -0.2546498 -3.166785e-18
0001a0 bd 92 1c bf 46 15 7a be bc 93 2e 3e b5 dc 1d 24
       -0.61161405 -0.24422178 0.17048544 3.4230894e-17
0001b0 86 39 13 3f 13 57 95 be 10 8c 94 23 c8 99 ad 23
       0.5750965 -0.29167995 1.6105511e-17 1.8821826e-17
0001c0 d9 2c 10 3e e1 fc 53 22 30 9b af 3e 32 11 3c 3e
       0.14079608 2.8729705e-18 0.34298086 0.18365934
0001d0 bd 70 23 a5 2b ef 07 3e 19 df a4 3d 66 76 a8 a3
       -1.4176194e-16 0.13274829 0.08050365 -1.826474e-17
0001e0 e1 3c 35 3e f1 6b 43 3d 48 fa 3c 3e 1c 3a e9 3e
       0.17699005 0.047710363 0.1845485 0.45552146
0001f0 a9 f2 11 a4 57 df b6 3e 09 b5 04 3f 0c 4e 83 3d
       -3.1647404e-17 0.3571727 0.5183874 0.06411371

encoder.2.weight f4 [64, 128]
000000 0a 8c 8d 22 f2 a2 69 a2 da fd ff 21 5a 52 53 3e
       3.83664e-18 -3.166365e-18 1.7346666e-18 0.20636883
000010 4b c9 11 3e 1e 5b e0 bd 32 77 8d a7 bb 12 a8 3d
       0.14236943 -0.10954879 -3.9264593e-15 0.082066976
000020 e5 01 ea bd 64 49 cf a1 9e 3e 95 21 74 91 5d a2
       -0.114261426 -1.4046292e-18 1.0113207e-18 -3.0028087e-18
000030 33 d8 d7 3d bb 04 40 3e 1c 7a 9b 21 b6 8f 2c 22
       0.105392836 0.18751805 1.0535531e-18 2.3386427e-18
000040 99 fb 61 3e ff 6b 0a a6 52 c5 b8 bd e0 22 3f a3
       0.22068633 -4.802473e-16 -0.09022011 -1.0361516e-17
000050 dc 85 3d 22 40 b6 6c bd 92 f3 8f bd ab 49 f5 3d
       2.568514e-18 -0.057790995 -0.07028879 0.11976942
000060 fa d4 8a be bb 8a 46 a2 27 70 3d be 46 9b 93 3d
       -0.27115613 -2.6907447e-18 -0.18499814 0.072073504
000070 f1 fa 6c a0 11 c4 5a a2 95 06 47 3e c9 12 aa 3d
       -2.0073007e-19 -2.9648306e-18 0.19436105 0.08304364
000080 93 df 6b 22 7d e0 23 22 6f c2 40 a4 1b 0a 52 3e
       3.1966798e-18 2.2209462e-18 -4.1798055e-17 0.20511667
000090 3e c2 53 be 09 7c e5 3e 23 75 2a 3e 18 0f 26 3e
       -0.20679566 0.44821194 0.16646247 0.16216695
0000a0 b8 cb 2b 2a 76 2e f9 bd f1 7a 00 3e e6 15 92 3d
       1.525853e-13 -0.12167065 0.12546898 0.07133083
0000b0 b3 44 38 3e 4f 72 58 22 3d d0 bf bd 04 4c 29 3d
       0.17994957 2.9333973e-18 -0.0936589 0.04133226
0000c0 7d 92 49 a1 ba ce f5 bd 88 ee c3 a2 48 f8 91 3d
       -6.8295325e-19 -0.120023206 -5.310741e-18 0.07127434
0000d0 61 c2 81 3d d7 93 55 3e 88 b7 8c 3d cc eb 64 22
       0.06335903 0.20857178 0.06870943 3.1024592e-18
0000e0 fb 14 89 3d 31 01 44 be e4 98 28 3d 28 72 a1 bd
       0.06693455 -0.1914108 0.041161433 -0.07883102
0000f0 50 4d 65 be f7 f3 99 3e 1d 9b 9e 3e e7 ba 2f 22
       -0.22392774 0.30068943 0.30977717 2.3815868e-18
000100 07 9d 6f 3d 0e 9c 3e a3 9c 5e 23 9e 4d b7 cc 3d
       0.058499362 -1.03329665e-17 -8.648713e-21 0.09995899
000110 0c 3c 9b bc b1 58 4d a2 5a ee ec 3d bd 8e 71 3e
       -0.018949531 -2.7829634e-18 0.115688995 0.23589607
000120 24 5d 1d 3e c7 de 36 3d a5 36 6c be f1 90 38 be
       0.15367562 0.04464605 -0.2306772 -0.18024041
000130 27 1a 68 a1 7f a4 40 bb 02 dd 0f 3e 60 f7 3b 3e
       -7.863927e-19 -0.0029394922 0.14049152 0.18356085
000140 d7 e4 0b 3d 5b 16 00 be 58 0a 72 bc 88 e9 8f a2
       0.034153786 -0.12508528 -0.014772974 -3.900749e-18
000150 02 11 00 a8 33 e5 52 26 64 d7 f4 a4 5f f0 3e ba
       -7.109115e-15 7.316901e-16 -1.0618302e-16 -0.0007283743
000160 e7 28 94 bc d7 80 64 be 4b 4e 3b a1 75 31 dd a1
       -0.01808591 -0.22314773 -6.3461684e-19 -1.4988634e-18
000170 37 1f 6c bd da 30 20 be fd 79 62 a0 99 a3 2b 22
       -0.057646956 -0.15643635 -1.9183307e-19 2.326143e-18
000180 5a 07 97 3e 0f 07 78 3e cb 27 25 be 27 f6 bd 3b
       0.29497796 0.24221443 -0.16128461 0.005797166
000190 9c 51 bc 3c e3 00 56 a2 6f 0c d2 3d 95 a9 87 20
       0.022988133 -2.9002878e-18 0.10256278 2.298211e-19
0001a0 6f 03 44 be 01 f7 1d 3e b5 ab 1f bd 5b b6 75 a3
       -0.19141935 0.15426256 -0.038982112 -1.3320092e-17
0001b0 09 8b d0 be 0f 22 a1 bd ce 6c 88 23 f1 46 23 22
       -0.40731075 -0.07867824 1.479123e-17 2.2128175e-18
0001c0 e5 52 3e 3e 23 10 d8 21 75 dc 80 be 24 83 8b 3e
       0.18586309 1.4641001e-18 -0.25168195 0.2724849
0001d0 6f 69 37 a2 e7 7a e2 3e f5 c4 5b 3d 13 e7 bf a0
       -2.485694e-18 0.44234392 0.05365463 -3.250957e-19
0001e0 05 10 0a 3e 9f 26 7a 3d 5d 56 8e 3e 7f 86 5c 3e
       0.13482673 0.06107199 0.27800265 0.21535681
0001f0 6b 5b 81 a2 fa 04 06 3e 43 8f f9 3c 60 1e 0a 3e
       -3.5062313e-18 0.13087836 0.03046382 0.1348815
000200 e5 35 bf 22 03 db 51 22 fa 2b 9f a0 dc f6 a6 2b
       5.1827717e-18 2.8440726e-18 -2.696475e-19 1.1863527e-12
000210 a1 c5 27 ab ce d1 14 2b 93 0b 67 22 b7 e3 a6 aa
       -5.9604584e-13 5.2871325e-13 3.1312465e-18 -2.9645532e-13
000220 4b 68 08 ad 1d cd 02 22 81 67 95 a2 14 29 3e a2
       -7.753863e-12 1.7726871e-18 -4.049612e-18 -2.5771548e-18
000230 22 0f 9c aa e4 4c 04 ac f8 d0 b0 a1 3e 97 0a 21
       -2.7721667e-13 -1.8801011e-12 -1.1981537e-18 4.6956386e-19
000240 e6 37 95 ab ae 9c 69 a3 a2 90 7a 29 67 a0 c1 21
       -1.0602602e-12 -1.26641335e-17 5.56366e-14 1.3120647e-18
000250 a7 51 3b 22 4b c4 eb 2a b5 48 0e ac a5 ef 88 28
       2.5386452e-18 4.188059e-13 -2.0219774e-12 1.5202962e-14
000260 d6 b6 4c a6 a9 17 15 a2 50 ea a0 aa 50 8b 4d a8
       -7.1024507e-16 -2.0205791e-18 -2.8584296e-13 -1.1409995e-14
000270 79 f4 5e 21 1c dc d2 a1 0f c2 66 2a 6c ea aa a9
       7.554008e-19 -1.4288416e-18 2.0495431e-13 -7.590182e-14
000280 d0 98 34 22 12 67 0d a2 6d 0a dc a3 72 c3 1d 27
       2.4475447e-18 -1.9163628e-18 -2.3856863e-17 2.1894078e-15
000290 4c c6 bb 2a 10 f9 e5 a8 0b 6b 5c 24 47 a9 bf a6
       3.335547e-13 -2.5532121e-14 4.7795565e-17 -1.329917e-15
0002a0 f7 ce 3b a2 e8 ef 20 a5 16 d0 8e 28 e7 0f 5d aa
       -2.5452792e-18 -1.3959071e-16 1.585541e-14 -1.963426e-13
0002b0 a5 1f a6 2a b0 e8 e1 a0 7d 59 09 28 0f af fa a7
       2.950948e-13 -3.8270462e-19 7.624432e-15 -6.957874e-15
0002c0 64 b7 63 22 ed b3 8c 29 0e dd 39 a1 80 38 7f ab
       3.0861323e-18 6.248461e-14 -6.2973e-19 -9.067261e-13
0002d0 a6 93 cd ab 8f 1d 6d ab 77 1b 12 aa 36 39 29 a2
       -1.4607107e-12 -8.4240335e-13 -1.2976934e-13 -2.2934058e-18
0002e0 07 1b 59 2a d0 e9 35 29 05 39 c3 a6 2e 33 1f ab
       1.9282849e-13 4.0392874e-14 -1.3546298e-15 -5.6559174e-13
0002f0 a2 53 ee 27 e3 2c 14 a6 3b 83 fe a9 c5 b6 b8 a1
       6.6148945e-15 -5.140865e-16 -1.1302631e-13 -1.2516704e-18
000300 f4 9f 4a ab 12 c3 a4 a0 04 a8 7b 21 46 15 04 ab
       -7.1986796e-13 -2.7911767e-19 8.5264475e-19 -4.6925343e-13
000310 6b a5 00 ab c9 d5 fe a1 36 24 a7 a4 74 c8 50 ab
       -4.57043e-13 -1.7268298e-18 -7.248605e-17 -7.417463e-13
000320 8f 5a 3e ad d3 e7 84 aa 4a 45 41 ab 87 a5 3c 2a
       -1.0820358e-11 -2.360877e-13 -6.866353e-13 1.6755183e-13
000330 4d 70 54 a3 40 86 1f aa 08 e5 bd aa 45 a2 58 ab
       -1.1516324e-17 -1.4168614e-13 -3.3732067e-13 -7.696381e-13
000340 0e ef a8 2a 5b 02 1c a9 a4 ea b6 a9 09 20 94 22
       3.0008672e-13 -3.4641e-14 -8.123127e-14 4.01494e-18
000350 f4 34 fd a2 11 37 57 21 45 fb 9a 24 41 15 b7 a9
       -6.8631854e-18 7.2917713e-19 6.721252e-17 -8.1305195e-14
000360 7e d7 a3 27 2d 60 68 aa 56 84 a8 21 70 81 f1 21
       4.5475225e-15 -2.0639107e-13 1.1419152e-18 1.6365057e-18
000370 88 b9 ab ab 11 3c 73 aa 31 4b b3 21 57 3b 3e 21
       -1.2201776e-12 -2.1603575e-13 1.2149415e-18 6.445304e-19
000380 b7 39 23 27 a6 3c b1 aa a4 0a c1 a9 87 18 b6 2a
       2.2652081e-15 -3.14836e-13 -8.5727676e-14 3.2346714e-13
000390 17 ff df a9 74 1d 86 22 50 d2 f1 aa 4f 3f 9b 22
       -9.9474404e-14 3.6351957e-18 -4.2956133e-13 4.2079865e-18
0003a0 82 f5 7b 28 fd 03 81 aa 71 f5 d2 aa 83 04 a1 23
       1.3986535e-14 -2.291777e-13 -3.7473803e-13 1.7457566e-17
0003b0 43 9c 93 23 da eb 3e a9 29 dc 3f a0 99 f8 85 a1
       1.6003951e-17 -4.2393044e-14 -1.6251174e-19 -9.078234e-19
0003c0 31 b6 12 27 63 04 8a 22 d4 3a 91 ab 01 fd a6 29
       2.0360336e-15 3.740962e-18 -1.0319198e-12 7.41577e-14
0003d0 eb 4c 82 22 22 b9 6c 27 28 33 e2 29 0d 0b 0b 22
       3.531801e-18 3.285194e-15 1.004529e-13 1.8843863e-18
0003e0 9b 4d f1 aa 04 d5 df a8 8c 1e 2d 29 cb 55 6d 2a
       -4.286405e-13 -2.4850354e-14 3.8440212e-14 2.1079594e-13
0003f0 cd fc 55 a2 82 0c d7 28 ef a8 46 a9 4c 24 10 ab
       -2.9000714e-18 2.387522e-14 -4.411136e-14 -5.120945e-13

encoder.2.bias f4 [64]
000000 87 4c c8 3e 7c f4 dd a9 58 8b 04 a7 87 70 76 3e
       0.39120886 -9.856783e-14 -1.8394218e-15 0.24066363
000010 f3 af 86 3e 28 d6 94 be 6a 9e 99 bc 5b b2 da 3e
       0.26306114 -0.29069638 -0.018752296 0.427142
000020 a0 59 0b 3e 35 80 80 3e 83 a1 fd 3c cf 79 a1 27
       0.13608408 0.25097814 0.030960804 4.481854e-15
000030 45 31 b9 3a c0 ac 2f 3e e3 a3 8f 3e e8 35 4a 3e
       0.0014129063 0.17155743 0.28054723 0.19747126
000040 09 60 26 3f c2 d8 22 a6 b2 22 c8 3e d8 0d 82 3e
       0.6499029 -5.64988e-16 0.3908897 0.25401187
000050 dc ff 01 a8 5c 16 25 bd e6 94 60 ab ef 98 aa 3e
       -7.216419e-15 -0.040304527 -7.9787424e-13 0.33319804
000060 ff 3e e4 a4 8c d7 ae a4 e4 17 8e 3d 54 85 e2 a6
       -9.898596e-17 -7.582562e-17 0.069381505 -1.5718039e-15
000070 68 ab 6d 3d ca 7b e0 a9 b7 01 15 be 12 e9 5a 3d
       0.058024794 -9.969072e-14 -0.14551435 0.05344493
000080 75 0e 48 24 80 11 28 a7 c3 ff 4c 28 9a 10 e1 bd
       4.3380332e-17 -2.332417e-15 1.1379734e-14 -0.109894946
000090 1f 75 b2 3e b9 ed f1 a6 45 e3 c7 a8 16 9a d8 3e
       0.3485498 -1.6787169e-15 -2.2192e-14 0.42305058
0000a0 f2 4f 91 3e b2 83 d0 23 66 fb d3 3d 7a ff b6 3e
       0.28381306 2.260718e-17 0.10350685 0.35741788
0000b0 8b e0 d7 3e c3 cb e3 3e d8 2f 88 3e a8 44 04 be
       0.421635 0.44491395 0.26599002 -0.12916815
0000c0 e5 06 d8 bc 71 92 e9 3d e7 49 a7 bd 56 3c 40 3c
       -0.026370475 0.114048846 -0.08168393 0.011733135
0000d0 6c 5b 18 be 24 96 2a aa 4b 9f 88 3e 9b 7c 26 3f
       -0.14878625 -1.5151124e-13 0.2668403 0.6503388
0000e0 ea 58 18 3f 09 e1 be 3e 67 eb b9 3e 7d 1b e0 a2
       0.5951067 0.37281063 0.3631241 -6.0744426e-18
0000f0 8d df 06 3f 10 13 8f ba d9 07 1a aa 37 fa 9f 3e
       0.5268486 -0.0010915715 -1.368067e-13 0.31245586

encoder.4.weight f4 [36, 64]
000000 4a 0e 6f 3d 83 12 99 ab e2 30 60 24 5d ed 01 bd
       0.058363236 -1.0876442e-12 4.8613663e-17 -0.031720508
000010 63 8b 18 3b 4e da a1 bd e7 f1 fe 3d 77 a3 cd 3e
       0.002327644 -0.079029664 0.12448483 0.40163776
000020 2b 40 05 3d 18 db 1f 3c aa 3a bb bc 6b 7e 3d 23
       0.0325319 0.009756826 -0.022855122 1.02724806e-17
000030 b2 8f 5d bd 53 fc e8 3d 50 eb 1f be 16 a7 d6 3d
       -0.054092117 0.11376252 -0.15617108 0.10481088
000040 64 22 62 3e 11 59 24 a5 f8 f0 8d 3d af 40 2c bd
       0.22083431 -1.425491e-16 0.06930727 -0.042053875
000050 ee 71 94 a8 17 e9 62 3b 3c 89 49 2e 52 6d 72 3d
       -1.648071e-14 0.0034623796 4.5823997e-11 0.059186287
000060 31 1c 00 a4 a0 60 d8 a2 99 72 a7 3c c9 3e f6 a4
       -2.7779455e-17 -5.8649223e-18 0.020440387 -1.06791856e-16
000070 17 1e db 3c 99 84 8b 2c ed 63 7b 3d 74 6e 1a 3e
       0.026747746 3.965339e-12 0.061374594 0.15081197
000080 ed d9 9a a4 ab e0 83 26 7c 9c 17 a7 14 2b b8 3d
       -6.7156034e-17 9.150847e-16 -2.104029e-15 0.089925915
000090 ff 0f 9e bd 3d 40 2c a4 35 01 06 28 d6 60 0c 3e
       -0.07717895 -3.7350967e-17 7.438756e-15 0.13708815
0000a0 4e b8 e0 bd 6e 92 1d 22 3e 85 19 bd 2d 81 89 3e
       -0.10972653 2.1354987e-18 -0.037480585 0.26856366
0000b0 69 a3 e3 bc 7d 7e a8 3d 2e 1b 2d 3e bc 51 68 3c
       -0.027787881 0.08227251 0.169049 0.014179643
0000c0 bd 3e f1 3d 80 a4 b1 bb 51 66 c4 3d 87 47 b1 bd
       0.117795445 -0.0054212213 0.09589828 -0.08656221
0000d0 64 8e 6f bd bd 65 57 a9 15 29 b7 bd 0a 6d 3f 3c
       -0.058485404 -4.7827834e-14 -0.08943383 0.011683712
0000e0 bf 9b 1d 3e 83 e4 31 3e 40 eb cc 3d 9d c3 de 21
       0.15391444 0.17372327 0.10005808 1.5095084e-18
0000f0 fb a8 3e 3e aa 02 e1 bd a1 e9 13 ac 44 a7 e7 bc
       0.18619148 -0.10986836 -2.1019647e-12 -0.028278
000100 f3 25 b5 bc f0 90 51 2a 10 85 2b a4 34 39 f1 bb
       -0.022112822 1.8613214e-13 -3.7192423e-17 -0.0073615555
000110 3b 9a 54 bd 06 21 e5 3c dd c6 63 bd bc 11 dc bd
       -0.051904898 0.027969848 -0.055609573 -0.1074557
000120 f0 0c 73 3d 49 11 74 3e 6b fb ba 3c aa a2 69 a6
       0.05933851 0.23834719 0.022824964 -8.1058565e-16
000130 ae 13 e7 3d 69 1e 98 3d 89 02 05 bd 39 e2 05 be
       0.112830505 0.07427675 -0.03247312 -0.13074578
000140 d9 70 4e bb 20 ff 02 a4 10 e2 f4 bd 65 f0 67 be
       -0.0031500368 -2.8405356e-17 -0.119571805 -0.22650297
000150 54 de 5e a6 00 db d6 3e 19 2a 3d ab 46 64 8c bd
       -7.7323033e-16 0.4196396 -6.720471e-13 -0.06855063
000160 42 02 c6 a2 34 c0 21 23 e7 75 95 3d ec 32 1c a5
       -5.36704e-18 8.768528e-18 0.07297879 -1.3548096e-16
000170 93 f2 6d 3e c0 52 4d 2c 9e e8 c0 3e a0 a8 69 3d
       0.23237066 2.9178188e-12 0.37677473 0.05704558
000180 a5 68 00 24 d2 83 23 a7 8b 99 78 25 e2 65 c8 3c
       2.7844213e-17 -2.2692254e-15 2.1562593e-16 0.024462644
000190 34 b6 48 3e 0e b8 0c a5 5a 40 3b 27 05 5a 67 3e
       0.19600755 -1.2205424e-16 2.5986348e-15 0.22592933
0001a0 e7 2c 45 3e 04 3f 2d 23 44 c4 d3 bd 94 e4 0f bd
       0.1925541 9.391693e-18 -0.10340169 -0.0351301
0001b0 41 61 d4 3d 55 31 69 3d 4a fe b0 3d 67 94 84 bd
       0.10370112 0.056931812 0.08642252 -0.06473618
0001c0 cb bc 87 bd 19 3e a6 3d e2 e9 49 3d 50 28 e1 3c
       -0.06627806 0.08117313 0.049295314 0.027485043
0001d0 8e 1c 36 be 71 38 e6 2a e0 ea 3b 3e 8c 89 84 3e
       -0.1778433 4.0895371e-13 0.18351316 0.2588619
0001e0 89 cf 7c bd bd 5b 15 3d a8 35 78 3d 30 b9 35 22
       -0.06172136 0.03646444 0.060598046 2.4628112e-18
0001f0 a1 d8 f9 bd 1a 37 60 3c c5 83 29 2a 04 47 47 3e
       -0.12199522 0.013685012 1.5055932e-13 0.19460684
000200 94 0c 2a bd 55 10 9a a8 e3 b6 0b 24 2f 64 54 3e
       -0.0415159 -1.7104517e-14 3.029573e-17 0.20741342
000210 b5 79 a6 3d fd 40 33 be 09 c2 0b be c2 94 38 be
       0.081286825 -0.1750526 -0.13648237 -0.18025497
000220 6f f1 5b bd d0 aa 1b 3e e5 88 bd 3c 6e 30 43 a6
       -0.053697046 0.15201879 0.023136565 -6.771985e-16
000230 f7 3e 55 3d 05 f1 20 3e 5b 82 af bd aa 1d 0c 3e
       0.052062 0.15716942 -0.08569785 0.13683191
000240 20 95 af 3e db 43 03 a4 45 bb d4 3d fe 65 da 3d
       0.3429346 -2.8463573e-17 0.10387281 0.10663985
000250 a3 25 09 a7 2e 99 32 3d b4 eb 3e ac 07 ff 06 3f
       -1.9032972e-15 0.043603115 -2.7131465e-12 0.5273289
000260 b8 a4 40 24 8b 25 b4 22 87 0c 9e 3d b8 65 5f 25
       4.1772886e-17 4.8828848e-18 0.07717233 1.937663e-16
000270 a1 ae fc bd a3 1c f1 ab dc 73 af ba b3 8a cf 3d
       -0.12337995 -1.7132028e-12 -0.0013385969 0.10133877
000280 0d f7 00 a2 eb f1 90 26 ce dd aa 27 e6 83 74 be
       -1.7478022e-18 1.0057579e-15 4.742496e-15 -0.2387844
000290 27 e6 5e 3d 64 b4 3f 25 7c e2 fb a4 00 00 b0 bd
       0.05441871 1.6627728e-16 -1.0923758e-16 -0.0859375
0002a0 94 0f 11 be 9f 0e 92 a2 0a c4 bf bc 35 48 25 3e
       -0.14166099 -3.958886e-18 -0.023408908 0.16140826
0002b0 3c 02 e2 bd 98 50 87 3d 3a 7e 47 3e 06 2b b0 3d
       -0.110355824 0.06607169 0.19481745 0.08601956
0002c0 d6 b1 0d be eb 38 60 3d 92 a4 30 be 7c 74 06 3e
       -0.1383737 0.05474178 -0.17250279 0.13130373
0002d0 9f 93 b9 be 33 ec a6 a5 3b 15 4a 3e 39 ce 2f 3d
       -0.36245438 -2.8956465e-16 0.19734661 0.04292128
0002e0 a2 83 5f 3e 1f cc e5 3c 5d 26 cb 3d c2 c4 05 a2
       0.21827558 0.028051434 0.099194266 -1.8129024e-18
0002f0 a8 62 d5 3b 25 55 19 3e bb c9 99 29 c7 67 5a 3e
       0.006512005 0.14973886 6.8295596e-14 0.2132865
000300 8d f7 6d af 25 7b 50 a2 16 85 6b a2 7a 0c 37 af
       -2.1642972e-10 -2.8254449e-18 -3.1918894e-18 -1.6648186e-10
000310 48 25 2b ac 87 4e 79 2d ea 5c 9d b0 44 56 b6 ad
       -2.4321257e-12 1.4171448e-11 -1.1449661e-09 -2.0729314e-11
000320 b6 63 73 af 14 46 bb ab 4d 1a 1f af 81 2c d2 a2
       -2.2136146e-10 -1.33066e-12 -1.447031e-10 -5.6967734e-18
000330 06 f2 df ad 60 06 b2 af 02 02 98 af 0f 7d 61 ae
       -2.5459645e-11 -3.238254e-10 -2.7650066e-10 -5.127015e-11
000340 6b 26 fb ad e8 4c 10 22 51 0b 7c ae 79 c4 c0 ae
       -2.8552457e-11 1.9556353e-18 -5.7308217e-11 -8.76605e-11
000350 d8 d5 ea a1 48 fb 02 2f a9 85 c8 a2 16 5f 20 ae
       -1.5913061e-18 1.1912704e-10 -5.4351627e-18 -3.646424e-11
000360 b8 de a8 a2 1d 8f 1b a2 6f f2 c8 af d1 f9 2f 22
       -4.5772304e-18 -2.108218e-18 -3.6552047e-10 2.3849174e-18
000370 09 dc 93 af 45 fd b5 a1 6f e8 65 af ff af ea ad
       -2.689549e-10 -1.2332077e-18 -2.0910006e-10 -2.6680878e-11
000380 a8 90 c0 a2 0a 2e b5 a1 49 f4 12 21 74 95 cd 2c
       -5.2194865e-18 -1.2277224e-18 4.9790033e-19 5.843043e-12
000390 d9 1d bb af 92 d6 55 a1 d0 3a ba a3 7e 4f bb ad
       -3.403631e-10 -7.245119e-19 -2.0191068e-17 -2.129474e-11
0003a0 cd cf 76 af 3d ca 07 a2 fa f3 02 af 3d 2e e5 ac
       -2.2447395e-10 -1.8402976e-18 -1.1910109e-10 -6.513705e-12
0003b0 6c 39 6a b0 7b 53 24 af a3 e0 12 b0 11 82 75 ad
       -8.5210305e-10 -1.4945371e-10 -5.343372e-10 -1.3955518e-11
0003c0 88 41 d9 af 68 8d 0f af c8 f7 fa 2c f4 41 e8 2d
       -3.9518633e-10 -1.3056012e-10 7.1329366e-12 2.6404635e-11
0003d0 29 ee db b0 a2 cb 94 a4 9d 9b ff af fb 8b 15 b0
       -1.6002036e-09 -6.4529736e-17 -4.64948e-10 -5.440481e-10
0003e0 94 1d 50 ae 8d 2b a0 2c e3 e9 5d af c3 ce 2c a1
       -4.7319995e-11 4.5523086e-12 -2.0182926e-10 -5.8549514e-19
0003f0 cd 8d 82 ab 50 a0 3c af 5a 42 7c 22 10 15 c0 b0
       -9.276413e-13 -1.7155455e-10 3.4187495e-18 -1.3975825e-09

encoder.4.bias f4 [36]
000000 c0 dc d6 bc f7 11 0c 3e c0 12 c3 3e 16 4b f5 ac
       -0.026228309 0.13678728 0.38100243 -6.971655e-12
000010 9e c7 bc be dd 7f 11 3f 1c 56 84 2a 0d 25 c0 3e
       -0.36871046 0.5683573 2.350766e-13 0.37528268
000020 d5 2f 91 3d 87 8a d2 bc b8 ec f5 3e b6 0c b2 bd
       0.07089201 -0.02570082 0.48032165 -0.08693831
000030 0d c9 86 b2 f6 c7 aa 3e dd 5f e9 ad eb 3e 84 3e
       -1.569108e-08 0.33355683 -2.6531605e-11 0.25829253
000040 16 9e 3c 2a c7 d8 43 3e 1b 5b 1f a9 66 a2 b7 3d
       1.6752601e-13 0.19125663 -3.5384114e-14 0.08966522
000050 7a ac 1e ae 9b 55 f4 b9 cc d2 1a 3d ca 8a 95 3e
       -3.607823e-11 -0.00046603088 0.037798688 0.2920745
000060 7f 24 f1 3d 5d e5 a4 3d bd 3d 93 a4 a1 b0 c3 a9
       0.11774539 0.0805156 -6.3855676e-17 -8.69038e-14
000070 b1 f4 37 3f 33 d9 ec 3e 70 a2 0a 3e 08 aa 96 be
       0.71857744 0.4625946 0.13538527 -0.294266
000080 a8 3e a4 b9 97 bb 6b 3e f2 cb 26 3e cf d1 c6 3d
       -0.000313272 0.23020779 0.16288736 0.097079866

encoder.6.weight f4 [18, 36]
000000 f2 3f 13 3e 95 01 2f 3e 0f c9 00 3e 72 8f 63 2e
       0.14379862 0.17090447 0.12576698 5.174123e-11
000010 c5 76 bc 3d 48 47 5b be 7e db 1d ac a9 21 72 be
       0.09202341 -0.2141391 -2.2432885e-12 -0.23645653
000020 f5 24 40 3e 77 94 39 3e 8e 43 03 bd 9f 78 ab 3d
       0.18764098 0.18123041 -0.032046847 0.08372616
000030 52 af 3d 34 06 7f 3b 3e d2 e7 97 2d 03 7c ab bc
       1.7665778e-07 0.18310174 1.7269661e-11 -0.020933157
000040 af 71 4a aa 81 d1 c0 3e 49 b9 73 26 7c bd 7d bc
       -1.7980646e-13 0.3765984 8.455867e-16 -0.015487071
000050 40 a4 a1 b0 38 8f b8 b9 c5 ba 95 3e b8 0d ab bd
       -1.1760974e-09 -0.0003520192 0.29244056 -0.08352226
000060 a9 4d 98 be 03 d1 a1 3d 25 11 08 a3 6b 7f 0b 2b
       -0.2974675 0.07901194 -7.376205e-18 4.955955e-13
000070 5e f8 c6 3e 56 0c a5 bc 94 05 05 3e 16 ab d4 3e
       0.38861364 -0.020147484 0.12990409 0.41536778
000080 8f 33 75 bc 17 5e b5 bb 7b 0b a7 3d 59 d5 93 3e
       -0.014965906 -0.005534898 0.081564866 0.2887371
000090 92 0b 26 3e 0b 7c 90 3c a4 6b b4 bc 59 1e 74 ae
       0.16215351 0.017637273 -0.022023983 -5.550613e-11
0000a0 d9 72 0a be 05 ea 02 be b9 4b 3d ac 46 12 09 3e
       -0.13520373 -0.12784584 -2.690055e-12 0.13385877
0000b0 1d 76 4a 3e 1f 37 ec bd c9 7c 36 bc 65 0a 3d 3d
       0.19771619 -0.11533951 -0.01113815 0.04615249
0000c0 d8 e6 ac b6 2b 16 ae 3e 31 e1 35 2d 1e 95 c6 3d
       -5.152873e-06 0.34001288 1.0338661e-11 0.096964106
0000d0 f4 54 c8 2c 19 59 ec 3d de 4b 0b 22 ed af eb bc
       5.6937736e-12 0.115404315 1.8878177e-18 -0.028770411
0000e0 3e 5d a5 30 41 3e 30 3a b6 55 d3 bc ac 07 76 3e
       1.2031831e-09 0.0006723144 -0.025797706 0.24026364
0000f0 38 36 ba 3d a7 3e a5 3e 45 16 53 23 80 c5 44 2b
       0.09092373 0.32274362 1.1443049e-17 6.9907274e-13
000100 3b 7b ef bd 90 28 63 3e 92 aa 31 bd 10 2f 8e 3d
       -0.11693426 0.22183442 -0.04337556 0.0694257
000110 18 1e a9 ba fa 57 83 3e 45 d7 37 bb 70 c2 35 be
       -0.0012902645 0.25653058 -0.0028051895 -0.17749953
000120 e3 52 9a bd 5f 02 25 3e 49 6f 32 3e 82 95 59 2c
       -0.07535341 0.16114186 0.17425264 3.0920548e-12
000130 a4 15 50 3d e1 b4 76 3e 7a 71 be 2c 41 6b 30 3e
       0.050801888 0.24092437 5.4127232e-12 0.17228414
000140 f9 4f 46 be 3c de 89 be cc 7b 3e bd ac ff 37 3c
       -0.19366445 -0.26927364 -0.04650478 0.0112303905
000150 0b ee 15 b4 95 89 1a 3f 99 38 4f ac b4 e6 1a 3e
       -1.3963306e-07 0.60366184 -2.9447887e-12 0.15127069
000160 9f 4d 9b 2b 44 c7 34 bd 0b 6c 24 a6 6b 85 a3 bd
       1.1034957e-12 -0.044135347 -5.7045356e-16 -0.07984432
000170 23 09 b9 2b b1 d5 8d ba 36 7e da 3c 5a 0f 46 be
       1.3147577e-12 -0.0010821131 0.02667151 -0.19341794
000180 77 27 3c 3e 04 7c 10 3e 67 bd 8e a2 57 18 de 24
       0.1837443 0.14109808 -3.8689715e-18 9.6318386e-17
000190 3f 85 04 3e 43 0f 59 3e c9 69 90 3d c3 65 b8 bc
       0.12941454 0.21197228 0.07051427 -0.022509461
0001a0 62 e3 df 3b 91 2c 44 be 54 d3 65 ba 56 f0 b4 bd
       0.006832526 -0.19157626 -0.0008767147 -0.08834903
0001b0 fd b4 85 b2 d1 46 9b b4 a8 7a 57 b1 9c b3 a3 a5
       -1.5565542e-08 -2.8922526e-07 -3.135634e-09 -2.83977e-16
0001c0 2c 0a fd b3 ea b6 00 b0 9b bb 4e 24 52 77 ad b3
       -1.1783081e-07 -4.6826065e-10 4.4828038e-17 -8.0776445e-08
0001d0 6f b7 9a b3 e4 ec cc b3 3c fc bd b3 38 0f 3c b3
       -7.20455e-08 -9.5425804e-08 -8.8468795e-08 -4.3786002e-08
0001e0 40 91 1d 24 39 ad 98 ad c1 01 fe 22 f5 af 3a b3
       3.416698e-17 -1.7357326e-11 6.8848695e-18 -4.346653e-08
0001f0 66 78 0a 27 9b c0 68 b2 54 00 56 21 36 a2 56 b2
       1.9216615e-15 -1.3547971e-08 7.2506455e-19 -1.2493322e-08
000200 3e b9 af 23 f1 df 1d a3 f3 36 4c b3 6a 8a 17 b4
       1.9051991e-17 -8.5584085e-18 -4.7547427e-08 -1.4113326e-07
000210 5a be bf b3 cf 64 5e ac ad a4 c2 22 4f 8e 99 22
       -8.928755e-08 -3.1604057e-12 5.2758163e-18 4.162141e-18
000220 7c 9c b8 af 80 ce 0c 2e ed b9 58 33 82 e4 b9 b3
       -3.3580594e-10 3.2015723e-11 5.0460518e-08 -8.656299e-08
000230 37 7e 04 21 fa 26 08 b4 0c 7a 4a b4 c1 f4 16 b4
       4.4890384e-19 -1.2680167e-07 -1.8857116e-07 -1.405888e-07
000240 2d 2e 28 3e 5d 23 86 3d e0 2b 05 3e 2b 40 b6 ae
       0.16423865 0.06549714 0.13005018 -8.2878e-11
000250 da 98 9b bd 89 bc 1c be 1c e8 e0 2c 71 e3 d6 3b
       -0.075975135 -0.15306295 6.3922322e-12 0.006557875
000260 3e 1f bd bd 81 b9 03 bc 5d f0 c0 3e bc 62 72 3d
       -0.092344746 -0.008039833 0.37683383 0.05917619
000270 e3 6f a6 34 3c 0a 0b 3e c0 1c 50 2c 16 dc 06 be
       3.1001318e-07 0.13578123 2.9574537e-12 -0.13169894
000280 8b 0f 40 2c f9 de 99 bc aa 50 3e a7 7a c9 b9 bd
       2.729347e-12 -0.01878308 -2.6411525e-15 -0.09071632
000290 3f 2b 43 af c0 03 20 3c e7 ef 51 3d 57 e5 aa ba
       -1.7750511e-10 0.009766519 0.05125418 -0.0013038319
0002a0 09 7d 9c 3e f9 28 a3 bb 44 0b 17 a2 06 da f9 2b
       0.30564144 -0.0049792496 -2.047028e-18 1.7753028e-12
0002b0 7a 66 9b 3d 8b cb 59 3e f6 af 1d 3d 7b 76 25 bd
       0.07587905 0.21269052 0.038497888 -0.040396195
0002c0 fc f0 08 3c 4a a7 ca 3b d6 37 a9 bc 33 86 23 bd
       0.008358236 0.006184493 -0.020656507 -0.039922904
0002d0 a3 71 c7 bd cb 8c 3e 3e b6 9f ab 3d 9b 3f 7f ae
       -0.09738471 0.18608396 0.08380072 -5.803678e-11
0002e0 91 eb 92 3e e4 42 d4 bd 4e 1d 9b 2b f7 67 87 3c
       0.28695348 -0.10364321 1.1021546e-12 0.016529066
0002f0 e1 d0 78 3c 7e 88 61 b8 a2 0e 1c 3c a3 24 85 be
       0.015186519 -5.37713e-05 0.009524973 -0.26004514
000300 bd de f3 34 82 2d a2 3d e3 92 bc ac 1d c5 9e 3d
       4.542434e-07 0.07918836 -5.359589e-12 0.0775244
000310 f3 ac a7 ac 41 50 bb bd 16 a2 02 a6 ae e1 53 3e
       -4.7656267e-12 -0.091461666 -4.532248e-16 0.20691559
000320 de 48 fc af 80 25 27 bb 93 d3 5c bd 13 16 86 bd
       -4.5890308e-10 -0.002550453 -0.05391271 -0.06547179
000330 15 57 dc 3d 62 35 13 3d ff a6 e4 23 2c 8f c2 27
       0.10758797 0.03593958 2.4790535e-17 5.4001044e-15
000340 96 de 7e bc 20 ff 88 3d 82 e6 a4 3d a9 67 b5 3e
       -0.015555998 0.06689286 0.080517784 0.3543065
000350 88 90 a9 3c 88 7a 09 3d c4 31 9f 3d eb 60 64 bd
       0.0206988 0.03356412 0.07773164 -0.05575649
000360 77 92 0f be cd 00 80 3e c2 a6 a9 3c b5 25 29 2d
       -0.14020716 0.2500061 0.0207094 9.61491e-12
000370 aa 1f 1e bd 56 2b 78 3d 46 ce a9 ac eb cf 6f 3e
       -0.038604416 0.060588203 -4.82617e-12 0.23419158
000380 1b 20 46 bd b1 33 fe bc 30 ec 84 3d 26 e8 b3 bd
       -0.048370462 -0.031030508 0.06490362 -0.08784513
000390 78 b1 38 b4 d3 19 cc be dd 9e d7 2d 12 62 29 3e
       -1.7200898e-07 -0.39863452 2.451322e-11 0.16541317
0003a0 d8 67 e9 2b aa 75 41 be bb a1 9f 26 d3 92 b2 3d
       1.6584468e-12 -0.18892542 1.1076678e-15 0.08719411
0003b0 cd 55 93 b0 39 fc 50 3c df 2f 2e bd 27 f1 54 3d
       -1.0720044e-09 0.012755447 -0.042526122 0.051987793
0003c0 b0 7d 46 3d 96 92 20 3a aa 57 f2 23 11 5a b5 2a
       0.04845971 0.00061253586 2.627482e-17 3.2214555e-13
0003d0 e2 85 52 be fd cf 28 be 5a 33 1a be 8c fd 83 3d
       -0.20558885 -0.16485591 -0.15058652 0.064448446
0003e0 61 97 d5 3c 84 c7 b2 3e f4 d5 1f 3e 5f 4e 75 3e
       0.02607316 0.34917843 0.1560896 0.23955677
0003f0 70 47 38 a4 0f 0d 3b a9 51 ce f6 a2 16 8f 0d 23
       -3.995915e-17 -4.1533668e-14 -6.689688e-18 7.673925e-18

encoder.6.bias f4 [18]
000000 6e f3 44 3e c8 24 09 3e f5 e0 8f 3d 6f 40 88 b0
       0.19233486 0.13392937 0.07025329 -9.913615e-10
000010 0f e5 91 3b b4 d4 89 3d 04 72 1e 3e 83 07 b0 a7
       0.0044523547 0.06730023 0.15473181 -4.8857957e-15
000020 27 3b fc 3e 1d 24 b8 2b a7 7f 5c 3e 26 d9 52 be
       0.4926388 1.308401e-12 0.2153307 -0.20590648
000030 c4 a6 d3 3e a5 43 1c 3e 78 30 98 3e 15 f3 00 be
       0.4133817 0.1526018 0.2972448 -0.12592728
000040 1d fe 41 be dc 3b 14 be
       -0.18944593 -0.1447596

encoder.8.weight f4 [9, 18]
000000 a0 48 b9 3d 46 ad 8b bd 84 9e d2 3d eb c5 ce 32
       0.09047055 -0.06820159 0.10284141 2.4071559e-08
000010 90 df a5 be 5e 93 aa 3d 25 81 c3 bd 83 2e 89 a3
       -0.32397127 0.08328889 -0.09546117 -1.4873268e-17
000020 c8 4e 07 be 2d 98 05 2b 65 fd 4d be 8a 32 e9 bd
       -0.13213646 4.746228e-13 -0.20116194 -0.11386593
000030 37 4c 37 3e ed cd 95 3e be 0f 90 bd 43 64 15 be
       0.17900167 0.2925867 -0.070342526 -0.14589028
000040 06 59 b7 3e a9 0d 86 bd 4b c7 10 3e 09 00 7a 3e
       0.35810107 -0.06545574 0.14138524 0.24414076
000050 11 8f 5a 3d ba e8 88 32 62 59 c5 ba 43 eb 6e bd
       0.053359095 1.5938316e-08 -0.0015056545 -0.05832983
000060 0d f8 e4 bd e6 21 a1 22 9e 4c 6b bd 5e 0d d4 28
       -0.111801244 4.367503e-18 -0.057446115 2.3542525e-14
000070 52 ae cf 3e 8a d1 53 be 4b 05 47 3e 9d de 27 3d
       0.40562683 -0.20685402 0.19435613 0.040983785
000080 33 1b e8 bc 6c f9 9e 3e 6f f4 56 3e 1d 15 40 bd
       -0.028333282 0.3104967 0.20991682 -0.046895135
000090 06 94 67 bd ff 64 03 3e 00 0f a3 bd cb 3b b6 b4
       -0.05653765 0.12831496 -0.079618454 -3.3943647e-07
0000a0 cb cd 76 be 24 3d db 3d c4 d3 2f 3e 27 91 03 a3
       -0.24101941 0.10705021 0.17170626 -7.1322614e-18
0000b0 e4 4f 40 3e b7 c2 22 a8 f7 36 d2 bd 75 20 14 3e
       0.18780476 -9.0350286e-15 -0.1026439 0.14465506
0000c0 ae ea 4e 3e ce 5c 8c be ea a2 bd 3d 4b 59 aa bd
       0.2020671 -0.27414554 0.09259589 -0.083178125
0000d0 27 88 28 be 2a 2e 2a 3e 73 e9 eb 3c 44 a8 d3 bc
       -0.16458188 0.16619173 0.02879784 -0.025837071
0000e0 3e bc 1f 3e 3d 65 23 b3 3f 5a 01 be 15 f5 2e be
       0.15599152 -3.804347e-08 -0.12632082 -0.17085679
0000f0 40 03 7a 3e fa d6 16 a3 38 9d f0 3d 1e 91 73 29
       0.24415302 -8.177039e-18 0.11748737 5.4082708e-14
000100 7d 42 58 bd dc 87 ac be a0 dc 74 be 2b ed 8e be
       -0.052797783 -0.33697402 -0.23912287 -0.2791532
000110 0a 4a b9 bd 14 88 f0 3d 40 57 e2 3e d6 69 9f bd
       -0.09047325 0.11744705 0.4420719 -0.077838585
000120 7a e9 41 be 7a 87 4d bd d5 60 30 3e 9f 05 88 34
       -0.1893672 -0.05017803 0.17224438 2.5336064e-07
000130 ed 61 57 3e 29 99 5a 3e 70 32 83 3e 22 02 c3 a3
       0.2103345 0.21347488 0.25624418 -2.1142846e-17
000140 b3 c2 a1 bd 68 14 5a 2a 41 ca d1 3d c0 a1 5f be
       -0.07898464 1.936937e-13 0.10243655 -0.21839046
000150 c0 7d ec 3d 7a a3 2e 3e 72 4f d4 bd 46 60 3c be
       0.115474224 0.17054549 -0.103667155 -0.183961
000160 26 11 93 bc 8e 54 a0 be 50 74 8c be 2f 90 a1 3e
       -0.017952513 -0.3131451 -0.2743249 0.31555316
000170 d6 ac d0 3c 43 84 99 32 4e 9a dd 3c e9 f7 67 be
       0.02547304 1.787169e-08 0.027051117 -0.22653164
000180 ce 0a 35 be a1 e7 ba a2 e3 11 b9 bd ec 03 70 ab
       -0.17679903 -5.0660648e-18 -0.09036615 -8.527057e-13
000190 48 c4 c4 bd 07 50 cb bd 18 71 2d 3e 7b 0f 92 bd
       -0.0960775 -0.099273734 0.16937673 -0.07131859
0001a0 6b 6c 11 be b4 5e 32 be 2d 11 91 3c 9a 63 c3 3d
       -0.14201514 -0.17418939 0.017708385 0.09540482
0001b0 5c 0b 43 be 53 24 fc 39 ec 7a 2c 3e 77 a3 a5 34
       -0.19047302 0.0004809225 0.16843766 3.085258e-07
0001c0 94 8d 38 bc dc 4e a7 3d f2 69 69 be b9 03 25 a3
       -0.011264224 0.08169338 -0.22794321 -8.945456e-18
0001d0 55 7e d7 3e c4 53 8e 2a 2a af 77 bd 68 a8 d8 3e
       0.4208857 2.528239e-13 -0.060469784 0.42315984
0001e0 10 61 e5 3c 11 89 21 be 1c 1a 8c 3d 16 a4 70 3e
       0.028000385 -0.15774943 0.068409175 0.23500094
0001f0 34 f9 53 3e 7d a0 9b be 2b 4c a8 3d ad f6 25 be
       0.20700532 -0.3039588 0.08217653 -0.1620738
000200 c4 04 b1 bc 2c 7a 93 b2 10 f5 41 be 84 d1 e6 3b
       -0.021608718 -1.716861e-08 -0.1894114 0.007044019
000210 87 11 5e be 41 52 0f 24 e9 b3 9c 3c bc 11 48 29
       -0.21686374 3.1077854e-17 0.019128757 4.4424303e-14
000220 5f 89 f5 3d ba 92 89 3d 7a 7d a2 3d 4a e5 5a be
       0.11989092 0.06717439 0.07934089 -0.2137653
000230 a2 b6 52 be 3d 99 ac be ed 60 05 3d 1e 84 94 3c
       -0.20577481 -0.33710662 0.03256314 0.018129405
000240 c9 b1 a5 3d a2 9d 11 be 7e 67 65 3d 92 4d 04 b4
       0.080905505 -0.14220288 0.0560069 -1.2321678e-07
000250 5b a8 67 3d 24 a1 71 be 0d 94 f5 3d b8 88 bb 22
       0.05655704 -0.23596627 0.11991129 5.083121e-18
000260 cd c6 92 3e 0f 2d 2b ac d5 9d 17 3d 76 1c ab be
       0.28667298 -2.4325574e-12 0.037015755 -0.3342015
000270 7f 9b 87 3e dc bb 05 3d 8b 53 b2 3e cc 60 ad bd
       0.26485822 0.03264986 0.34829363 -0.08465728
000280 48 c1 9b bd 06 f5 5a be
       -0.07605225 -0.21382532

encoder.8.bias f4 [9]
000000 b1 a9 2a be 55 e4 91 3e 08 9c 6c be db 32 b0 3d
       -0.16666295 0.28494516 -0.23106396 0.0860345
000010 8b 9e 23 3e 18 8a ac ba 65 e0 38 3e 5d 09 d3 bd
       0.15978448 -0.0013163714 0.1805435 -0.1030452
000020 0c 79 b5 3e
       0.35443914

decoder.0.weight f4 [18, 9]
000000 93 27 cc 2b 98 5f cb ae a4 84 b5 a9 de c8 f4 2d
       1.4506056e-12 -9.248352e-11 -8.061024e-14 2.7828791e-11
000010 24 9e e3 ac d8 54 4b 2c 43 b5 31 2c e4 fa b2 2d
       -6.469285e-12 2.8895133e-12 2.5253833e-12 2.0347675e-11
000020 a0 0e d4 ab 01 be a5 3e 73 96 61 3e 2d e4 e5 3e
       -1.5067565e-12 0.32371524 0.22030048 0.44900647
000030 16 7c 90 be e8 b3 1f be 50 d2 72 3e 1d 2f ca bd
       -0.2821967 -0.15595973 0.2371304 -0.098722674
000040 e2 0e 90 be 24 0e 7d 3e 76 26 fc 3d 29 0c 72 be
       -0.28136355 0.24712425 0.12312023 -0.23637451
000050 74 9f 08 bd 0b b2 88 3d e2 22 04 be f2 a7 34 be
       -0.03335519 0.06674584 -0.12903932 -0.17642191
000060 06 66 81 3e e6 4e 9e be 74 8e cb 3e 09 cc db 3e
       0.2527315 -0.3091957 0.3975712 0.42929104
000070 02 7e 90 3d 68 a9 92 bc 7f bb 02 3e 7e 41 d8 3d
       0.07055284 -0.017903045 0.12766837 0.10559367
000080 0e 48 f7 3d 1c 66 9e 3d 55 88 a9 3d 6f d2 c1 3d
       0.1207429 0.077343196 0.082779564 0.09463965
000090 d9 ee 1e 3e 76 3f fe bd 25 82 91 3c d4 4c 9b be
       0.155208 -0.12414448 0.017762253 -0.30332053
0000a0 53 c1 8c be 26 df 9c be a6 b0 fa 3c b6 e9 c7 bd
       -0.27491245 -0.30639 0.03060181 -0.09761374
0000b0 39 e4 21 3e a2 f0 5b 3e b4 c3 3e 3e 0f 5c b6 3e
       0.15809716 0.21478513 0.18629342 0.3561711
0000c0 65 e0 16 be 67 60 49 3e 70 a1 34 be e5 74 cb 3e
       -0.14734037 0.19665681 -0.17639709 0.3973762
0000d0 9e 93 4f bd 08 02 12 bd f1 37 39 3e cf cd f5 bc
       -0.050677888 -0.03564647 0.18087746 -0.030005364
0000e0 20 24 41 be 87 ea 7b 3d 66 ca 00 be 9b 8b 56 be
       -0.18861437 0.06150296 -0.12577209 -0.20951693
0000f0 1d 43 80 bd 23 0e 62 be ae ff 35 be 63 2d 60 be
       -0.06262801 -0.22075705 -0.17773315 -0.21892314
000100 58 65 78 3e 9d a3 02 be cc aa f9 b9 e5 fa 22 bd
       0.2425741 -0.12757726 -0.00047620235 -0.039790053
000110 f0 10 c9 3d db 48 5d 3e 3e 10 bc be 6b a9 7c 3e
       0.09817684 0.21609823 -0.36731142 0.24674003
000120 4a f8 2e 3e ec 3e f2 3d 88 63 d0 be 5e d3 8b be
       0.17086902 0.11828408 -0.40700936 -0.27309698
000130 5f 7a a1 3e f1 54 b6 bd bb db 29 be 0c a3 8c be
       0.31538674 -0.0890292 -0.16587727 -0.27468145
000140 1f 86 1d 3e 6b d0 26 be 90 c6 02 3e b7 a5 7d bd
       0.15383194 -0.16290443 0.12771058 -0.061925616
000150 13 5a 2e 3e 5c 35 91 3e 3d 96 62 be c8 29 17 be
       0.17026548 0.28361022 -0.22127624 -0.14762032
000160 97 f4 88 be eb 0d c5 bd 9c 21 3e bc 9d ab b8 bc
       -0.26749107 -0.09621795 -0.011604693 -0.02254277
000170 8f 1f 8f 38 e8 bf 6e 3c d6 10 94 3a a9 c2 79 3c
       6.8246496e-05 0.014572121 0.0011296521 0.0152441645
000180 a8 57 94 bb 1c e6 b9 3c bc de 9f bb 6e 94 90 3e
       -0.004527051 0.022692733 -0.004878847 0.28238243
000190 78 68 1a 3d b9 b1 7c be 16 33 37 be 34 2f a5 3b
       0.037697285 -0.24677171 -0.17890581 0.0050410274
0001a0 11 cf 2f bd 55 3e 92 3d 6c 5c 2d 3d 8a a5 ca 3d
       -0.042922083 0.07140795 0.04232447 0.09894855
0001b0 cf aa bd bd 4a 66 a8 3e d2 82 b3 bc b9 47 85 bd
       -0.09261095 0.3289054 -0.021912966 -0.06507821
0001c0 4a 67 f1 bc 43 b1 19 be ca d4 42 3e d8 7c 52 3e
       -0.029468197 -0.15009026 0.19026485 0.20555437
0001d0 8e 2c 88 3e 28 87 ba 3c 9f 1d 1a 3d 0e 3f 7d 3e
       0.26596493 0.022769526 0.037625905 0.24731085
0001e0 30 04 62 3e 5b e6 e3 bd d0 4b a5 be 18 94 8d bc
       0.2207191 -0.11127921 -0.32284403 -0.01728253
0001f0 f7 65 74 be 4c 1f b7 3e 67 47 a4 be 13 e5 f3 bd
       -0.23867022 0.35766065 -0.32085726 -0.11908927
000200 6a 0d a3 3d 65 47 ab be d4 7d d4 be c7 bd 68 bd
       0.07961543 -0.33452907 -0.4150225 -0.05682161
000210 a8 25 c6 bd e4 b7 64 be a9 4d db bd f1 0c ba bd
       -0.09675151 -0.22335774 -0.10708172 -0.090844996
000220 55 d6 16 3e 05 c7 e1 3e 54 5f a5 3d a1 75 bd 3e
       0.14730199 0.44097152 0.08074823 0.37003806
000230 7e 3a 25 be fd 44 bf 3b b9 f5 55 3b 6d b4 a9 bd
       -0.16135594 0.0058370815 0.0032647683 -0.082863666
000240 cd f2 4b 3e 24 79 9d 3e ed 7a 7d bb 93 ef c0 3d
       0.1991684 0.30756485 -0.0038678006 0.09420695
000250 b5 62 90 be b5 71 11 3e 91 4f e0 bc 29 c1 a6 be
       -0.28200307 0.14203532 -0.02738169 -0.32569245
000260 6a 39 34 be a6 9c d8 3d ec ec 19 3e 59 c7 0c be
       -0.17600027 0.10576753 0.15031785 -0.1374792
000270 0b 06 82 bd 9c f9 a8 bd 4e 25 a4 be ad 40 95 be
       -0.06348809 -0.08250734 -0.3205971 -0.29150906
000280 5a e4 18 3d b7 34 5e 3d
       0.037327148 0.05424949

decoder.0.bias f4 [18]
000000 c8 43 92 aa f2 cb 81 bd 0c 53 c0 3e 82 97 c2 3d
       -2.5981843e-13 -0.063377276 0.3756336 0.09501554
000010 03 c3 fc 3e 6d 9a e5 be 25 7a 8b be d7 16 a8 be
       0.49367532 -0.4484438 -0.27241626 -0.32829925
000020 30 3d 86 3e 66 b8 28 3d ae 59 d1 ba 02 95 69 3e
       0.26218557 0.04119148 -0.0015972161 0.22810748
000030 da 4b 21 3f ee e0 06 3f 01 7b 04 3e d1 65 10 3f
       0.63006365 0.52686965 0.12937547 0.5640536
000040 85 5c 69 3d a0 ce 94 be
       0.056973 -0.29063892
