model/autoencoder.pth (torch, 905487 bytes, 20 tensors)

encoder.0.weight f4 [128, 784]
0	0x200a27b9	1.1702198e-19
1	0xa1553a7e	-7.224462e-19
2	0xa1a373a6	-1.1075922e-18
3	0x219c79be	1.0603196e-18
4	0xa1bf192f	-1.2949329e-18
5	0x9ea133f5	-1.7068027e-20
6	0x205ccefb	1.8703209e-19
7	0x2031b6c2	1.5052953e-19
8	0x21c90964	1.3622775e-18
9	0x21058791	4.5241573e-19
10	0xa1934afe	-9.980958e-19
11	0xa1cb274e	-1.3766219e-18
12	0x3c272edc	0.010204043
13	0x3a9f2f74	0.001214488
14	0x3a9f5a07	0.0012157568
15	0x3c236ce1	0.009974689
16	0xa0c15fa0	-3.275875e-19
17	0x211c358a	5.2925714e-19
18	0x21b4ba4d	1.2246588e-18
19	0xa0221ea6	-1.3732074e-19
20	0x218ff17f	9.75398e-19
21	0x2096e04c	2.5559416e-19
22	0x219d07a3	1.0640755e-18
23	0x21c35138	1.3235212e-18
24	0xa1bf1dba	-1.2950532e-18
25	0xa191afb7	-9.872094e-19
26	0xa189c8d0	-9.336636e-19
27	0xa18a1832	-9.357648e-19
28	0xa0a391b3	-2.770969e-19
29	0x219fc261	1.0825711e-18
30	0x9dae80f1	-4.619074e-21
31	0x211437f7	5.021842e-19
32	0x1ebb13f5	1.9807649e-20
33	0x21647fb4	7.741842e-19
34	0xa0ac592b	-2.919694e-19
35	0x3d03f75a	0.032218315
36	0x3c2f44ce	0.010697557
37	0x3e68fbb0	0.22752261
38	0x3e81ca97	0.25349876
39	0x3e1cd3b7	0.15315138
40	0xbe084df6	-0.1331099
41	0xbd9cd6e4	-0.07658175
42	0xbc78ec91	-0.015193121
43	0xbd02f3b6	-0.031970702
44	0x3e2a545b	0.16633742
45	0xbde870a9	-0.11349613
46	0x3cff27eb	0.031146964
47	0x3e1a9250	0.15094876
48	0x3e4a5398	0.19758451
49	0xbaacebc8	-0.0013192827
50	0xbc12b144	-0.008953396
51	0x3ccf1fac	0.025283657
52	0x21b648bf	1.2352055e-18
53	0xa19db824	-1.0687475e-18
54	0x2175bb64	8.325724e-19
55	0x21c514cf	1.3354747e-18
56	0xa0f079ad	-4.07381e-19
57	0x212edb32	5.9243596e-19
58	0x3c2e8ace	0.010653211
59	0x3cd66216	0.026169818
60	0x3d82b04d	0.06381283
61	0x3e6f70f3	0.2338293
62	0x3e1e75e0	0.15474653
63	0x3e938a89	0.2881663
64	0x3ec4eaec	0.3846048
65	0x3eaa4093	0.3325239
66	0x3e26aaef	0.16276143
67	0x3dedc14c	0.11609134
68	0x3e605c88	0.21910298
69	0x3e4d9a56	0.20078406
70	0x3e7f4b24	0.24931008
71	0x3ed1303a	0.40857106
72	0x3e372252	0.17884186
73	0x3dc185e3	0.09449365
74	0x3e01348c	0.12617701
75	0x3d3f3f3e	0.04669117
76	0x3ce3714a	0.027763981
77	0x3d71073c	0.05884479
78	0x3e873d4f	0.26413962
79	0x3dbec7b6	0.093154356
80	0xbda00736	-0.078138754
81	0x3d2ff9a6	0.042962693
82	0x2187f374	9.212397e-19
83	0xa11e0ccd	-5.3549424e-19
84	0xa096f7fc	-2.557509e-19
85	0x2121ae69	5.477975e-19
86	0x3ca8b685	0.020594845
87	0x3c9e9887	0.01935984
88	0x3e18361c	0.14864391
89	0xbe114ae0	-0.14188719
90	0x3d29dada	0.04146848
91	0x3eb8e02b	0.36108527
92	0x3db19cc6	0.0867248
93	0x3e959a7d	0.29219428
94	0x3e8ccaac	0.27498376
95	0x3e635210	0.22199273
96	0x3df72253	0.12067094
97	0x3ea3d02f	0.3199477
98	0x3eb3b2e2	0.35097414
99	0x3e8b3886	0.2719156
100	0x3e730898	0.23733747
101	0x3e5833fe	0.21113583
102	0xbdd5132c	-0.10404047
103	0xbd9de962	-0.0771053
104	0xbc397130	-0.01131849
105	0xbd1fa179	-0.03897235
106	0xbe0c799a	-0.13718262
107	0xbdf3b30d	-0.118993856
108	0xbe155433	-0.145829
109	0xbd533a2f	-0.05156916
110	0xbe1a781f	-0.15084885
111	0x217915c6	8.43933e-19
112	0x21329b18	6.051401e-19
113	0x3cc3bed6	0.023894709
114	0xbd99ec60	-0.07515788
115	0xbe6750b1	-0.22589375
116	0xbda47cd9	-0.08031625
117	0xbe23e293	-0.160044
118	0xbe3699cf	-0.17832111
119	0xbe3684a7	-0.1782404
120	0xbe6147e5	-0.22000082
121	0xbe2827db	-0.16421454
122	0xbe70cd62	-0.23515847
123	0xbd9da3d2	-0.07697262
124	0xbddfafa2	-0.10922171
125	0x3e2e2e23	0.17009787
126	0x3e1ca613	0.15297727
127	0x3e33415a	0.17505398
128	0x3eaf325b	0.34218106
129	0x3ebb5086	0.36584872
130	0x3e771e9b	0.24132769
131	0x3d886764	0.06660345
132	0x3d89ef32	0.06735076
133	0xbb728cdd	-0.003701023
134	0xbce7be67	-0.028289033
135	0xbd85cba7	-0.06532984
136	0xbd1dd51b	-0.03853331
137	0x3d5e46c5	0.05426671
138	0xbbdc3059	-0.0067196307
139	0x3b2ad391	0.0026066045
140	0x20bbde7b	3.1826257e-19
141	0xa11b14c5	-5.254353e-19
142	0xbd4d0aa7	-0.050058987
143	0xbe03e7d3	-0.12881403
144	0xbe6aa707	-0.22915278
145	0x3db749ec	0.08949646
146	0xbece9e2d	-0.40355054
147	0xbed3f474	-0.4139744
148	0xbeae14ef	-0.34000346
149	0xbead6fb9	-0.338743
150	0xbe155ccc	-0.1458618
151	0xbd21c90f	-0.039498385
152	0x3df1708b	0.11789044
153	0x3dc44b5e	0.09584688
154	0x3e19d33b	0.15021984
155	0x3e0c7b70	0.13718963
156	0x3db3a1d9	0.08771104
157	0x3d416e95	0.0472246
158	0x3dbd65d9	0.092479415
159	0x3dc90d5f	0.098170035
160	0x3e2c1347	0.16804229
161	0x3c1f4f49	0.009723493
162	0x3d3e0023	0.04638685
163	0xbd7bf43f	-0.061512228
164	0xbe03b468	-0.12861788
165	0xbdc12381	-0.094306
166	0xbe02f7b9	-0.12789811
167	0x3d575d4b	0.052579205
168	0xa0b32be6	-3.035283e-19
169	0xbc42efd9	-0.011898004
170	0x3db81360	0.089880705
171	0x3e0be77a	0.1366252
172	0xbdc519fe	-0.09624098
173	0x3e7e721d	0.24848218
174	0xbe8f9303	-0.2804185
175	0xbe9cd745	-0.30632988
176	0xbec615c6	-0.38688487
177	0xbea3659a	-0.31913453
178	0xbe3d82f3	-0.18506984
179	0xbd9c1330	-0.07620847
180	0x3c9a847a	0.018861998
181	0x3d820dda	0.06350298
182	0x3d4befbc	0.049789175
183	0x3d76e0a0	0.060272813
184	0x3d8d446e	0.068978176
185	0xbd19559d	-0.037435163
186	0x3c98130b	0.018563768
187	0xbd1374bc	-0.036
188	0x3ca7b6ba	0.020472873
189	0x3c200871	0.009767638
190	0xbcd7c493	-0.026338851
191	0xbc736c68	-0.014857389
192	0x3d1fcd91	0.039014403
193	0x3d347fec	0.04406731
194	0xbd0f84a3	-0.0350386
195	0x3d5f40a1	0.054504994
196	0x32d1166d	2.4341e-08
197	0xbe6e6715	-0.2328151
198	0xbe2e6a97	-0.17032848
199	0x3d82803e	0.063721165
200	0x3d97aca8	0.074059784
201	0xbe837467	-0.25674745
202	0xbe91a1c1	-0.2844372
203	0xbea78080	-0.32715225
204	0xbe9c6c18	-0.3055122
205	0xbe2f37dd	-0.17111154
206	0xbd8401c1	-0.06445647
207	0xbde9a5d2	-0.11408581
208	0x3de33e98	0.11095923
209	0x3e00dd07	0.12584315
210	0x3ddb3a8e	0.10704528
211	0xbcfe30d9	-0.031029152
212	0xbda4cf6f	-0.08047377
213	0xbc107177	-0.008816115
214	0x3c78bb9f	0.015181451
215	0x3de2bdbc	0.11071345
216	0x3c5f9f3a	0.013648802
217	0x3d46d69a	0.048544504
218	0x3cf41ef8	0.029799923
219	0xbca6ada6	-0.020346474
220	0x3dfc05c8	0.1230579
221	0x3e1bd441	0.15217687
222	0xbe3219bc	-0.1739263
223	0xbec6f2ae	-0.38857025
224	0xbd0d02f6	-0.034426652
225	0xbd8749a6	-0.06605844
226	0xbe282e86	-0.16423997
227	0x3e798cab	0.24370067
228	0xbe172cdf	-0.1476321
229	0xbe13769f	-0.14400719
230	0xbba6c65e	-0.005089565
231	0xbe6c5822	-0.23080495
232	0xbe0c1bf2	-0.13682535
233	0xbe3f9732	-0.1871002
234	0xbe3d6e37	-0.18499075
235	0xbd0112c0	-0.031512022
236	0x3e2fa4f2	0.17152765
237	0x3dc2d3b2	0.09513034
238	0x3c480c33	0.01220994
239	0xbd36422f	-0.04449671
240	0xbd17d6b4	-0.03706999
241	0x3d21b9d5	0.039483864
242	0x3b966817	0.004590045
243	0x3d4957f8	0.04915616
244	0x3d083762	0.033255942
245	0xbdab8ce4	-0.08376482
246	0xbddc74bc	-0.10764453
247	0xbda77f34	-0.08178559
248	0xbe3b7dc4	-0.18309695
249	0x3d80e100	0.06292915
250	0xbe8f27f1	-0.2796016
251	0x3e7a339f	0.24433754
252	0xbd6f2fa0	-0.058395028
253	0xbcad8aea	-0.021184403
254	0xbe2b62b5	-0.16736872
255	0xbd1a60e6	-0.037690066

encoder.0.bias f4 [128]
0	0x3e8186be	0.25298113
1	0xa40d584c	-3.064929e-17
2	0x3f59a691	0.85019785
3	0xbd867229	-0.06564743
4	0x3f1b753b	0.60725754
5	0xa34337a9	-1.0582758e-17
6	0xa474057a	-5.2913705e-17
7	0xa39cb74e	-1.6991186e-17
8	0xa33988bd	-1.00578256e-17
9	0xa26301dd	-3.0765223e-18
10	0x3f2173b6	0.63067186
11	0xa41704bb	-3.2746912e-17
12	0xbda702de	-0.08154844
13	0xa31a6356	-8.369392e-18
14	0x3f19d45f	0.6008968
15	0xa21d6178	-2.1329067e-18
16	0x3e849f99	0.25903013
17	0xbef7cf98	-0.4840057
18	0xa24e2b74	-2.794121e-18
19	0x3edc8c1c	0.43075645
20	0xa2876a49	-3.6704357e-18
21	0xbe62b190	-0.22138047
22	0xa7659b13	-3.18642e-15
23	0x3eb22ca5	0.34799686
24	0x3d4d8bf3	0.050182294
25	0x24cc9646	8.872547e-17
26	0x3d513b59	0.05108199
27	0x3e9de555	0.3083903
28	0xbd578fee	-0.052627496
29	0x3e8eede1	0.27915862
30	0x3f55466f	0.833106
31	0x3d1d80fd	0.03845309
32	0x3ed08823	0.40728864
33	0x3de3d7b7	0.11125129
34	0x3f2d887f	0.677864
35	0x226eb215	3.234929e-18
36	0x3e09ca05	0.1345597
37	0x3ef17c50	0.47165155
38	0x3e9a992a	0.3019498
39	0x3ea279b2	0.3173347
40	0x3f1ada0e	0.60488975
41	0xa4300e42	-3.8175993e-17
42	0x3e3695bd	0.17830558
43	0xbe9b827d	-0.30372992
44	0x3e7d223d	0.24720092
45	0xa43f4169	-4.1471928e-17
46	0x3e902846	0.28155726
47	0xa31958ba	-8.312935e-18
48	0x3e502e86	0.20330247
49	0xbe4276ce	-0.18990633
50	0x3e8dbd6e	0.27683586
51	0x3ed46826	0.4148571
52	0x3e877ca8	0.26462293
53	0x3f0f7c1a	0.5604874
54	0xa4b3eb38	-7.802735e-17
55	0x3eeb0f4b	0.45910105
56	0xbc1f39d4	-0.009718377
57	0x3eee77a5	0.46575657
58	0xbe4f14ab	-0.20222728
59	0xbe7ca881	-0.24673654
60	0x3db77779	0.089583345
61	0xa3185e73	-8.259937e-18
62	0x3e406ebf	0.18792246
63	0xa6079ea2	-4.705252e-16
64	0xbe73b429	-0.23799194
65	0x3f13b114	0.57692075
66	0x3ee09d8d	0.43870202
67	0xbe5aba09	-0.2136003
68	0xa3169be3	-8.164527e-18
69	0xac411b8a	-2.7442237e-12
70	0xa989a18f	-6.112048e-14
71	0x3e5c0c47	0.21489058
72	0xa2c70e82	-5.395442e-18
73	0xa36b240d	-1.27470096e-17
74	0x3e609d1a	0.2193493
75	0x3dbde7ce	0.09272729
76	0x3ea340a6	0.3188526
77	0x3eaaa287	0.33327124
78	0x3dfda977	0.123858385
79	0x3f5427b7	0.828731
80	0x3f528e07	0.82247967
81	0xbe72c42c	-0.23707646
82	0x3f113998	0.56728506
83	0xbd2ac081	-0.041687492
84	0xbcdf04f2	-0.027224038
85	0xa403d982	-2.8590333e-17
86	0x3e55e7a0	0.20889139
87	0xa3a013a0	-1.7355546e-17
88	0xbdb79dd5	-0.08965651
89	0xa4b27154	-7.738718e-17
90	0xbe1a7b83	-0.15086178
91	0xbed567cd	-0.41680756
92	0xa2ce2d9f	-5.5884715e-18
93	0xa2d15459	-5.673887e-18
94	0x3f1a9223	0.60379237
95	0x3f239e1d	0.63913137
96	0xa39faf3f	-1.7313034e-17
97	0xa3126fe3	-7.938369e-18
98	0xbf244cdd	-0.64179784
99	0x3e7a7cbc	0.24461645
100	0xa3810e3a	-1.3992233e-17
101	0x3ea262f2	0.31716114
102	0xa2686aa6	-3.1498322e-18
103	0x3e4a3876	0.197481
104	0x3efca607	0.4934542
105	0x3ef836bf	0.48479268
106	0xbd99e5d0	-0.075145364
107	0xbde53722	-0.111921564
108	0xa13b5313	-6.346801e-19
109	0x3ccd73e1	0.02507967
110	0xab807ebe	-9.130125e-13
111	0xbdfd8189	-0.123782225
112	0x237a6ece	1.3575991e-17
113	0xa33e4a9b	-1.0315719e-17
114	0x3f1a9cca	0.6039549
115	0x3f4910c3	0.785412
116	0x3ef639fc	0.48091114
117	0xa222cb9d	-2.2062886e-18
118	0xa2a7de54	-4.550084e-18
119	0x3eeb0c54	0.45907843
120	0xbd292aac	-0.04130046
121	0xbb5b7c24	-0.0033490742
122	0xa490ee1e	-6.285343e-17
123	0xa499b102	-6.6653036e-17
124	0xaacf86a2	-3.6864007e-13
125	0x3f630a5c	0.8868768
126	0xbedd182d	-0.43182507
127	0x3ea985d3	0.33109912

encoder.2.weight f4 [64, 128]
0	0xb3e120eb	-1.0483367e-07
1	0x2190a3aa	9.801141e-19
2	0xb29ae37f	-1.8031413e-08
3	0xb2fe63b6	-2.9614835e-08
4	0xb288ab4e	-1.5910384e-08
5	0x2219ac60	2.0826621e-18
6	0xa1f03100	-1.6276003e-18
7	0x228846de	3.6937907e-18
8	0xa246fd16	-2.6967986e-18
9	0x22e09762	6.0875604e-18
10	0xb1ac98e0	-5.0232387e-09
11	0x216c42c5	8.004828e-19
12	0xb385b337	-6.225894e-08
13	0x2273fa3a	3.306511e-18
14	0xb0950af0	-1.0844285e-09
15	0xa290b3b5	-3.922155e-18
16	0xafbc80b1	-3.4288442e-10
17	0x33793fe9	5.8032956e-08
18	0xa213b246	-2.0016592e-18
19	0x2e4c01d9	4.638587e-11
20	0x229ea633	4.3001956e-18
21	0xb0b47d88	-1.3132402e-09
22	0xa2633c25	-3.0796077e-18
23	0xb49eec96	-2.9601932e-07
24	0xb1729ef6	-3.5305994e-09
25	0x221c5573	2.1187179e-18
26	0xb1d460a3	-6.1809984e-09
27	0xb1514b0d	-3.0456164e-09
28	0xb0106e5c	-5.2543725e-10
29	0xac42bfa2	-2.7675436e-12
30	0xb3924f05	-6.8130284e-08
31	0xb21f9b7b	-9.29037e-09
32	0xb2b15114	-2.0642382e-08
33	0xaccb2112	-5.7732786e-12
34	0xb0f0dd65	-1.7525222e-09
35	0x2231a37a	2.4074517e-18
36	0xb2155fe6	-8.694746e-09
37	0xb2c5db67	-2.3033591e-08
38	0xb2abcab5	-1.99992e-08
39	0xb2fd73f7	-2.9505811e-08
40	0xae25b53f	-3.7677635e-11
41	0x2301b861	7.032148e-18
42	0x30a3c6f5	1.1916358e-09
43	0xb41e93c4	-1.4768654e-07
44	0xb3de14f0	-1.0341489e-07
45	0xa2672110	-3.132384e-18
46	0xb27e431c	-1.4800005e-08
47	0xa1d168ee	-1.4190166e-18
48	0xb408c021	-1.2735883e-07
49	0xb09f5ee3	-1.1595741e-09
50	0xb1b02621	-5.126609e-09
51	0xb3371486	-4.2626674e-08
52	0xaf1ad2ae	-1.4081067e-10
53	0xb051b158	-7.628578e-10
54	0x224f099a	2.8058814e-18
55	0xae90b3be	-6.5802905e-11
56	0xb374137b	-5.6828394e-08
57	0xb209c7c5	-8.019872e-09
58	0x30459561	7.188046e-10
59	0xb12bdae1	-2.5008193e-09
60	0x32174964	8.806044e-09
61	0x21966511	1.0191147e-18
62	0xaf47b565	-1.8163389e-10
63	0x21e93e5b	1.58052e-18
64	0xb2653e2e	-1.3343692e-08
65	0xb52df2eb	-6.4801014e-07
66	0xb30ff94a	-3.352151e-08
67	0xb3f621d7	-1.1461423e-07
68	0xa28645c2	-3.639463e-18
69	0x22cbeafb	5.5272056e-18
70	0x2320c5e3	8.7155215e-18
71	0xb135399b	-2.6371711e-09
72	0xa0750908	-2.0755295e-19
73	0x2225c31f	2.2464966e-18
74	0xb490ce38	-2.6972134e-07
75	0xb2c88ead	-2.3347946e-08
76	0xb28d0999	-1.6418925e-08
77	0xb48f43d1	-2.6685169e-07
78	0xb15420b6	-3.0868654e-09
79	0xb1ab4bf7	-4.985391e-09
80	0xb378edae	-5.7958168e-08
81	0xb1f03387	-6.9907773e-09
82	0xb40d57a6	-1.3163535e-07
83	0x31dee0bc	6.4865997e-09
84	0xb2d91eb4	-2.5276087e-08
85	0x222dc936	2.3552392e-18
86	0xb3114375	-3.3821795e-08
87	0x21cbe564	1.3816534e-18
88	0x2a964c4b	2.6698291e-13
89	0xa05c6741	-1.8668889e-19
90	0xb5171c13	-5.6292737e-07
91	0xb465bae2	-2.1395275e-07
92	0xa24077a1	-2.6084183e-18
93	0xa2c16789	-5.2422377e-18
94	0xb0d98089	-1.582536e-09
95	0xb1a6eb21	-4.857967e-09
96	0x220ff699	1.9510662e-18
97	0xa1bb2d14	-1.2683545e-18
98	0x31cea7a7	6.014449e-09
99	0xaf520107	-1.9099754e-10
100	0x2297f253	4.1185203e-18
101	0xad6270eb	-1.28716855e-11
102	0xa1cd44e3	-1.3909574e-18
103	0xaff1cb92	-4.398229e-10
104	0xb3502795	-4.8464774e-08
105	0xb45aca4a	-2.0376424e-07
106	0xb111b4d1	-2.120306e-09
107	0xb33be74b	-4.374969e-08
108	0x2261a8ba	3.058251e-18
109	0xb48e9244	-2.6555983e-07
110	0x230486a2	7.184244e-18
111	0xb3bf01fa	-8.89449e-08
112	0x2372ea01	1.31683985e-17
113	0xa26d353c	-3.2147671e-18
114	0xb23a5782	-1.0846522e-08
115	0xb22dbc09	-1.011268e-08
116	0xb331f446	-4.143319e-08
117	0x1f141b06	3.1362572e-20
118	0x2008bb1f	1.1581561e-19
119	0x2fcf789c	3.773878e-10
120	0xb3ba37b7	-8.6714344e-08
121	0xb1a4f1f5	-4.8005355e-09
122	0x22757c3a	3.3269457e-18
123	0xa2ca612d	-5.48551e-18
124	0x2223d97a	2.220575e-18
125	0xb049385e	-7.3203477e-10
126	0xb387c1f7	-6.3217094e-08
127	0xb4a74721	-3.1157927e-07
128	0xab0c5d3d	-4.9867386e-13
129	0x22f0c6a8	6.5262466e-18
130	0xaac5723d	-3.5073498e-13
131	0xa91940d6	-3.402906e-14
132	0x28841300	1.4663184e-14
133	0xa161a7ca	-7.645503e-19
134	0x212a3a09	5.767505e-19
135	0x22455819	2.6745117e-18
136	0x21a16760	1.0937147e-18
137	0x2117233e	5.1207433e-19
138	0xaa46689f	-1.762223e-13
139	0x22244517	2.226272e-18
140	0xac105dad	-2.0515631e-12
141	0xa184d8b8	-9.002033e-19
142	0xa6274d60	-5.8044627e-16
143	0xa2491081	-2.7249317e-18
144	0xaaf71f23	-4.389762e-13
145	0xaa86a9e2	-2.3921062e-13
146	0xa25c1fbf	-2.9832366e-18
147	0xaa9af088	-2.7522797e-13
148	0xa2cc95ca	-5.5452906e-18
149	0xa6998bd3	-1.0654407e-15
150	0x214400fe	6.6408696e-19
151	0xabfec9e0	-1.8103817e-12
152	0xaba0f1c4	-1.1435787e-12
153	0xa2edf657	-6.44998e-18
154	0xaafaf834	-4.4581147e-13
155	0xab51d34b	-7.4544944e-13
156	0x2abe683b	3.3823104e-13
157	0xa898c551	-1.6960962e-14
158	0xaa6bd9f1	-2.0947806e-13
159	0xab6b32f7	-8.35595e-13
160	0xa9ee3eda	-1.0580226e-13
161	0xa83fbb61	-1.0643261e-14
162	0xa9957e18	-6.638803e-14
163	0xa29d3b61	-4.2617805e-18
164	0xab633feb	-8.0735305e-13
165	0xaa119bbc	-1.2932618e-13
166	0xaaf4e47d	-4.3501652e-13
167	0xac71e720	-3.437646e-12
168	0xa6743fbc	-8.474088e-16
169	0xa3a7cb6a	-1.8192325e-17
170	0xab97dfc2	-1.0791301e-12
171	0xaab230ee	-3.1653104e-13
172	0xac494ce8	-2.860651e-12
173	0x213122ec	6.001615e-19
174	0xa96e77e0	-5.295059e-14
175	0xa281fcce	-3.5233187e-18
176	0xac9e3c42	-4.49732e-12
177	0xaa8668d5	-2.3875923e-13
178	0x2780bb1a	3.5729993e-15
179	0xaaf6b012	-4.3820552e-13
180	0xa9999b73	-6.821531e-14
181	0xaa5a785c	-1.9404048e-13
182	0x22238c96	2.2165045e-18
183	0xa892b8cf	-1.6289404e-14
184	0xab2d7be0	-6.163386e-13
185	0xac88b629	-3.8855763e-12
186	0xac8a8e42	-3.9379897e-12
187	0x290864bd	3.0285443e-14
188	0xab1a5313	-5.482708e-13
189	0xa1b6d4c3	-1.2389117e-18
190	0xab596ec0	-7.7247583e-13
191	0x230f05fb	7.753312e-18
192	0x2b2dc283	6.1731886e-13
193	0xac8bb59e	-3.970781e-12
194	0xaba8e955	-1.2001881e-12
195	0xac05aad3	-1.8995263e-12
196	0xa2695ac7	-3.1625445e-18
197	0x21de9a24	1.5084106e-18
198	0xa2a37b91	-4.431207e-18
199	0xa8df8843	-2.4817068e-14
200	0x220e395d	1.9274956e-18
201	0x2249de92	2.7358407e-18
202	0xad19c9fb	-8.741892e-12
203	0xace57c15	-6.5223473e-12
204	0xaa4c5065	-1.8146732e-13
205	0xaba4a383	-1.1698284e-12
206	0xa9bb0c65	-8.306618e-14
207	0xab05b406	-4.7500925e-13
208	0xaba2ff78	-1.1581699e-12
209	0xa98c54b6	-6.231944e-14
210	0xaa8a8cfc	-2.4611552e-13
211	0xa8595454	-1.20642056e-14
212	0xa9b58567	-8.061156e-14
213	0xa2610f77	-3.0501373e-18
214	0xa8e03de3	-2.4895835e-14
215	0x22df2259	6.048064e-18
216	0xaac41cfe	-3.4836711e-13
217	0xa294232b	-4.0152716e-18
218	0xacdd1343	-6.2833363e-12
219	0xacdac69f	-6.217984e-12
220	0xa1741390	-8.2696306e-19
221	0x22d53eae	5.780013e-18
222	0xa87557c9	-1.3619267e-14
223	0xa9bc524b	-8.363153e-14
224	0xa3385959	-9.99358e-18
225	0xa2882953	-3.6906628e-18
226	0xac15cd1b	-2.128803e-12
227	0xa6dee3b4	-1.5466064e-15
228	0xa302f38a	-7.0988855e-18
229	0xa94db69a	-4.5677526e-14
230	0xa0a24649	-2.7490378e-19
231	0xab79c344	-8.8733556e-13
232	0xaa8c04ff	-2.4872462e-13
233	0xac4804a9	-2.8424296e-12
234	0xabf0f5f7	-1.7121295e-12
235	0xac0eefe4	-2.031258e-12
236	0x22755bed	3.3252357e-18
237	0xac26eaca	-2.3720353e-12
238	0xa2a27051	-4.4029108e-18
239	0xaada96b5	-3.8829153e-13
240	0xa339413b	-1.0042683e-17
241	0x2165ebb9	7.7900194e-19
242	0xab451918	-7.0023284e-13
243	0x28ea47bf	2.6010334e-14
244	0xaa0ca572	-1.2491898e-13
245	0x22067387	1.8221546e-18
246	0xa280b685	-3.488772e-18
247	0xa6de844f	-1.5440207e-15
248	0xac8311fa	-3.7252397e-12
249	0xa9c67393	-8.813015e-14
250	0xa2d33ff7	-5.725939e-18
251	0x230b2ee8	7.545138e-18
252	0x228613c1	3.634169e-18
253	0xa8f6b023	-2.7387874e-14
254	0xaa3e8782	-1.6922404e-13
255	0xac3600ef	-2.5864274e-12

encoder.2.bias f4 [64]
0	0xb2a19662	-1.8811253e-08
1	0xaa014423	-1.1481141e-13
2	0xbe08d0ef	-0.13360952
3	0xa7dbb20f	-6.097776e-15
4	0xa401f75a	-2.818193e-17
5	0x3e225cd4	0.15855724
6	0xaa3c0984	-1.6701056e-13
7	0x3ea81fc2	0.3283673
8	0xa5745f37	-2.1195886e-16
9	0xa9ac4e84	-7.651955e-14
10	0xbe68b181	-0.22723962
11	0xa8a5d955	-1.8412933e-14
12	0xbdd80b03	-0.10548975
13	0x3f109df4	0.5649102
14	0x28b3421a	1.9901659e-14
15	0x3f2b6a69	0.66959244
16	0x3ed2e89a	0.41193086
17	0xae4a757e	-4.6033836e-11
18	0xbd541c3c	-0.05178474
19	0x3e87827f	0.26466748
20	0xb2354300	-1.0550821e-08
21	0x3e92f286	0.28700656
22	0x3f0ea7d0	0.5572481
23	0x3eede9b2	0.46467358
24	0x3b8d665c	0.0043151807
25	0xa59bc0d5	-2.7018882e-16
26	0x3e8a7cdc	0.27048385
27	0xbe671702	-0.2256737
28	0xbebd05c4	-0.3691846
29	0x3e6f94e0	0.23396635
30	0x3e806da0	0.25083637
31	0x24301984	3.818553e-17
32	0x3f02aeb4	0.51047826
33	0x3f36cc0d	0.71405107
34	0xa9c0f31c	-8.5686856e-14
35	0x3de89f66	0.11358528
36	0x3e657d01	0.22410966
37	0x3ea1ffc4	0.31640446
38	0x3c5d2bee	0.013499243
39	0xbdb4df45	-0.08831648
40	0xbf036dea	-0.5133959
41	0x3d557f8b	0.052123588
42	0x3e31b947	0.17355834
43	0x3f22969e	0.63511074
44	0x3f35f89a	0.7108246
45	0x3daa9a17	0.083301716
46	0xab2d1c2f	-6.150106e-13
47	0x3f16ea65	0.5895141
48	0x3e2b2585	0.16713531
49	0x3ed77260	0.4207945
50	0x3e7881b4	0.24268228
51	0xa69edfaa	-1.1024077e-15
52	0x3e8141ac	0.25245416
53	0x3f4131de	0.75466716
54	0x3d8ea4ae	0.06965004
55	0x3eb4a304	0.3528062
56	0xa6480678	-6.9397706e-16
57	0x3ef875df	0.48527429
58	0xa88de80f	-1.5754784e-14
59	0x3f0e80a6	0.5566505
60	0x3f2df319	0.6794906
61	0x3e249922	0.1607404
62	0xa471a027	-5.23942e-17
63	0xbd6f3788	-0.058402568

encoder.4.weight f4 [36, 64]
0	0xaf75dab8	-2.2360325e-10
1	0x2a2a8b63	1.5147393e-13
2	0xbb113a4f	-0.0022159999
3	0xa5901f30	-2.5001152e-16
4	0xa25e7299	-3.0147278e-18
5	0xbe176f14	-0.14788467
6	0x2315d0ec	8.121547e-18
7	0x3de81138	0.11331409
8	0xa378f98d	-1.3496951e-17
9	0xa62918be	-5.8667185e-16
10	0xbe2f3a5e	-0.17112109
11	0x26f39dd2	1.6904289e-15
12	0xbc8c4df7	-0.01712702
13	0x3ed8d525	0.42350116
14	0x232e37d7	9.4443834e-18
15	0x3e9659ed	0.29365483
16	0x3ceef355	0.029168764
17	0x2bc9b699	1.433259e-12
18	0x3dc17bc5	0.09447435
19	0x3d85247a	0.06501098
20	0xae924ca6	-6.652927e-11
21	0xbdbce621	-0.09223581
22	0xbdf52c31	-0.119713195
23	0x3e03bbbf	0.12864588
24	0x3e7f4ab0	0.24930835
25	0xa1be9f5a	-1.2917081e-18
26	0xbe6773f5	-0.22602828
27	0xbece9cd9	-0.4035404
28	0xbe72ac6d	-0.23698588
29	0x3e688792	0.22707966
30	0x3dde2044	0.10845998
31	0xa2c05c3a	-5.2139353e-18
32	0xbd4ca53f	-0.04996228
33	0xbc2e4ce8	-0.010638453
34	0x293e4cad	4.225498e-14
35	0x3e63c7fe	0.2224426
36	0x3e62b91f	0.2214093
37	0x3d90fe42	0.07079746
38	0xbe65e785	-0.22451599
39	0x3df6eeda	0.12057276
40	0xbd9413bd	-0.07230327
41	0x3e0b04b1	0.13576008
42	0x3e7d0828	0.24710143
43	0x3e289e5f	0.16466664
44	0xbe290c25	-0.16508539
45	0xbe14ed70	-0.145437
46	0x28f7fdce	2.7532579e-14
47	0x3e2a39f4	0.1662367
48	0x3e0dd74f	0.13851665
49	0xbe9d9911	-0.30780843
50	0xbd96bd78	-0.07360357
51	0xa37cddb3	-1.3707894e-17
52	0x3e3cadde	0.184257
53	0xbcb20b0a	-0.02173378
54	0x3e2a94ed	0.16658373
55	0xbe860f82	-0.26183707
56	0xa2a95094	-4.5892857e-18
57	0xbcda3645	-0.026637206
58	0x25417cc0	1.6782348e-16
59	0x3efea5c8	0.49735856
60	0x3d76549c	0.060139284
61	0x3d8af33a	0.06784673
62	0xa12a2ba2	-5.765599e-19
63	0x3bccc1a2	0.006248669
64	0x318655d5	3.9096713e-09
65	0xac22ad5f	-2.3117825e-12
66	0xbdd767d9	-0.10517854
67	0x24834928	5.6936125e-17
68	0x22d294c5	5.707813e-18
69	0x3d7f315f	0.062302943
70	0x2714c234	2.0644404e-15
71	0xbd710335	-0.05884095
72	0xa47d660f	-5.4947077e-17
73	0xa7d84dd1	-6.003641e-15
74	0x3cd5916f	0.026070325
75	0xa7f23e4e	-6.7236044e-15
76	0xbcf14985	-0.029454002
77	0x3dcb6d48	0.09932953
78	0xa551697a	-1.8163597e-16
79	0x3d9cb435	0.07651559
80	0xbded3c63	-0.115837835
81	0x2f5b5465	1.9947917e-10
82	0x3da4a83f	0.08039903
83	0x3d857131	0.0651573
84	0xb55e32af	-8.27752e-07
85	0x3e2da9d7	0.1695932
86	0x3d639f0e	0.05557161
87	0xbd33da65	-0.04390945
88	0x3d0a74d0	0.033802807
89	0x2293b230	4.0033093e-18
90	0xbe766b52	-0.24064377
91	0xbe073d0f	-0.13206886
92	0x3d89a8c2	0.06721641
93	0xbcaeb3e2	-0.02132601
94	0xbe1735e8	-0.14766657
95	0x9f1d7092	-3.333916e-20
96	0xbe130d5b	-0.14360563
97	0x3e142842	0.14468482
98	0x2ad5571c	3.7896845e-13
99	0x3d9804aa	0.074227646
100	0x3de9ba4e	0.11412488
101	0xbb43b54f	-0.0029862707
102	0x3d22894e	0.039681725
103	0xbd9ec938	-0.07753223
104	0x3dfe42df	0.124150984
105	0x3dadbc6d	0.08483205
106	0xbd355e70	-0.044279516
107	0xbe740e45	-0.23833568
108	0x3dea0761	0.11427189
109	0x3dceb764	0.10093573
110	0xa94fe8b2	-4.6165064e-14
111	0x3b113a91	0.0022160152
112	0x3da4e97d	0.08052347
113	0x3e277e7b	0.16356842
114	0x3e77099c	0.2412476
115	0x2627e285	5.8246755e-16
116	0xbe8373a8	-0.25674176
117	0x3bb57104	0.005537154
118	0x3e56aa3e	0.2096338
119	0x3db67602	0.08909227
120	0xa42b69ca	-3.716932e-17
121	0x3dd9aa2e	0.10628162
122	0x253c52c7	1.6334447e-16
123	0x3d957b71	0.07298935
124	0x3dd692b7	0.104772024
125	0xbdcdb7fc	-0.10044858
126	0xa2c8274d	-5.425172e-18
127	0x3cdc4d4b	0.026892325
128	0x32c2891b	2.264692e-08
129	0x2cded4ae	6.3332317e-12
130	0x3e836f16	0.2567069
131	0x277304fb	3.3725724e-15
132	0x22ffe176	6.9356605e-18
133	0x3cf59cc7	0.029981984
134	0xa7ef1b48	-6.6365404e-15
135	0x3e29ab5c	0.16569275
136	0x257bf49e	2.1853659e-16
137	0x28a3c9a6	1.8184086e-14
138	0x3e06ae67	0.13152467
139	0x27a69c78	4.62439e-15
140	0xbc614f37	-0.013751796
141	0xbe878f2b	-0.26476416
142	0x29a99ca8	7.532283e-14
143	0x3dfca7c0	0.12336683
144	0x3db92c37	0.090416364
145	0xaf8882fb	-2.4831323e-10
146	0x3e06f8b8	0.13180816
147	0xbdd227b9	-0.10261483
148	0x33c43322	9.136262e-08
149	0x3a2b2a84	0.00065294676
150	0x3c8aeb27	0.016957833
151	0x3e2a6c15	0.16642793
152	0x3ef3bfe7	0.47607347
153	0x2194e67b	1.0089878e-18
154	0x3ed63aee	0.41841835
155	0x3e2deb4e	0.16984293
156	0xbbadb25c	-0.005300803
157	0x3e2bc483	0.16774182
158	0xbe0ab735	-0.1354645
159	0xa19e2a11	-1.0717631e-18
160	0xbd3df65b	-0.04637752
161	0x3e33f223	0.17572837
162	0xabe1667c	-1.6015657e-12
163	0xbdcff25b	-0.101536475
164	0x3e34c527	0.17653333
165	0xbc295c9b	-0.01033702
166	0x3cc2fb58	0.02380149
167	0xbd8262ed	-0.06366525
168	0x3d10a16a	0.035310186
169	0x3ea695e4	0.32536232
170	0x3e04ce4d	0.12969323
171	0xbe2e7814	-0.17037994
172	0xbdf48f37	-0.119413786
173	0x3d58673a	0.05283282
174	0x2c32238d	2.5315056e-12
175	0x3d37b0de	0.044846408
176	0xbd790ad3	-0.06080134
177	0x3e069c4f	0.13145564
178	0xbdaa098e	-0.08302604
179	0x260569fb	4.6287275e-16
180	0x3db3f9d3	0.087878846
181	0x3e0927cd	0.13394089
182	0xbcd06488	-0.025438562
183	0x3d843c9c	0.06456873
184	0x23c24118	2.106109e-17
185	0xbd801413	-0.06253829
186	0x27765f09	3.4190877e-15
187	0x3d9248f4	0.07142821
188	0x3dd64eb6	0.10464232
189	0x3dedb2bf	0.11606359
190	0xa2c057e5	-5.2134766e-18
191	0xbe827f9c	-0.25487983
192	0xb4728bf9	-2.2588928e-07
193	0x2cd1593c	5.9500443e-12
194	0xbde65aef	-0.11247813
195	0x270e324c	1.9733725e-15
196	0xa1843680	-8.959094e-19
197	0xbdd69adb	-0.10478755
198	0x280a16db	7.665495e-15
199	0xbcaccb5d	-0.021093065
200	0x23859fe2	1.4487602e-17
201	0xa8af9d01	-1.9496993e-14
202	0x3d96ac75	0.07357112
203	0x27169dff	2.0902332e-15
204	0x3c6c71c0	0.014431417
205	0xbe128a49	-0.14310564
206	0x2932613e	3.9608284e-14
207	0x3dc07bbc	0.093986005
208	0x3b44d24f	0.003003258
209	0xad3f92c0	-1.0889678e-11
210	0xbcc1064c	-0.023562573
211	0x3debe0d2	0.115174904
212	0x358647f4	1.0004719e-06
213	0xbd5e89fe	-0.05433082
214	0xbdb25c48	-0.087090075
215	0xbc315549	-0.010823556
216	0xbe12b1d8	-0.14325655
217	0xa190624f	-9.783842e-19
218	0x3e814121	0.25245002
219	0x3db6af38	0.08920139
220	0xbc7df98c	-0.015501391
221	0xbe154706	-0.14577875
222	0x3cb57c57	0.022154016
223	0xa1e54852	-1.5536787e-18
224	0x3d204ece	0.039137654
225	0x3db9af32	0.09066619
226	0xabb7cde2	-1.3060076e-12
227	0x3cc1b69c	0.023646645
228	0xbdc10e97	-0.09426611
229	0x3dbd0743	0.09229901
230	0x3d4ef093	0.0505224
231	0x3e1dd23a	0.15412226
232	0xbdca63b1	-0.09882296
233	0xbdc66e8b	-0.09689053
234	0xbd613da6	-0.054990433
235	0x3dcd0488	0.1001063
236	0x3d8bc3b9	0.068244405
237	0x3cf0009d	0.029297167
238	0xabb1a818	-1.2623262e-12
239	0x3cf592e3	0.029977268
240	0xbd5f20f6	-0.054474793
241	0x3e10f468	0.14155734
242	0x3d1dba67	0.038507845
243	0xa785ef9a	-3.717469e-15
244	0xbdba7a1f	-0.09105324
245	0x3dd91b25	0.106008805
246	0xbdcf81a2	-0.10132147
247	0x3e7585c6	0.23976812
248	0xa0a9778c	-2.8708823e-19
249	0x3e751f20	0.23937654
250	0x24477eed	4.3258757e-17
251	0xbe35130d	-0.17683049
252	0x3e53f751	0.20699812
253	0x3d491620	0.049093366
254	0xa31a0a96	-8.350598e-18
255	0x3e7b201e	0.2452397

encoder.4.bias f4 [36]
0	0x3f1951b9	0.59890324
1	0x3e973fe7	0.2954094
2	0xbdc1b4bc	-0.094583005
3	0x3e85db0d	0.26143685
4	0x3e87437d	0.26418677
5	0x3ed357d3	0.41277942
6	0x3e4753db	0.19465582
7	0xb036d682	-6.651605e-10
8	0xa83e40d6	-1.0561178e-14
9	0xbe4fe2bf	-0.2030134
10	0xbd2ced16	-0.04221829
11	0x3eab33fe	0.33438104
12	0xbd112270	-0.035433233
13	0xaaa2be8a	-2.8909194e-13
14	0xa5807234	-2.2281848e-16
15	0xbcd078e1	-0.025448265
16	0x3e97630f	0.29567763
17	0x3ef50994	0.4785887
18	0x3edbcaeb	0.42928252
19	0x3f1ca1f5	0.61184627
20	0xbe81b717	-0.25335
21	0x3e4f43c1	0.2024069
22	0xb0f18721	-1.7573464e-09
23	0x3ee69451	0.4503503
24	0x3ef15fa0	0.4714327
25	0xbeb1a101	-0.3469315
26	0xbcb2b220	-0.021813452
27	0x3e519dd5	0.20470364
28	0xa77203ed	-3.3586375e-15
29	0x3e1378be	0.14401528
30	0x3f00058f	0.5000848
31	0xb1d81286	-6.2885332e-09
32	0x3dc1c5f2	0.09461583
33	0xa6f985e5	-1.7314138e-15
34	0xaa2dcbfc	-1.5436258e-13
35	0x3f11186d	0.56677896

encoder.6.weight f4 [18, 36]
0	0xadb36a86	-2.039725e-11
1	0xb7f80e0f	-2.957045e-05
2	0xb8386df3	-4.3971417e-05
3	0xb743d5b5	-1.1672663e-05
4	0xb92fb3f1	-0.00016756334
5	0xb5e129ca	-1.6775969e-06
6	0xb87d2f55	-6.0363982e-05
7	0xa03a88f1	-1.5800123e-19
8	0xa2262035	-2.2514245e-18
9	0xb8ef2650	-0.00011403544
10	0xa282956b	-3.5394773e-18
11	0xb6c2ee74	-5.80941e-06
12	0xb7bc4c44	-2.244686e-05
13	0x238faf7d	1.5578413e-17
14	0x1f9f035f	6.7344696e-20
15	0xb136cbc8	-2.6600322e-09
16	0xb3991e4f	-7.130131e-08
17	0xb705acea	-7.967677e-06
18	0xb84e06e6	-4.9120652e-05
19	0xafb1e9a4	-3.2362124e-10
20	0xb82db791	-4.1417374e-05
21	0xb96658c3	-0.00021967576
22	0x2328f099	9.158247e-18
23	0xb874211b	-5.8204965e-05
24	0xb7aa7740	-2.032111e-05
25	0xb7b3b89a	-2.1424425e-05
26	0xb6cb0695	-6.0506377e-06
27	0xb7256780	-9.858864e-06
28	0xa2a3e8f5	-4.442789e-18
29	0xb838c328	-4.4050772e-05
30	0xb77951c0	-1.486059e-05
31	0xa6ee76e3	-1.6546792e-15
32	0xb7ee3e45	-2.8400807e-05
33	0xa60e16ed	-4.9297217e-16
34	0x236748ac	1.2537924e-17
35	0xb74d4125	-1.223412e-05
36	0xbe4a659c	-0.19765323
37	0xbe0750c2	-0.132144
38	0xbe1d6fd3	-0.15374689
39	0x3dfb29da	0.12263842
40	0x3def5bc5	0.116874255
41	0xbdd31d5a	-0.10308333
42	0xb992eef0	-0.00028025312
43	0x33fb5ad3	1.1704619e-07
44	0x27d373c7	5.868979e-15
45	0xbe0cbb88	-0.13743412
46	0xbd20829c	-0.03918706
47	0x3df14155	0.11780039
48	0x3e817b03	0.25289163
49	0x270e5b9d	1.9756122e-15
50	0xa3d92fe2	-2.3547466e-17
51	0x3d211ca5	0.03933396
52	0x3e65e015	0.22448762
53	0x3cf1f68e	0.029536512
54	0x3e658ff8	0.22418201
55	0xbd2e2790	-0.0425182
56	0xbb04107e	-0.0020151432
57	0x3d823d8d	0.06359396
58	0xb30a2e09	-3.2172498e-08
59	0x3d33fd73	0.04394288
60	0xbd039852	-0.032127686
61	0x3d402f0f	0.04691988
62	0x3d2ee087	0.042694595
63	0x3dd6b971	0.10484589
64	0x22ab6bfd	4.646398e-18
65	0xbda97ef4	-0.082761675
66	0x3e6a7a88	0.22898304
67	0x31645e52	3.3231982e-09
68	0xbd3cd34a	-0.04609994
69	0x253184d5	1.5397308e-16
70	0xa91d8199	-3.497341e-14
71	0x3d2cefc5	0.04222085
72	0xbea901a5	-0.33009067
73	0x3cce9027	0.025215222
74	0x3d5905b2	0.052983947
75	0x3e9dac5f	0.3079557
76	0xbddf5bc2	-0.10906173
77	0x3d89bd44	0.06725553
78	0x3e45f3e0	0.19331312
79	0x33d0db1d	9.725611e-08
80	0x27d3f729	5.8832236e-15
81	0xbe298647	-0.16555129
82	0x3d0aa6d6	0.033850513
83	0x3e4e10a4	0.20123535
84	0x3cad5050	0.02115646
85	0x280090a0	7.136788e-15
86	0xa38c8ad4	-1.5237626e-17
87	0xbc936a42	-0.017995004
88	0x3dffa25a	0.12482138
89	0x3df10145	0.1176782
90	0xbe1c7072	-0.1527727
91	0x3d52b27f	0.05143976
92	0x3eca91f6	0.39564484
93	0x3d46fd7d	0.04858159
94	0x33cd16d2	9.5502074e-08
95	0xbd1a4e39	-0.037672255
96	0x3bfff50a	0.0078111934
97	0x3ea8b5b3	0.32951126
98	0x3d8a09c2	0.067401424
99	0x3e1efa9a	0.15525284
100	0x21a5dd51	1.1239417e-18
101	0x3de4fa58	0.11180562
102	0x3e94e3b6	0.2907998
103	0x308c2a0d	1.0198292e-09
104	0x3de72ed1	0.112882264
105	0xa4a99cde	-7.355781e-17
106	0x2907f500	3.0188525e-14
107	0xbe0cd4bf	-0.13753031
108	0xa9e5c5ab	-1.0203933e-13
109	0xb15b893f	-3.194671e-09
110	0x33599ea5	5.0668536e-08
111	0x3372ec8f	5.6560165e-08
112	0xb3d6a741	-9.995575e-08
113	0xb35bf2e4	-5.121082e-08
114	0x33c3bef1	9.115127e-08
115	0x2263f6c9	3.0894884e-18
116	0x222e2061	2.3598539e-18
117	0xb253c369	-1.2326248e-08
118	0xa256c595	-2.9107007e-18
119	0xb393a4bd	-6.8751866e-08
120	0xb2a8748e	-1.9610777e-08
121	0xa54e7439	-1.790703e-16
122	0xa2a8f41c	-4.5794952e-18
123	0xb0b2d90d	-1.3012894e-09
124	0x311b53de	2.2603142e-09
125	0xb316af2a	-3.5083907e-08
126	0xb3a7488c	-7.78974e-08
127	0xb1936ca3	-4.2906136e-09
128	0x331482f2	3.457803e-08
129	0xb48c2acb	-2.6108168e-07
130	0x25d3fd30	3.6774232e-16
131	0xb3e7baae	-1.07907326e-07
132	0xb2a1c906	-1.8834282e-08
133	0xb405f114	-1.2474294e-07
134	0xb2a52b8e	-1.9228334e-08
135	0x32654445	1.3345077e-08
136	0xa2c8663e	-5.431836e-18
137	0xb20a7e8d	-8.0614315e-09
138	0x3146f872	2.8954017e-09
139	0xa79b167c	-4.304552e-15
140	0x33824e3d	6.067828e-08
141	0xa3a7fb85	-1.8212699e-17
142	0xa3d59c8d	-2.3159808e-17
143	0x32316d38	1.03275895e-08
144	0xbe12c2a8	-0.14332068
145	0x3d0223b7	0.03177234
146	0x3ded647a	0.1159143
147	0x3e411f2f	0.18859552
148	0x3ea43f76	0.32079667
149	0xbd4dfcd0	-0.05028993
150	0x3e86c809	0.2632449
151	0xb28c6d16	-1.6347752e-08
152	0x26bad53a	1.2964138e-15
153	0xbd395f93	-0.045257162
154	0x3d0563bb	0.032565814
155	0xbcdd5783	-0.027019268
156	0xbded5292	-0.11588015
157	0xa84048fe	-1.0673969e-14
158	0x22d8d89a	5.8776253e-18
159	0xbd25b4ab	-0.0404555
160	0xbdc2ce81	-0.09512044
161	0x3c2e67cd	0.010644865
162	0x3e9e434f	0.30910727
163	0xbded212c	-0.11578593
164	0x3df1657a	0.11786933
165	0x3e853a78	0.2602117
166	0xaf551026	-1.9377974e-10
167	0x3e461b75	0.19346412
168	0xbd994342	-0.074835315
169	0xbdefac89	-0.1170283
170	0x3c265947	0.010153121
171	0x3dd1faa2	0.102528825
172	0x22e77d86	6.274558e-18
173	0xbd9f59be	-0.07780789
174	0x3d9ade0a	0.07561882
175	0xb1255fb7	-2.4065068e-09
176	0x3d92bc2f	0.071647994
177	0x24048519	2.8735675e-17
178	0x29b674ef	8.1027084e-14
179	0x3dc60b72	0.09670152
180	0xbbfb095d	-0.0076610283
181	0xbd812656	-0.0630614
182	0x3d3c02f7	0.045901265
183	0x3e82db18	0.2555778
184	0xbe38ecd4	-0.18059093
185	0x3d9e8501	0.07740212
186	0x3e74485c	0.23855728
187	0xb21e6771	-9.22033e-09
188	0xa49145e0	-6.30021e-17
189	0xbbe37e7f	-0.0069425697
190	0x3cc29bd0	0.023755938
191	0xbdd336e9	-0.10313208
192	0xbda31397	-0.07962721
193	0xa6124c2d	-5.0757163e-16
194	0x21eb44a5	1.5942389e-18
195	0x3d655f14	0.055998877
196	0xbdefcbec	-0.11708817
197	0x3cf402cb	0.029786488
198	0xbddc769f	-0.10764813
199	0x3e6153ea	0.22004667
200	0x3d394e36	0.045240603
201	0x3e0d2238	0.13782585
202	0x3141b2d3	2.8186846e-09
203	0x3e5f9acb	0.21836393
204	0x3e708c21	0.23490955
205	0x3cb1d555	0.02170817
206	0x3c42a780	0.011880755
207	0x3e856070	0.26050138
208	0xa27f8619	-3.4629935e-18
209	0xbe1cb777	-0.15304361
210	0x3eb4a614	0.35282958
211	0x32b69ea8	2.1259737e-08
212	0x3d745b65	0.059657473
213	0xa3e2d340	-2.4592437e-17
214	0x298cbc51	6.2499166e-14
215	0x3e1033b8	0.14082229
216	0xbd8c903f	-0.0686345
217	0x3de7763b	0.113018475
218	0x3e9d1781	0.30681995
219	0x3d19da41	0.03756166
220	0x3e22649c	0.15858692
221	0x3e29e2fe	0.16590497
222	0x3e15cb8c	0.14628428
223	0xb3bd7abd	-8.823324e-08
224	0x262e5c81	6.0493743e-16
225	0x3e76ff0f	0.24120735
226	0x3cfcbfb3	0.030853128
227	0xbd38ee03	-0.04514886
228	0x3d719151	0.058976475
229	0xa79686b9	-4.177943e-15
230	0xa34b85f2	-1.1033016e-17
231	0xbe6a704d	-0.22894402
232	0xbd9887a3	-0.07447746
233	0x3e48bce2	0.19603303
234	0xbdabee66	-0.0839508
235	0x3dffd001	0.124908455
236	0x3b86c972	0.0041133696
237	0x3e3d10b2	0.184634
238	0x33c97d66	9.382602e-08
239	0x3e121c43	0.14268593
240	0x3d8b590e	0.06804095
241	0x3b8e3daa	0.004340847
242	0x3dd0a734	0.101881415
243	0x3c2e7f49	0.010650464
244	0xa23e11fe	-2.5759327e-18
245	0x3e72c02a	0.23706117
246	0xbccdb6f0	-0.025111645
247	0xb3df6bbe	-1.0403845e-07
248	0x3e257426	0.16157588
249	0x251e21b5	1.3715736e-16
250	0xa995e7b3	-6.6571226e-14
251	0x3d6a0a19	0.057138536
252	0x3e004393	0.12525778
253	0x3e0ba385	0.13636597
254	0xbe38b22e	-0.1803672
255	0xbd1726b9	-0.036902163

encoder.6.bias f4 [18]
0	0xb68b86f6	-4.1582343e-06
1	0x3e7f1d4d	0.24913521
2	0x3d56cace	0.052439503
3	0x306c2ada	8.5917196e-10
4	0x3eeaae5a	0.45836145
5	0x3e7323b0	0.23744082
6	0xbdba0162	-0.09082295
7	0x3c1f5800	0.009725571
8	0x3e916c7c	0.2840308
9	0xbccf4428	-0.025301054
10	0x3ef5d9e4	0.480178
11	0x3d31ce12	0.043409415
12	0xb2a97617	-1.972789e-08
13	0x3e3de399	0.18543853
14	0xbe93f4f1	-0.28897813
15	0xab6338f0	-8.0725617e-13
16	0xbde4129d	-0.11136363
17	0x3d73ab5b	0.05948959

encoder.8.weight f4 [9, 18]
0	0xb6066d62	-2.0031225e-06
1	0xbe0f0bf5	-0.13969405
2	0x3d7c718b	0.06163172
3	0xae0bc1fa	-3.1777227e-11
4	0xbdad14e0	-0.08451247
5	0x3e7ef618	0.24898565
6	0xbd8f2415	-0.06989304
7	0xbdebe936	-0.11519091
8	0x3dcad91b	0.09904691
9	0xbdb24e3f	-0.087063305
10	0x3e8c9ed3	0.27464923
11	0xbeb716ba	-0.35759526
12	0xb70096d1	-7.664509e-06
13	0xbe55b398	-0.20869291
14	0xbdad27c1	-0.08454848
15	0x2bd9e7ec	1.5483149e-12
16	0xbd84194e	-0.06450139
17	0xbe4c34e0	-0.19942045
18	0xb6015625	-1.927264e-06
19	0x3e4314ba	0.19050875
20	0x3eba1804	0.36346447
21	0xade51093	-2.6041646e-11
22	0xbe7ca5c9	-0.24672617
23	0x3da6eb02	0.08150293
24	0x3d9a8a72	0.075459376
25	0x3d29b94a	0.04143647
26	0x3d233743	0.039847624
27	0x3e4ec96f	0.20194028
28	0xbe8ecb0f	-0.27889296
29	0xbe3852fc	-0.18000406
30	0x371b99c7	9.274524e-06
31	0x3e5f06cf	0.21779941
32	0xbe9821a6	-0.29713172
33	0xab10a562	-5.138859e-13
34	0xbc0661c5	-0.008202021
35	0xbe686dad	-0.22698088
36	0x354b4d55	7.5735926e-07
37	0xbc99b423	-0.018762654
38	0xbdec1cc1	-0.11528922
39	0xae0d258c	-3.2093037e-11
40	0xbea01b32	-0.31270748
41	0x3cd30f06	0.025764
42	0xbec4a32b	-0.38405737
43	0x3d43b5f5	0.04778095
44	0xbd52b347	-0.051440503
45	0x3dd7fab6	0.10545866
46	0xbe53dcfb	-0.20689766
47	0x3d598577	0.053105798
48	0x36b8a980	5.5033597e-06
49	0xbe108a16	-0.14115176
50	0xbcefe00a	-0.029281635
51	0x2b82383c	9.252664e-13
52	0x3e637d1d	0.22215696
53	0x3e2a369f	0.16622399
54	0xb56e4107	-8.8756536e-07
55	0xbc0aa661	-0.008462519
56	0xbe471bd5	-0.19444211
57	0xb152b78a	-3.0663352e-09
58	0xbea0b1df	-0.31385705
59	0xbd1b55d6	-0.037923656
60	0x3e3d79be	0.18503472
61	0xbe72e679	-0.23720731
62	0x3e4675c6	0.19380865
63	0xbdd8c98c	-0.10585317
64	0x3c9d74d6	0.01922075
65	0xbbc06453	-0.0058713346
66	0x37bf5905	2.2810427e-05
67	0x3e67f28d	0.2265112
68	0xbdaaecd2	-0.08345951
69	0xab46c14d	-7.061199e-13
70	0x3e0d3c4d	0.13792534
71	0x3e704e2f	0.23467325
72	0xb404dcf4	-1.237384e-07
73	0x3df0f74f	0.1176592
74	0xbd36a386	-0.04458954
75	0xad9d1eef	-1.786257e-11
76	0xbccd751c	-0.025080256
77	0x3e272c26	0.16325435
78	0xbdc2ce5d	-0.09512017
79	0xbd643a5e	-0.055719726
80	0x3ce68b1f	0.02814251
81	0x3de36a2f	0.11104237
82	0x3eaf060a	0.34184295
83	0x3ec01853	0.37518558
84	0xb51b9e6a	-5.797252e-07
85	0xbe55de48	-0.20885575
86	0xbdce5aa9	-0.10075886
87	0x2adfd417	3.9759924e-13
88	0x3db13e91	0.08654512
89	0x3e48e0e6	0.19617042
90	0x339e6e20	7.37748e-08
91	0x3ec389d9	0.38191107
92	0xbd78ae8f	-0.060713347
93	0xb01eaf22	-5.7728944e-10
94	0x3cea5210	0.028603584
95	0xbe1898e8	-0.14902079
96	0xbe7066ec	-0.23476762
97	0xbbb8a076	-0.005634363
98	0x3e92d2a7	0.2867634
99	0x3dae7bb5	0.08519689
100	0x3e88c4bd	0.267126
101	0xbd40a304	-0.047030464
102	0xb5c70d7e	-1.4830582e-06
103	0x3e176d02	0.14787677
104	0x3d55043e	0.052006
105	0x29aad557	7.586525e-14
106	0xbd405ce1	-0.046963576
107	0xbe50ef6c	-0.20403832
108	0xb54902f4	-7.488263e-07
109	0xbdbbc797	-0.09168928
110	0x3d5e5a84	0.05428554
111	0x2ff20990	4.4026338e-10
112	0xbeb77ac8	-0.35835862
113	0xbe3f2d8d	-0.1866972
114	0x3e9bf5bf	0.30460927
115	0xbc56d70f	-0.013112797
116	0x3baab405	0.0052094483
117	0x3deb7153	0.11496224
118	0x3e12b6ae	0.143275
119	0xbe44a845	-0.19204815
120	0x37cd0431	2.4439856e-05
121	0xbe43114f	-0.19049571
122	0x3e8f9ce9	0.280494
123	0xa92956ad	-3.7600717e-14
124	0x3e32e5bf	0.17470454
125	0xbde76d40	-0.11300135
126	0x3571bb39	9.005194e-07
127	0x3d82fd18	0.0639593
128	0xbeae3fa1	-0.3403292
129	0x2f2c0238	1.5644097e-10
130	0x3e1fdfe7	0.15612756
131	0xbc78b1a1	-0.015179069
132	0x3e080a27	0.13285123
133	0xbd8cb1e7	-0.0686987
134	0xbcc7bcac	-0.024381958
135	0x3e8c54d0	0.27408457
136	0x3de2160b	0.110393606
137	0xbe8dca60	-0.27693462
138	0xb7b6f6fd	-2.1811104e-05
139	0xbd42bd31	-0.04754371
140	0xbe07b85f	-0.13253926
141	0x2ba96758	1.2036856e-12
142	0x3e9b4c41	0.30331615
143	0x3c0b0472	0.008484947
144	0x358179bf	9.646682e-07
145	0x3e14a181	0.14514734
146	0x3e80a43b	0.25125298
147	0xb0a6e7fe	-1.2144026e-09
148	0x3e1e3a2a	0.15451875
149	0xbd864a3b	-0.06557127
150	0x3afc5570	0.0019251537
151	0xbe037479	-0.128374
152	0xbe308d8e	-0.17241499
153	0xbdf447a5	-0.119277276
154	0xbb3c7e78	-0.0028761905
155	0xbeafd68c	-0.34343374
156	0x35b5cbaa	1.3544825e-06
157	0xbe5a9b90	-0.21348405
158	0x3e29efe5	0.16595419
159	0xab423b49	-6.900492e-13
160	0x3e987a52	0.29780823
161	0xbd4f71ff	-0.050645825

encoder.8.bias f4 [9]
0	0x3e33ea4b	0.17569844
1	0x3c7411e2	0.014896842
2	0xbd70a927	-0.058755066
3	0x3e5de95e	0.21671054
4	0x3e44738f	0.19184707
5	0x3db26771	0.08711136
6	0xbe5ecff4	-0.21759015
7	0xbd021f3b	-0.031768065
8	0xbe84e75c	-0.25957763

decoder.0.weight f4 [18, 9]
0	0xbe96f8a1	-0.29486564
1	0xbeb0af1e	-0.34508604
2	0xbe950fe8	-0.29113698
3	0x3e8a58c2	0.27020842
4	0x3e373873	0.17892627
5	0xbeaafe9c	-0.33397377
6	0x3e9e2a76	0.3089177
7	0x3c2f0244	0.0106816925
8	0x3e8542c8	0.26027513
9	0xbcd7df7e	-0.026351687
10	0x3d294fae	0.041335754
11	0xbe8c83ad	-0.2744421
12	0x3ebaa0ef	0.36450908
13	0xbc8279ea	-0.015927274
14	0x3c797d2a	0.015227595
15	0x3d0a59e9	0.03377715
16	0x3da5b849	0.0809179
17	0xbe4bce7d	-0.19902988
18	0x3dca4869	0.098770924
19	0xbe8ef163	-0.27918538
20	0xbe8c08a1	-0.27350333
21	0x3df799e5	0.120899
22	0x3bc1844b	0.005905663
23	0x3e0c79d4	0.13718349
24	0xbd48d842	-0.049034365
25	0x3dc94a69	0.09828646
26	0x3d6d0e42	0.057874925
27	0xbde259f8	-0.110523164
28	0x3e9a6dee	0.30161995
29	0x3d567fb7	0.052367892
30	0x3ead114e	0.33802265
31	0xbdf0faca	-0.11766584
32	0x3d9aa236	0.075504705
33	0x3e0a255c	0.13490814
34	0xbe01ff21	-0.1269498
35	0x3bdd5fc1	0.0067557995
36	0xbe8f6735	-0.28008428
37	0xbdf9af24	-0.121916085
38	0xbeb56640	-0.35429573
39	0x3e094ebc	0.13408941
40	0xbe66a24c	-0.22522849
41	0x3e50177e	0.20321462
42	0x3e7cdbc6	0.24693212
43	0xbec9d271	-0.39418367
44	0x3ea4e096	0.32202595
45	0x3e893c0f	0.26803634
46	0x3e1a47a3	0.1506639
47	0xbe13c807	-0.14431773
48	0x3db91d32	0.09038772
49	0x3eb8489c	0.35992897
50	0xbe047c11	-0.12937953
51	0xbe6c2128	-0.23059523
52	0x3c505c2e	0.01271729
53	0x3e8cc5bd	0.27494612
54	0x3d90a1f8	0.07062143
55	0x3e05be0f	0.13060783
56	0xbeca778f	-0.3954434
57	0x3e2c1bfb	0.16807549
58	0x3e66e362	0.22547677
59	0x3dd05224	0.10171917
60	0x3e868b64	0.26278222
61	0xbe712626	-0.23549709
62	0xbe8a68a7	-0.27032968
63	0xbe66da41	-0.22544195
64	0xbe273da9	-0.16332115
65	0xbc932313	-0.01796106
66	0x3d7b1abb	0.06130479
67	0x3e678aa5	0.22611482
68	0xbdf6cdca	-0.1205097
69	0x3e210b12	0.15726879
70	0x3d747ca6	0.059689187
71	0xbdf1f106	-0.1181355
72	0x3ca1f4d5	0.019770065
73	0xbd2a98fe	-0.04164981
74	0xbec45df5	-0.38352934
75	0xbe931a89	-0.28731182
76	0x3e6924f2	0.22768
77	0xbe9941c2	-0.29932982
78	0x3cba068d	0.022708202
79	0x3d00bd3b	0.031430464
80	0xbd5c75fb	-0.053823452
81	0x3d70b04f	0.05876189
82	0xbe6f20a0	-0.23352289
83	0xbe276cf5	-0.16350158
84	0xbcb38fea	-0.02191921
85	0x3e8b7b74	0.27242625
86	0x3dca4e0b	0.09878167
87	0xbe132e92	-0.14373234
88	0xbe9aa182	-0.30201346
89	0xbe19c2ed	-0.15015765
90	0xbe251d47	-0.1612445
91	0x3d1ac1ad	0.03778236
92	0xbe78d4a7	-0.2429987
93	0x3e3da511	0.18519999
94	0xbe1b3b0e	-0.15159246
95	0xbc81c3ed	-0.015840495
96	0xbe7bd830	-0.24594188
97	0x3c962c7e	0.018331762
98	0x3d9281b4	0.07153645
99	0xbead2926	-0.33820456
100	0xbe7f0e2a	-0.24907747
101	0xbe6997ec	-0.2281186
102	0xbe11bbe3	-0.1423183
103	0xbdbf9f5d	-0.09356568
104	0x3e57e6a6	0.21084079
105	0xbe4e84d4	-0.20167857
106	0x3d9c4d67	0.07631951
107	0x3e1ab084	0.15106398
108	0x3dd98c5e	0.10622476
109	0xbd10e13c	-0.03537105
110	0xbe0365fb	-0.12831871
111	0x3db821f3	0.0899085
112	0x3eb0627d	0.3445014
113	0x3ea9853a	0.33109456
114	0xbd12945f	-0.03578603
115	0x3e14daa8	0.14536536
116	0x3e5ecdc9	0.21758188
117	0xbe0c3aef	-0.13694356
118	0x3e55789f	0.20846795
119	0xbe02a67d	-0.12758823
120	0xbd9ba352	-0.0759951
121	0xbd8b138a	-0.06790836
122	0xbdc3ff5f	-0.095701925
123	0xbe5a5df0	-0.21324897
124	0x3db31506	0.08744244
125	0x3e9f2dbb	0.31089577
126	0xbe4367ed	-0.19082613
127	0xbdab2159	-0.0835597
128	0xbe2cb2ef	-0.16865133
129	0x3c94e165	0.018173883
130	0x3de49dba	0.111628965
131	0x3cc21657	0.023692293
132	0xbe5e0e02	-0.21685031
133	0xbe364a48	-0.17801774
134	0xbe947482	-0.28995138
135	0xbe56f353	-0.20991258
136	0x3d674656	0.056463562
137	0x3d58bb3e	0.052912943
138	0x3e9b628a	0.30348617
139	0x3e82a52b	0.25516638
140	0x3e7447b2	0.23855475
141	0x3e276a30	0.16349101
142	0xbed06917	-0.40705177
143	0x3eba1575	0.36344495
144	0xbda03cc5	-0.07824091
145	0xbd3f91fa	-0.046770073
146	0xbe0719d4	-0.13193446
147	0x3eac9fca	0.3371566
148	0xbb18bd43	-0.0023306168
149	0x3e7d5820	0.24740648
150	0xbecbc4c2	-0.39798552
151	0xbc18e8a0	-0.009332806
152	0x3ea8032d	0.32814923
153	0xbeae545e	-0.34048742
154	0x3de196be	0.1101508
155	0xbe161281	-0.14655496
156	0x3e9858a1	0.29755118
157	0x3d317cee	0.043332033
158	0xbe70d199	-0.23517455
159	0xbe84d3c2	-0.25942808
160	0x3e633ded	0.22191592
161	0x3de620b3	0.11236706

decoder.0.bias f4 [18]
0	0xbe89ced4	-0.2691561
1	0x3ec243a8	0.37942243
2	0x3eb1f9d3	0.34760913
3	0x3f4fc0ee	0.8115376
4	0x3ee7a052	0.45239502
5	0x3f00a0ba	0.5024525
6	0xbee4a462	-0.44656664
7	0x3f1b77cd	0.60729676
8	0x3e3528e4	0.1769138
9	0x3e92ecfc	0.2869643
10	0x3c080031	0.008300827
11	0x3c037834	0.008024264
12	0xbe42b7a0	-0.1901536
13	0x3daa0733	0.083021544
14	0x3ef4a854	0.47784674
15	0xbd46343e	-0.048389666
16	0xbef51e89	-0.4787486
17	0xbf450c30	-0.7697172
