model/sparse_autoencoder.pth (torch, 808680 bytes, 4 tensors)

encoder.weight f4 [128, 784]
00000000: 5162 fcbc cef5 de3c b2fa a43c 1302 97bc
00000010: fa13 eabc 0a60 4bbc 1c34 54bc 1c0a f3bb
00000020: 20c9 9e3a 5849 533c 5a65 05bd f640 c53c
00000030: 880f cebc 7a6d 1bbc 06de cbb9 8510 a53c
00000040: 2875 d33b 983e 013c f852 a23c d885 5fbc
00000050: 3b01 043d f202 fb3c 10a2 123b 934c 0b3d
00000060: 1e98 08bd fc26 833c 34ad 7d3c 502e 603b
00000070: 5cb1 77bc f203 01bc b3af b7bc 701d 11bb
00000080: 0246 c43d 03cc 1b3e a19a cbbd 54af 14bd
00000090: b57f b63d 4aad cbbd f5e7 51bd 23af eebb
000000a0: 4805 193c ca67 00bc a9cf 4d3d 30a4 043d
000000b0: 1dd8 243b 1be6 e6bc 3709 ea3c 8c5a 11bd
000000c0: b759 c53c 10fa 89bd 1a66 33bd 2108 10bc
000000d0: d6bf b13c 7830 523c caf3 f2bc 2234 fd3c
000000e0: 7ab7 84bc e8e0 4e3c f7e8 1bbd 02df 063e
000000f0: dceb a63d 6de0 5d3d 4ff7 8f3b e4ab 4a3d
00000100: b44e 4e3c 8917 d7bc 7fac 0ebd 0082 b7bc
00000110: 5030 e03c d339 9f3c b2a2 af3c 687a 3fbd
00000120: 6fca 0a3c 3a05 88bc 31a2 8dbd 2102 923c
00000130: 20d8 43bc f12c eebc 780c a4bc acc7 fabc
00000140: ed59 39bd ae03 303d 80a0 d73c 608c c8ba
00000150: 3a90 ef3c 5c2f 8b3c 7ca6 8cbd e107 5d3d
00000160: 84e7 74bd ff46 8ebc adf0 12bd 1dce b53c
00000170: 44f2 e7ba 5531 f5bc 3433 88bc 71b1 083c
00000180: fdc9 6f3c 7b44 273d 1a1c 343b 2e4f f9bc
00000190: 54b5 06bc a904 ce3b 97b2 8a3b 0fd9 653c
000001a0: af32 21bb d674 08bc 2293 a23c 3e21 4abb
000001b0: 533c debc 5af8 0ebd 5f91 813c 1aaa 913c
000001c0: f0fd 813b fdf5 20bc 618a 8abd c25f 0fbd
000001d0: 5683 e63c 1b85 8abb 8535 46bd 852f bb3c
000001e0: 59fa 1ebd 1353 f33b 8488 cb39 66b9 793b
000001f0: 92b4 3c3c 99c3 923c eb5a 50bc baca dcb9
00000200: 718f 16bb ff95 85ba c293 50bb 61dc 9c3b
00000210: 8fdd 6f3c 051d 2abb 99f7 4eba 9540 c7bb
00000220: d544 a93c 1f6c 32bd 9ab9 7dbd 5515 8cbd
00000230: 8819 753c c8c4 f6bb 3a77 97bc 2c41 473c
00000240: 429f 4e3d 986b ec3c 4139 223c b662 9abc
00000250: 36c3 1e3c 1083 df3a 116d 373c 3cb1 4bbb
00000260: 2b22 b83b ae54 903a 850f a2bb 6ca4 0cbc
00000270: cc71 17bc 30c5 063c ee15 e2ba 325c e63b
00000280: 8be5 15bb 54c9 a8bc 22d5 9ebc c719 1ebb
00000290: d54b 0a3d cff4 9bbb 6970 4bbc 1d17 903d
000002a0: 0c9d 0dbd c7a2 32bd 2c0d 2fbd 3abf 773d
000002b0: ebed 11bd 6dc1 853c 8aec 1b3c b939 3a3c
000002c0: a91f 703b 85c4 70bc 4b3f 873a edd0 7dbb
000002d0: 512c ba3b ba0b f73b c4ce 673c 8009 483b
000002e0: c447 b43a d36f 1fbc f6a0 43bb 5d40 ce3b
000002f0: abc1 4fbb e3f2 53bb 90e1 213c 8682 b63b
00000300: 2c6b 4ebc 8ce8 46bc 8839 64bb 54e7 ab3d
00000310: 8826 05bd 162c 79be 75b8 f43c ea91 debc
00000320: 2724 3abd 664b 5abc b996 8cbc aa50 1f3c
00000330: 9799 17bb aec2 5dbc 40b8 38bc f46a 493a
00000340: b7fd a1bc 32d0 083c 87ba 023a 8317 233b
00000350: 5ba3 44bc 6382 24bb ae1b 223b ac6d f1bb
00000360: 80da 383c 5fa8 0e3c 8725 043c c8a6 31bc
00000370: 74c1 a43c fd26 be3b 3f01 abbc 9941 90bd
00000380: 39bb 583e ba5a 98bb 413b 45bd 327c 993c
00000390: 4c78 61bd 60cd 0dbd d53f 9ebc c320 3b3c
000003a0: 5993 2c3c 0eca c93c 5002 043d bd8e ab3b
000003b0: 61d2 06bc 326e 89bc fb4f b1b9 2f4d 573b
000003c0: 7426 173c 6211 ae3b ec8d 0e3a 4111 b2bb
000003d0: 52ee 093b f0fd 32bb e924 d6ba 3ddc 45bc
000003e0: ad07 64bc f412 fbb8 7a78 2c3c 0222 cd3d
000003f0: baee 993d de7b 7b3b aba6 373d 31a5 1dba
-0.0308086 0.027216818 0.020139072 -0.018433606 -0.028573979 -0.012413034 -0.012951877 -0.0074169766
0.0012114383 0.0128959045 -0.03256736 0.024078827 -0.02515389 -0.00948655 -0.00038884598 0.020149479
0.006453175 0.007888459 0.019814953 -0.013642751 0.032227736 0.030641053 0.0022374429 0.034008574
-0.033348195 0.0160098 0.015483189 0.0034207292 -0.015117969 -0.007874476 -0.022422647 -0.002214279
0.095836654 0.15214543 -0.099416025 -0.03630002 0.08911077 -0.09945162 -0.051246602 -0.0072840615
0.009339638 -0.007837245 0.05024687 0.032383144 0.0025153228 -0.028185895 0.028568847 -0.035486743
0.024090631 -0.06737149 -0.043798544 -0.008791001 0.02169792 0.012828939 -0.029657263 0.030908648
-0.01620077 0.012626864 -0.03806397 0.13171008 0.08150455 0.054169107 0.004393495 0.049480334
0.0125920065 -0.02625634 -0.034832474 -0.022400856 0.027366787 0.019436752 0.021439884 -0.046747595
0.0084711155 -0.016604055 -0.06915701 0.01782328 -0.011953384 -0.029074164 -0.020025477 -0.03061279
-0.045251776 0.04297226 0.02632165 -0.0015300624 0.029243577 0.016990356 -0.06867692 0.053962592
-0.059791103 -0.017367838 -0.035874058 0.022193009 -0.0017696102 -0.02993075 -0.016625978 0.008343087
0.01463556 0.040836792 0.002748257 -0.030433264 -0.008221943 0.0062871766 0.0042327153 0.014028802
-0.002459686 -0.008328637 0.019845549 -0.0030842568 -0.027128374 -0.034904815 0.015816389 0.017781306
0.0039670393 -0.009824273 -0.06764675 -0.03500343 0.028138798 -0.004227293 -0.048390884 0.022849808
-0.03881297 0.0074256747 0.0003882089 0.003810489 0.011517661 0.017915534 -0.012716989 -0.00042112713
-0.0022973681 -0.0010191797 -0.0031826352 0.0047870134 0.014640226 -0.0025957238 -0.00078951713 -0.006080697
0.020662704 -0.043560144 -0.06194458 -0.06840006 0.0149597 -0.0075307824 -0.018489469 0.012161534
0.05044485 0.028859898 0.009901346 -0.018845897 0.009690097 0.001705261 0.011195437 -0.0031080982
0.0056193075 0.0011011565 -0.0049456977 -0.008584123 -0.00924344 0.008225724 -0.0017248967 0.0070300335
-0.0022872414 -0.020603813 -0.019388739 -0.0024124251 0.033763725 -0.004759408 -0.012416937 0.070356585
-0.0345736 -0.043612268 -0.04273717 0.060485102 -0.035627287 0.016327584 0.0095168445 0.011366301
0.0036639965 -0.014695291 0.0010318545 -0.0038729266 0.0056815525 0.0075392397 0.014148418 0.003052324
0.0013754298 -0.009731251 -0.002985058 0.006294294 -0.0031701128 -0.0032340817 0.009880438 0.005569759
-0.012598794 -0.012140404 -0.003482433 0.08393732 -0.03250745 -0.24333224 0.029873112 -0.027169187
-0.045444634 -0.01332364 -0.017161714 0.009723822 -0.0023132318 -0.013535185 -0.011274397 0.0007683479
-0.019774301 0.008350419 0.0004986901 0.002488584 -0.012001838 -0.002510213 0.0024735737 -0.0073678102
0.011282563 0.008707135 0.008065588 -0.010842986 0.020111777 0.0058029876 -0.020874618 -0.07043762
0.2116517 -0.0046494873 -0.048152212 0.018735979 -0.055046365 -0.03461969 -0.019317547 0.011421385
0.010533177 0.02463248 0.032228768 0.0052355216 -0.008228869 -0.016776178 -0.0003381966 0.0032852401
0.0092254765 0.005312131 0.0005438018 -0.0054341857 0.002104659 -0.0027312003 -0.0016337904 -0.012076435
-0.013917846 -0.00011972143 0.010526771 0.10016252 0.075162366 0.003837339 0.04483668 -0.000601369

encoder.bias f4 [128]
00000000: e707 283e 3239 a43d e126 f3bd b2d0 b8bd
00000010: 2855 b7bd 3212 cbbe a999 c73d 22d5 893e
00000020: 2263 573d 5d66 4fbd 3067 d3bc 66e4 1a3b
00000030: 26f1 003d 7174 e23c 0d8b 5cbb 06db e0bd
00000040: 6123 77bd 2089 da3c 2d3d a8bd 3abf 3b3e
00000050: 322d 5cbd bab2 da38 e6dc e5bb c6a7 543d
00000060: b3ed f83d 4880 ecbc 996b 0dbd 5b4f 2d3d
00000070: ca25 f9bd d250 993d 03d2 cf3c 96cd 88be
00000080: 642f 243e 401a 11be e64f 743d 2f7f 28be
00000090: c0af 843e 912f 3d3e 3519 a53e 46bb 7abc
000000a0: bcbf 9f3c 0693 a33d 8f59 863d ad27 0fbb
000000b0: afaa c5be 87f3 ab3c c563 e8bc d6e0 313d
000000c0: 9d83 9a3d 453e 33bc e8e6 2bbe b33a cb3e
000000d0: 81b5 bc3d 9539 cdbe ba69 9e3d b259 233e
000000e0: c762 403e 1473 32bd 9edb 073e bc52 8bbb
000000f0: 6bb1 6cbd 60ee c5bc 5dc1 8a3d 7b6c e83d
00000100: 69a9 0abd d28d 58be 699f 403d 8bb0 2e3e
00000110: 9491 0ebe 6130 7fbe c71b 923c 707d 1b3e
00000120: da95 2fbd b315 093f ae5b 993d 1dba a83d
00000130: 7861 3b3e b6f2 f1bc faeb 853c 5082 e23c
00000140: 7b9f be3d 3944 79be 2940 51be e187 203e
00000150: ee0d 4a3e 1bce c93d 9c84 df3d 4ee4 0c3d
00000160: ffc8 aa3e 8208 c9bd fcec 8abd f352 5bbd
00000170: 05fe c13a f788 dfbe 5ef4 873e e906 023e
00000180: fb47 11bf 0fb4 603d 72c6 623e 945f 9ebb
00000190: 7137 063e 2798 ec3d 4b62 313e 6e13 c9bb
000001a0: 778b 763e da06 563e 68c8 1d3e 8b04 e9bc
000001b0: eb91 753d 28b7 363d bf1c 153e ff99 42bd
000001c0: 6ac7 753d a27e c13d 4d36 ca3d 8922 11bd
000001d0: 416d 96bc 8009 3dbe 2ede ee3d 6936 9abe
000001e0: 0977 a53d f0b2 8c3d 5d2f b1be 8701 6c3d
000001f0: a434 0e3e 8d7b c33c 2106 563d 0f7a 343d
0.16409265 0.08018722 -0.1187265 -0.090241805 -0.08951789 -0.3966232 0.09746105 0.2692042
0.052584775 -0.05063473 -0.02580604 0.0023634671 0.031479977 0.027643414 -0.0033652217 -0.109792754
-0.060336474 0.026676714 -0.08214793 0.18334666 -0.05375404 0.000104283405 -0.0070148585 0.051917814
0.121547125 -0.028869763 -0.03452644 0.042312007 -0.12165411 0.074861184 0.025368696 -0.2671935
0.16033703 -0.1417017 0.05964651 -0.16454767 0.25915337 0.18475176 0.32245794 -0.0153034385
0.019500606 0.07987027 0.06560051 -0.0021843717 -0.38606784 0.020990146 -0.028367886 0.04342731
0.075446345 -0.010940139 -0.16787302 0.3969322 0.092143066 -0.40082994 0.077350095 0.15952185
0.1878768 -0.04356678 0.13267371 -0.004251806 -0.057786386 -0.024161518 0.06775162 0.11348816
-0.03385297 -0.2114785 0.047027025 0.17059533 -0.13922721 -0.24920799 0.01783551 0.1518457
-0.04286752 0.53548735 0.0748819 0.08238623 0.182989 -0.029534679 0.016347874 0.027650028
0.09307762 -0.24342431 -0.20434631 0.15676834 0.19731876 0.098537646 0.10913965 0.034397416
0.33356473 -0.09816076 -0.067834824 -0.053545903 0.0014800435 -0.43659183 0.26553625 0.12697949
-0.5675046 0.054859217 0.22146013 -0.004833171 0.13107087 0.11552458 0.17322652 -0.0061363494
0.24076639 0.20901051 0.1540848 -0.02844455 0.05995361 0.044608265 0.14561747 -0.047510143
0.06000463 0.094479814 0.09873638 -0.035433326 -0.018362643 -0.18460655 0.11663471 -0.30119637
0.08079345 0.06870067 -0.34606448 0.057618644 0.13887268 0.023862625 0.05225194 0.044061717

decoder.weight f4 [784, 128]
00000000: b1d1 5abf 64ff 0abf 45fe fcbe 6661 d3be
00000010: b575 22bf 8b46 51bf 166f 0cbf 42fe 37bf
00000020: 394a 3abf ecc8 dcbe 7cf3 aebf cf17 00bf
00000030: afb8 2ebf da47 15bf f6d8 f1be 40a5 e9be
00000040: 86d5 23bf 4497 0bbf 90d8 0bbf b64e 43bf
00000050: 75e8 07bf 1020 1cbf 76d5 efbe 0ee8 bbbe
00000060: c704 3fbf 9a25 10bf 5278 bfbe 0d4b dfbe
00000070: fd8f debe 3439 69bf 557f 19bf 4c50 03bf
00000080: 0f08 37bf 00eb 0cbf 4a56 32bf d254 27bf
00000090: 0b95 39bf 2773 f9be cbc9 2fbf 3694 8abf
000000a0: 9a15 11bf bcdf 1dbf 7717 0bbf ec3f 97bf
000000b0: 666a 27bf 6f8e ffbe 24ad 08bf c6f4 0cbf
000000c0: f78d 5dbf 1fd6 0ebf d9c6 62bf 5e11 3ebf
000000d0: ff04 0bbf 906f 25bf 3c25 28bf 0926 10bf
000000e0: dbba e7be 6ca1 02bf fba6 9fbe 0961 0bbf
000000f0: 8db0 c7be 2f6a 42bf fb9a 00bf 55bb 23bf
00000100: 3af6 febe 0464 1cbf a55a 48bf 7ba6 06bf
00000110: b93b 25bf daec 27bf f934 0cbf 6873 1dbf
00000120: ba27 f7be 49e6 0fbf 5185 cbbf 136b 3dbf
00000130: dc44 0cbf d6ad 10bf 4e72 dbbe 21e5 dfbe
00000140: e2b4 e8be 9e56 c1be 04ae 3ebf da59 35bf
00000150: 1952 0ebf 465e 1bbf fe18 03bf 8dc1 3bbf
00000160: 7a5f 23bf 23c0 babe ee47 38bf 4670 debe
00000170: 05dd 0dbf dfe8 27bf 69a1 00bf 60cb 16bf
00000180: 9d28 53bf 5630 67bf a6b6 e9be bec3 92bf
00000190: 703c 28bf 71e9 5bbf f514 2dbf 76cc 20bf
000001a0: 8b8f 39bf 9306 15bf 3f9a f3be 8996 06bf
000001b0: adf3 f8be df99 00bf df6f 60bf b05f 0fbf
000001c0: 5ca2 93bf 824f 59bf c3dd cdbf 8cef fbbe
000001d0: 1d5e 03bf 6a20 05bf c8c3 4abf a740 19bf
000001e0: 3b14 35bf b73d c3be 5350 31bf a491 17bf
000001f0: 4c5d e6be 1b98 efbe 6bd7 82bf de8b 08bf
00000200: 5be6 4dbf b05e 02bf 9fb1 efbe 7dd3 cabe
00000210: ab9b 10bf e7f4 48bf d82e 1ebf 0cbc 27bf
00000220: c8cd 2fbf a049 abbe 571b acbf 0131 16bf
00000230: 6ea8 2abf f313 eebe 6a6a 09bf 4ddd c9be
00000240: 04ac 2bbf 0d5c f7be e7da 24bf 3d7d 33bf
00000250: 1cf2 0cbf db41 12bf 9e9c f3be 73f5 dabe
00000260: 76d6 35bf bc4b 03bf 1e3a f8be a4ed c1be
00000270: 094e cbbe 6384 6ebf 87b4 0bbf a55d 21bf
00000280: f62a 2fbf 5abc 06bf 8d57 34bf 21ab 28bf
00000290: 2194 18bf bef8 f2be 78b6 22bf 019e 86bf
000002a0: cdd5 02bf df0a 0abf f78e f9be 47f8 97bf
000002b0: 7cf7 4bbf 0c8a e4be 4eda 08bf 06b0 1dbf
000002c0: 5826 6dbf 2fe3 08bf 59bd 5abf d414 44bf
000002d0: ffbb e1be 8e64 40bf 0878 26bf 647d 0ebf
000002e0: 51e0 eebe b396 0dbf 8b7c a2be bceb efbe
000002f0: c79c f8be 6b7f 37bf cbe0 e8be e45c 28bf
00000300: 375c dcbe 3ed8 09bf 8a63 41bf 6913 09bf
00000310: db0c 31bf cf7e 29bf 1bba 0dbf 7f9d 0fbf
00000320: e218 f8be 0f94 18bf 9b23 c7bf 9031 39bf
00000330: 00c8 07bf fceb 01bf d2a0 d0be bcd2 d2be
00000340: 2769 f1be f224 c8be a703 3ebf e1c3 11bf
00000350: b770 12bf c943 07bf 3cf3 06bf b8dc 69bf
00000360: f7c3 10bf a5b0 a5be 1668 27bf d6e4 debe
00000370: cca3 0dbf 4dfa 47bf 0ca2 14bf b24b 28bf
00000380: e406 49bf 9ae4 67bf 8f9d 10bf a9b3 91bf
00000390: 50d9 2bbf 1d40 5bbf 7a3b 3fbf 4b13 08bf
000003a0: 67eb 33bf 9d98 1ebf 8549 0cbf c76f 11bf
000003b0: d7d7 c3be 1c47 f5be b1b0 5fbf 41ca 03bf
000003c0: 7bbd 92bf cce5 47bf f49d d4bf 2838 e1be
000003d0: 2447 dbbe ebe1 15bf 7309 49bf 739e 0abf
000003e0: 2d03 21bf 513e 9fbe 0d05 2fbf 388b 01bf
000003f0: efcf bcbe 8abf bfbe f1b5 6cbf 7b52 fabe
-0.85476214 -0.54295945 -0.49412742 -0.41285247 -0.63460857 -0.81748265 -0.54857004 -0.7187234
-0.72769505 -0.4312204 -1.3668056 -0.5003633 -0.68250555 -0.5831276 -0.4723584 -0.45633888
-0.63997686 -0.5452769 -0.54627323 -0.7629198 -0.53089076 -0.60986423 -0.46842545 -0.3670048
-0.74616665 -0.56307375 -0.37396485 -0.43611947 -0.4346923 -0.9110291 -0.5995992 -0.512944
-0.7149667 -0.5504608 -0.69662917 -0.653638 -0.72493047 -0.48720667 -0.68667287 -1.082648
-0.56673586 -0.61669517 -0.5433268 -1.1816382 -0.65396726 -0.49913356 -0.5338919 -0.55060995
-0.86544746 -0.5579547 -0.8858467 -0.7424525 -0.543045 -0.64623356 -0.65681815 -0.5630804
-0.45259747 -0.5102756 -0.31182083 -0.5444494 -0.39001885 -0.75943273 -0.5023648 -0.6395772
-0.4979723 -0.6109011 -0.7826331 -0.5259778 -0.64544255 -0.6559578 -0.5476833 -0.6150422
-0.48272496 -0.5621076 -1.590006 -0.7399151 -0.5479257 -0.5651525 -0.42860645 -0.437295
-0.45450503 -0.37761396 -0.74484277 -0.7084023 -0.5559402 -0.60690725 -0.5121001 -0.7334221
-0.6381756 -0.36474714 -0.71984756 -0.43445033 -0.55415374 -0.6558971 -0.5024629 -0.58904076
-0.82483846 -0.9030813 -0.45647162 -1.1465986 -0.6571722 -0.8590308 -0.676101 -0.6281198
-0.72484654 -0.58213156 -0.47578618 -0.5257345 -0.4862341 -0.5023479 -0.876707 -0.5600538
-1.1533923 -0.84886944 -1.6083301 -0.49206197 -0.5131548 -0.52002585 -0.7920499 -0.59864277
-0.70733994 -0.38133022 -0.6926319 -0.59206605 -0.44993055 -0.46795735 -1.022199 -0.5333842
-0.8042962 -0.5092573 -0.46815202 -0.39614478 -0.5648753 -0.7849869 -0.6179023 -0.6552131
-0.6867337 -0.3345461 -1.3445843 -0.58668524 -0.66663253 -0.46499595 -0.53678 -0.39426652
-0.6705935 -0.48312417 -0.6439652 -0.70112973 -0.5505693 -0.5713174 -0.47580427 -0.42765388
-0.71030366 -0.51287436 -0.4848184 -0.37876618 -0.39707974 -0.93170756 -0.5457234 -0.63033515
-0.6842493 -0.5263115 -0.7044609 -0.6588612 -0.59601027 -0.474554 -0.63559675 -1.0516969
-0.51107484 -0.5392284 -0.48741886 -1.1872643 -0.79674506 -0.4463657 -0.53458107 -0.61596715
-0.9263663 -0.53471655 -0.8544517 -0.7659428 -0.44088742 -0.75153434 -0.65026903 -0.5566008
-0.46655515 -0.55308074 -0.31735644 -0.4685954 -0.48557112 -0.716788 -0.45484003 -0.6576674
-0.43039104 -0.53845584 -0.7554251 -0.5354524 -0.6916024 -0.6620912 -0.553621 -0.56099695
-0.48456484 -0.5960092 -1.5557741 -0.7234125 -0.5303955 -0.5075071 -0.40747696 -0.41176403
-0.47150537 -0.39090687 -0.74224323 -0.5693951 -0.5720324 -0.52837807 -0.52714896 -0.91352415
-0.5654902 -0.32361332 -0.653932 -0.43533963 -0.5532806 -0.78116304 -0.58059764 -0.657405
-0.7852614 -0.90583193 -0.56490415 -1.1382953 -0.6712847 -0.85644704 -0.7470013 -0.5315444
-0.7028107 -0.6195162 -0.5479968 -0.56811184 -0.3825061 -0.47905815 -0.87378985 -0.5148049
-1.1464075 -0.7808502 -1.6610703 -0.43988156 -0.42827713 -0.5854785 -0.78530043 -0.54148024
-0.6289547 -0.3110223 -0.6836708 -0.50603056 -0.3687739 -0.3745082 -0.9246512 -0.48891053

decoder.bias f4 [784]
00000000: 5e89 0bc0 a8f4 12c0 2b1e 0ec0 ce62 0ac0
00000010: 39fc 07c0 6a8b 14c0 9b19 15c0 b944 0bc0
00000020: 0194 15c0 261e 10c0 8d6a 14c0 2225 14c0
00000030: 6305 17c0 1bf3 0dc0 1468 16c0 d306 13c0
00000040: 2e55 12c0 65e3 0cc0 329b 0dc0 f413 10c0
00000050: 67ce 11c0 196b 10c0 0ec6 0fc0 31f4 14c0
00000060: 4b73 18c0 0e4d 0cc0 ce6e 13c0 fec0 19c0
00000070: b32b 0fc0 1539 10c0 6d8b 16c0 9650 12c0
00000080: 317e 0cc0 8551 0ec0 aff4 10c0 1a71 0dc0
00000090: 110c 0ec0 6c40 7ebf 7eab 37bf f001 2cbf
000000a0: dbca 35bf ed4b 59bf 467c 56bf bb42 2bbf
000000b0: 47af 64bf ad37 56bf 8a25 71bf 64c5 b6bf
000000c0: 8dd8 dcbf ecf0 09c0 bee3 0fc0 90e8 0fc0
000000d0: d0ce 10c0 55b2 14c0 2e8a 12c0 0807 07c0
000000e0: e6c0 0bc0 1abc 0fc0 dddd 13c0 3b6e 1cc0
000000f0: d079 18c0 b5af 0ec0 bb63 13c0 5c82 52bf
00000100: 7be3 22bf 233c 00bf f870 febe 51f5 28bf
00000110: cf47 12bf 9189 0fbf 3971 0abf 9ff8 d7be
00000120: 8709 03bf 1658 f7be 91bb eebe b20b f4be
00000130: 652f ddbe ffd0 1fbf 017b f8be 59d6 82bf
00000140: 3fd9 12c0 7c43 13c0 3410 1bc0 eacb 10c0
00000150: 7ee5 11c0 479e 13c0 e8b3 12c0 d90c 10c0
00000160: e3d6 14c0 290e 09c0 a482 58bf e7e3 19bf
00000170: a9a3 3abf fab1 59bf 6b5d 7bbf fd39 6abf
00000180: 49bc 6dbf 15da 78bf 91a6 6cbf af4b 5cbf
00000190: 5d96 58bf d7fa 36bf eb11 1cbf a0d7 1fbf
000001a0: 831d 4ebf 32db 2bbf 9d8c 13bf ddbf 05bf
000001b0: 958d 4fbf b691 0cc0 b3cf 11c0 a2c6 0ec0
000001c0: 61ce 14c0 4906 0ac0 45e6 09c0 1011 10c0
000001d0: 803b 07c0 306a 1abf 06bd 15bf 2292 3ebf
000001e0: 3a9a 63bf 2f8f 93bf 7bcd 92bf 3ade 82bf
000001f0: 0114 63bf 3f56 39bf e71f 19bf 47a7 1abf
00000200: 6896 0bbf a9ec babe 02d9 e7be b242 e5be
00000210: 984b fbbe fe50 04bf 2ab1 26bf a174 0abf
00000220: e1d2 05bf 5c8c 23bf 878d 0dc0 0bcd 14c0
00000230: dae3 0ec0 3dff 0ec0 fd0d 13c0 11aa 05c0
00000240: 4cc2 16bf 6e0e 09bf 9d31 36bf 8579 89bf
00000250: ea90 92bf 57d1 97bf 2d83 87bf cd41 82bf
00000260: b34c 57bf 877f 3dbf 8c0b 04bf 6513 febe
00000270: ed6e d1be 5a52 e0be c97b 1dbf a03a 33bf
00000280: 6454 3ebf 7250 27bf f9b0 32bf 07a9 24bf
00000290: 14ac 1dbf dcde 21bf c0ab 86bf 123e 16c0
000002a0: 190e 10c0 4a00 10c0 b222 0dc0 0df3 13bf
000002b0: 02ca 03bf 89e7 67bf 1ad4 64bf 2be6 88bf
000002c0: 222c 90bf 2c86 84bf 6a7a 77bf 6c09 51bf
000002d0: a35b 49bf 801c f3be d100 eebd 3de8 57bd
000002e0: d8c7 20be 6017 9bbe 63bf edbe c322 27bf
000002f0: d82b 44bf be62 2dbf 7603 4bbf 9d8b 3abf
00000300: 1ca8 36bf b791 37bf f43f 2bbf b2aa 0dc0
00000310: 5174 14c0 3d90 0cc0 d3d1 1abf 504d d0be
00000320: 7736 11bf 7009 43bf 81e9 7fbf bd25 8ebf
00000330: 42ef 77bf ef57 6bbf 2a62 42bf 809e 1dbf
00000340: a441 c9be bc2c d0bd c8f2 7c3e 5c10 b13e
00000350: f670 953e dd3e 673e 8d11 a63d 471a 5cbe
00000360: 7834 30bf 9e06 56bf 43eb 5abf 05d4 81bf
00000370: d058 84bf 17e6 48bf aebe 3dbf 9aa8 08c0
00000380: 9e4e 13c0 e546 58bf e5c2 98be adf6 9dbe
00000390: 4628 06bf 4e20 49bf ff99 84bf c291 83bf
000003a0: f4d5 6abf 6ea5 27bf f622 04bf f118 a4be
000003b0: 9c8f 36be d431 883c a17c 3a3e a354 8c3e
000003c0: 378e 6a3e 9439 313e 8a58 1d3e 1433 18be
000003d0: 1c49 16bf 7af5 4dbf 6de6 68bf 05a0 92bf
000003e0: 980e 8bbf 1a22 5ebf 1874 0ebf 08c5 0bc0
000003f0: cf76 17c0 2c35 37bf 28ca c9be 28f5 4ebe
-2.1802592 -2.2961826 -2.2205913 -2.1622806 -2.1247694 -2.3210092 -2.3296878 -2.1760695
-2.3371584 -2.25184 -2.3190033 -2.3147664 -2.3597038 -2.217963 -2.3501024 -2.2972915
-2.286449 -2.201379 -2.2125974 -2.2512178 -2.2782228 -2.2565367 -2.2464633 -2.3274043
-2.382037 -2.192203 -2.303638 -2.4024043 -2.2370422 -2.253484 -2.3522599 -2.2861686
-2.195202 -2.2237256 -2.2649343 -2.2100282 -2.2194865 -0.9931705 -0.7174605 -0.67190456
-0.7101266 -0.8488148 -0.83783376 -0.668987 -0.8932995 -0.83678705 -0.94197905 -1.4278989
-1.7253586 -2.1553297 -2.2482753 -2.2485695 -2.2626228 -2.3233845 -2.2896838 -2.1098042
-2.1836486 -2.2458558 -2.3104165 -2.444228 -2.3824348 -2.2294743 -2.302962 -0.8223016
-0.6362836 -0.5009176 -0.49695563 -0.65999323 -0.5714082 -0.56069285 -0.54079014 -0.4218187
-0.5118641 -0.48309392 -0.46627477 -0.47665173 -0.43200222 -0.6242828 -0.48531345 -1.0221664
-2.2945096 -2.300994 -2.422864 -2.262446 -2.279632 -2.3065355 -2.2922306 -2.2507842
-2.3256156 -2.1414893 -0.8457434 -0.60113376 -0.72905976 -0.85037196 -0.9818942 -0.91494733
-0.92865425 -0.97207767 -0.9244166 -0.86052984 -0.84604436 -0.714765 -0.6096484 -0.6243839
-0.8051378 -0.6713134 -0.57636434 -0.52245885 -0.8107541 -2.1963935 -2.278302 -2.2308736
-2.3250964 -2.1566336 -2.1546795 -2.2510414 -2.1130066 -0.6031828 -0.5849155 -0.7444173
-0.88907206 -1.1528071 -1.1468958 -1.0224068 -0.887024 -0.72397226 -0.59814304 -0.60411495
-0.54526377 -0.36508682 -0.4528275 -0.44777447 -0.4908111 -0.51686084 -0.6511408 -0.5408421
-0.522749 -0.63886046 -2.2117631 -2.3250148 -2.232657 -2.2343285 -2.2977288 -2.088505
-0.58890224 -0.5353764 -0.71169454 -1.074021 -1.1450474 -1.186076 -1.0586907 -1.0176331
-0.8410141 -0.74022716 -0.5158012 -0.49624172 -0.40904942 -0.4381283 -0.61517006 -0.7001133
-0.7434752 -0.65357125 -0.6980129 -0.64320415 -0.61590695 -0.6323068 -1.0521164 -2.3475385
-2.2508605 -2.2500176 -2.2052426 -0.5779274 -0.51480114 -0.9058767 -0.8938614 -1.0695242
-1.1263468 -1.0353446 -0.96671164 -0.81655 -0.7865545 -0.4748268 -0.116212495 -0.052711714
-0.15701234 -0.3029127 -0.4643508 -0.6528742 -0.766294 -0.67728794 -0.79302156 -0.7286928
-0.71350265 -0.7170672 -0.6689446 -2.2135434 -2.3195994 -2.1963036 -0.60476416 -0.40683985
-0.5672373 -0.76186275 -0.99965674 -1.1105267 -0.96849453 -0.9193105 -0.75931036 -0.61569977
-0.39307892 -0.101647824 0.24701989 0.34582794 0.29187745 0.22582574 0.08108816 -0.21494399
-0.6883006 -0.8360385 -0.8551523 -1.0142828 -1.0339603 -0.7847609 -0.7411908 -2.1352906
-2.3016734 -0.84483176 -0.29836193 -0.3085226 -0.524052 -0.7856492 -1.0359496 -1.0278857
-0.91732717 -0.654868 -0.51615846 -0.3205028 -0.1782822 0.016625322 0.18211605 0.27408323
0.22905813 0.1730712 0.15365806 -0.14863235 -0.58705306 -0.8045269 -0.909766 -1.1455084
-1.0863829 -0.86770785 -0.55645895 -2.1839008 -2.3666265 -0.7156551 -0.39412045 -0.20210707
