model/sparse_autoencoder.pth (torch, 809163 bytes, 4 tensors)

encoder.weight f4 [128, 784]
0	0xa155b6b3	-7.240901e-19
1	0x21b42f8c	1.220986e-18
2	0xa152e2f8	-7.145116e-19
3	0x21223fd7	5.4972226e-19
4	0xa1153272	-5.054993e-19
5	0xa13c7345	-6.3849436e-19
6	0x21829250	8.847871e-19
7	0x218d19a0	9.561315e-19
8	0x2150415c	7.0559644e-19
9	0xa0727b3b	-2.0538971e-19
10	0xa178bf7d	-8.42791e-19
11	0x9fbbca9b	-7.953276e-20
12	0x3db8b73e	0.09019326
13	0x3dbe3b38	0.09288639
14	0xbce712aa	-0.028207142
15	0xbc926ae1	-0.01787323
16	0x219d1bce	1.0646094e-18
17	0xa1c938e6	-1.3635351e-18
18	0x210bfe17	4.7431317e-19
19	0xa193537e	-9.983208e-19
20	0x21c5ed49	1.3412048e-18
21	0x2066498c	1.9506092e-19
22	0x21c17960	1.3110316e-18
23	0xa102a60e	-4.4265485e-19
24	0xa13054d1	-5.9743373e-19
25	0x20ea8e04	3.973512e-19
26	0x9fa01ee0	-6.7813714e-20
27	0x209a026e	2.6090223e-19
28	0xa0849ab3	-2.246404e-19
29	0x9d693b8a	-3.0868074e-21
30	0x21110cf6	4.9145065e-19
31	0xa0266173	-1.409299e-19
32	0xb90c5db5	-0.00013386349
33	0xbcdbeb24	-0.026845522
34	0x3d14a860	0.036293387
35	0x3d5be87d	0.053688515
36	0x3d0dbe6d	0.034605432
37	0xbc369cb1	-0.011145757
38	0xbd337f74	-0.04382272
39	0x3c49541b	0.012288119
40	0x3aec4298	0.0018025218
41	0xbd3e4beb	-0.04645912
42	0x3d883df6	0.06652443
43	0x3c53e70b	0.012933503
44	0xbad71915	-0.0016410673
45	0x3d1f4dec	0.03889267
46	0x3a51c6c5	0.0008002336
47	0xbd80f114	-0.06295982
48	0x3d02b1c7	0.031907823
49	0xbce701e7	-0.02819915
50	0x3dbcedf5	0.09225074
51	0x3d8ab267	0.06772309
52	0xa0ab80dc	-2.90538e-19
53	0xa0971dd4	-2.5600134e-19
54	0xa0d553d9	-3.613909e-19
55	0x1e621d6c	1.1970425e-20
56	0xa182b37c	-8.856652e-19
57	0x1fb74ba6	7.7628665e-20
58	0x3cde488a	0.027134199
59	0x3ce71dec	0.02821251
60	0xbc67f720	-0.01415804
61	0xbdce4afd	-0.10072897
62	0xbd22a362	-0.039706595
63	0xbab1e6e9	-0.0013572845
64	0x3d983274	0.07431498
65	0xbda8b2f6	-0.08237259
66	0xbc02e395	-0.00798883
67	0xbdae07fb	-0.08497616
68	0xbd0512c6	-0.032488607
69	0xbd416129	-0.0472118
70	0xbd20f379	-0.039294694
71	0xbcc07acb	-0.023496052
72	0xbc67db74	-0.014151443
73	0x3c43fe25	0.011962448
74	0x3c56a95a	0.0131019
75	0xbca151d2	-0.019692335
76	0x3c5fa728	0.013650693
77	0xbb5d395d	-0.0033756115
78	0x3ad3a514	0.001614722
79	0x3d3e40bd	0.046448458
80	0xbd9e137b	-0.07718559
81	0xbc675c22	-0.014121087
82	0x211feb54	5.418275e-19
83	0xa0c670fc	-3.3617271e-19
84	0x212b96d6	5.8136683e-19
85	0x21b28426	1.2096729e-18
86	0x3db8a04f	0.090149514
87	0x3db2d597	0.08732145
88	0x3c6368bd	0.013879952
89	0x3aa5c271	0.0012646449
90	0x3cb985f9	0.022646891
91	0xbc2ef4eb	-0.01067851
92	0x3c6b4f1b	0.014362122
93	0x3cbb1016	0.022834819
94	0xbd028278	-0.031862706
95	0xbc841487	-0.01612307
96	0xbbafcfc0	-0.005365342
97	0xbb3759b9	-0.0027977063
98	0xbc8b9e3e	-0.01704323
99	0xbc0e721c	-0.008694198
100	0x3b839c22	0.004016415
101	0x3c594885	0.013261919
102	0x3ba55369	0.0050453437
103	0x3cde7099	0.0271533
104	0xbd006166	-0.031342886
105	0xbd122a1e	-0.035684697
106	0xbc9152cc	-0.017739676
107	0xbcfba803	-0.030719763
108	0xbc8e913f	-0.017403243
109	0xbc582854	-0.013193209
110	0xa1888946	-9.252054e-19
111	0x20a91208	2.8641646e-19
112	0xa19bceed	-1.0557981e-18
113	0xbcbb7e0e	-0.022887256
114	0x3debf0f6	0.11520569
115	0x3d647161	0.05577219
116	0x3d829267	0.0637558
117	0x3bdac06a	0.0066757696
118	0xba0c14bc	-0.0005343666
119	0xbb837a8c	-0.0040124115
120	0xbb40de3d	-0.002942934
121	0xbcde9b4b	-0.027173659
122	0xbc1223d4	-0.008919675
123	0x3caca702	0.02107573
124	0x3cf468bf	0.029835103
125	0xbaba2168	-0.001420063
126	0xbc37cfd3	-0.011218983
127	0xbbf00228	-0.007324476
128	0xbc636187	-0.013878233
129	0x3cafaba1	0.021444144
130	0x3d0b1c21	0.033962373
131	0x3d14edce	0.0363596
132	0x3c5cec05	0.013484006
133	0xbbf31da0	-0.007419303
134	0x3ca2fa18	0.019894645
135	0x3b201574	0.002442685
136	0xbd80632b	-0.06268915
137	0xbc27e463	-0.010247323
138	0x3ca31093	0.019905364
139	0x3df26ff2	0.11837758
140	0x20ab5c41	2.9029575e-19
141	0xa1a71afd	-1.1323504e-18
142	0xbda1bcda	-0.07897349
143	0xbce53e8c	-0.027983926
144	0xbd391767	-0.045188334
145	0x3c46f379	0.012143009
146	0x3ca60f5e	0.020271
147	0x3cbac733	0.022800064
148	0xbc8d5a51	-0.01725498
149	0x3bdd79ad	0.0067588896
150	0xbc388673	-0.011262524
151	0xbb1024a4	-0.0021994496
152	0x3cab0474	0.020876147
153	0xb769a4c0	-1.3926241e-05
154	0xbc87daa1	-0.016583743
155	0xbc976eb7	-0.01848541
156	0x39dcf81a	0.0004214652
157	0x3bf83e3e	0.007575779
158	0x3c3c255a	0.011483515
159	0x3c8ed74b	0.017436644
160	0x3c18fd83	0.009337786
161	0x3a606b0f	0.0008560875
162	0x3b8fc37e	0.004387318
163	0xbcd6c2fa	-0.026216019
164	0xbc9b1783	-0.01893211
165	0xbd176797	-0.036964025
166	0xbd486c9c	-0.048931703
167	0xbbfa800c	-0.007644659
168	0x21217763	5.470693e-19
169	0xbd38ffef	-0.045165952
170	0xbdd2d850	-0.102951646
171	0xbd03b8e3	-0.032158744
172	0x3bd0b528	0.0063692518
173	0xbc91ff8f	-0.017822055
174	0xbcc1913c	-0.023628823
175	0x3ba53d76	0.005042727
176	0xbbeddf04	-0.0072592515
177	0xbcb9f09d	-0.022697741
178	0xbc21d2f2	-0.009876953
179	0x3bf2348a	0.007391517
180	0x38b4571e	8.599296e-05
181	0xbbdbe737	-0.0067109126
182	0x3aaa38e3	0.0012986924
183	0x3b8f054d	0.0043646456
184	0xbb2715f5	-0.0025495265
185	0xbbab3884	-0.005225243
186	0xbc1b9371	-0.009495602
187	0xbc4e1036	-0.012577107
188	0xbb721a42	-0.003694192
189	0xbb82be5d	-0.003989978
190	0x3bb47531	0.0055071344
191	0xbc2eca5f	-0.010668366
192	0xbaa95b77	-0.0012920935
193	0xbd9bd944	-0.076097995
194	0xbba84700	-0.005135417
195	0xbdc041cc	-0.0938755
196	0x3c5dffba	0.0135497395
197	0xbcb6f6aa	-0.022334415
198	0x3cd29af8	0.02570866
199	0x3c987b16	0.01861338
200	0x3c0a890d	0.008455527
201	0xbcda66be	-0.02666032
202	0xbca65476	-0.020303946
203	0x3bedd940	0.0072585642
204	0x3c097731	0.008390234
205	0xbb3e4c7d	-0.002903729
206	0xbbfdc447	-0.0077443453
207	0xb9a08ec1	-0.00030623938
208	0xbbbbd3a9	-0.005732019
209	0xbab106df	-0.0013506076
210	0x38d78194	0.00010276135
211	0x3bd3c4fb	0.006462691
212	0x3a72ced4	0.0009262387
213	0xbca041e1	-0.019562664
214	0xbcd944b3	-0.026522016
215	0xbc13d0cb	-0.009021948
216	0xbb1212fb	-0.0022289145
217	0x3c809e32	0.015700433
218	0xbbc0a855	-0.0058794417
219	0x3cdd4a80	0.027013063
220	0xbaeffd06	-0.001830966
221	0xbb065fc7	-0.0020503865
222	0xbd682d28	-0.05668369
223	0xbc893c1d	-0.016752297
224	0x3d81db23	0.06340625
225	0x3cd6846e	0.026186194
226	0x3c6b22f6	0.014351597
227	0x3c09b800	0.008405685
228	0x3bfc08bd	0.0076914714
229	0xbb5a1df3	-0.0033282011
230	0xbc13cfa5	-0.009021674
231	0x3b8406c4	0.004029127
232	0x3c857cbc	0.01629483
233	0x3c287ef0	0.0102841705
234	0xbc85d344	-0.01633609
235	0xbc60dadf	-0.013724058
236	0x3aaa2ca2	0.0012983272
237	0xbc5b40a3	-0.01338211
238	0xbce8ce9c	-0.028418832
239	0xbc2792ce	-0.010227872
240	0xbc54eb30	-0.012995526
241	0xbc8b54a8	-0.01700814
242	0x3c0e42a4	0.008682881
243	0xbaa7ff16	-0.001281711
244	0xbc08c095	-0.008346696
245	0xbcfb0b8a	-0.03064515
246	0xbcd2eff1	-0.025749179
247	0x3a3b1910	0.00071372185
248	0x3cf19a6b	0.029492578
249	0xbcc1bcf6	-0.023649674
250	0xbc6f1974	-0.014593471
251	0xbc622873	-0.013803589
252	0x3c5ecdb6	0.01359885
253	0xbc37a59d	-0.011208919
254	0xbc560ee1	-0.013065071
255	0x3ca08e1e	0.019599017

encoder.bias f4 [128]
0	0x3eae5cd0	0.34055185
1	0x3e22af81	0.15887262
2	0x3dc241d0	0.09485209
3	0x39c56935	0.00037653153
4	0xbedb6f8d	-0.42858544
5	0x3e53f65c	0.20699447
6	0x3c3f9a47	0.011694497
7	0xbdb46718	-0.08808726
8	0x3db875f4	0.09006873
9	0x3da1bbf0	0.07897174
10	0xbd00534b	-0.031329434
11	0xbdbb5bb7	-0.091483526
12	0x3e8d9924	0.276559
13	0x3dccf4e0	0.10007644
14	0x3ecde790	0.4021573
15	0x3dbf31da	0.0933568
16	0x3ddd40a4	0.10803345
17	0xbe247137	-0.16058813
18	0xbe5c5c56	-0.21519598
19	0xbd80b516	-0.062845394
20	0x3e7fc745	0.24978359
21	0x3cfee4c5	0.031114945
22	0x3c3454ce	0.011006547
23	0x3e018df1	0.12651803
24	0x3e03db92	0.12876728
25	0xbe82f9ec	-0.255813
26	0x3e097c79	0.13426389
27	0xbbbdc9fc	-0.0057919007
28	0x3d968de3	0.073512815
29	0x3e9ec5ad	0.3101019
30	0x3d9828e2	0.07429673
31	0xbe9e8200	-0.30958557
32	0xbdb9c317	-0.090704136
33	0x3b0d7d33	0.0021589517
34	0x3b565656	0.0032705269
35	0xbdd81f12	-0.10552801
36	0xbcb20777	-0.021732075
37	0x3d5ae910	0.053444922
38	0x3e111a3f	0.14170168
39	0xbd2d0921	-0.042245034
40	0x3dc66a76	0.096882746
41	0xbe34c295	-0.17652352
42	0xbca8b185	-0.02059246
43	0x3de95d59	0.11394758
44	0x3d46c7a6	0.048530243
45	0xbdc20ad7	-0.09474724
46	0xbcfe7049	-0.031059401
47	0xbc6da617	-0.014504931
48	0x3e0222e4	0.12708622
49	0x3d667233	0.056261253
50	0xbd8fbd0a	-0.07018478
51	0x3c496e54	0.012294371
52	0xbd557737	-0.052115645
53	0x3ea97eee	0.33104652
54	0xbd4792cd	-0.048723985
55	0x3c70580b	0.014669429
56	0x3e06c64b	0.1316158
57	0xbd8391f8	-0.06424326
58	0xbe0a703b	-0.13519375
59	0x3ccf6fc0	0.025321841
60	0x3eaccd8d	0.33750573
61	0x3d938959	0.07203931
62	0xbe4661fd	-0.19373317
63	0x3c350411	0.011048333
64	0x3df3e6f8	0.11909288
65	0x3a8230ca	0.0009932753
66	0x3d8ae216	0.06781404
67	0xbad85b18	-0.001650664
68	0x3e125b8a	0.14292732
69	0x3cdc8c18	0.02692227
70	0xbd06dd64	-0.03292598
71	0xbd3b8491	-0.045780722
72	0xbd6de96b	-0.058083933
73	0x3dadfce3	0.084955
74	0x3e0764d6	0.1322206
75	0xbd252b99	-0.04032478
76	0xbbd3a98d	-0.006459421
77	0xbe79c066	-0.243898
78	0x3e013a45	0.12619884
79	0xbed2abc1	-0.41146663
80	0x3e08231a	0.1329464
81	0xbf21b449	-0.6316572
82	0x3dc5d1af	0.096591346
83	0x3d9ac7b3	0.07557621
84	0x3d0df876	0.03466078
85	0x3eb75371	0.35805848
86	0x3dc89b88	0.0979529
87	0xbe0150b8	-0.12628448
88	0xbd86e0e0	-0.0658586
89	0x3d33edfc	0.04392813
90	0xbedb285a	-0.42804223
91	0x3d59e735	0.05319901
92	0xbe1b47f6	-0.1516417
93	0x3dd90b70	0.10597885
94	0x3e1c5dd5	0.15270169
95	0x3d9f4850	0.077774644
96	0x3d6793ef	0.056537565
97	0x3c78a70f	0.015176549
98	0x3e0f9791	0.14022662
99	0x3d21d7c3	0.039512407
100	0x3d93f6a2	0.07224776
101	0x3e5f32da	0.21796742
102	0x3e3a6fd9	0.18206729
103	0xbeaf266e	-0.34209007
104	0x3d595ccd	0.053067017
105	0xbd9ddfc3	-0.07708695
106	0x3e1fa3b5	0.15589793
107	0xbda6c49e	-0.081429705
108	0xbd0531c9	-0.032518182
109	0x3dc6a2a3	0.09698989
110	0xbca62d3b	-0.02028524
111	0xbee9331a	-0.455468
112	0x3e7463fe	0.23866269
113	0x3c81bb42	0.015836362
114	0xbceaccc9	-0.028662102
115	0x3cf9e5d8	0.030505106
116	0x3e762bab	0.24040096
117	0xbb37eb70	-0.0028063916
118	0x3b014c37	0.0019729265
119	0x3dac0843	0.08400013
120	0x3ea93498	0.33047938
121	0x3cc85176	0.024452906
122	0x3ec43adc	0.38326156
123	0xbbc9c5b3	-0.006157601
124	0x3da0b2ea	0.07846625
125	0x3da5e824	0.08100918
126	0xbecc51c1	-0.39906123
127	0x3d3f2400	0.04666519

decoder.weight f4 [784, 128]
0	0xbeb9ca2e	-0.36287063
1	0xbe607aca	-0.2192184
2	0xbe74e7d8	-0.23916566
3	0xbe5f5947	-0.218114
4	0xbe79b6a0	-0.24386072
5	0xbe8f6ed4	-0.28014243
6	0xbe5f59dc	-0.21811622
7	0xbe3699fb	-0.17832176
8	0xbe72cf3e	-0.23711869
9	0xbe63369c	-0.221888
10	0xbec5a1e9	-0.3860009
11	0xbe65828c	-0.22413081
12	0xbe982847	-0.2971823
13	0xbe6d6deb	-0.23186462
14	0xbe83960b	-0.2570041
15	0xbe46a981	-0.19400598
16	0xbe6f8981	-0.23392297
17	0xbe3ee6d0	-0.18642735
18	0xbe354d55	-0.17705281
19	0xbe2da794	-0.16958457
20	0xbe7d3721	-0.24728061
21	0xbe45d46b	-0.19319312
22	0xbe772be7	-0.24137841
23	0xbe80bb50	-0.25142908
24	0xbe5f6bf1	-0.2181852
25	0xbe329374	-0.17439061
26	0xbeaf7ee2	-0.3427649
27	0xbe35168f	-0.17684387
28	0xbe6a24cf	-0.22865604
29	0xbe76b83e	-0.2409372
30	0xbe5f282e	-0.21792671
31	0xbe4145c6	-0.18874273
32	0xbea8df6e	-0.32982963
33	0xbe854b15	-0.26033846
34	0xbe74c00f	-0.2390139
35	0xbe39e00b	-0.18151872
36	0xbe434a12	-0.19071224
37	0xbe4a907a	-0.19781676
38	0xbe7191a8	-0.2359072
39	0xbe54953c	-0.20760053
40	0xbe503d75	-0.20335944
41	0xbe66c7d1	-0.22537161
42	0xbe4b4ee3	-0.19854312
43	0xbe895070	-0.2681918
44	0xbe4ad96a	-0.198095
45	0xbe924616	-0.28569096
46	0xbe8118cd	-0.25214234
47	0xbe4b5e48	-0.19860184
48	0xbe6cd48a	-0.23127952
49	0xbe727744	-0.23678309
50	0xbe8d30c0	-0.27576256
51	0xbe275697	-0.16341625
52	0xbe512309	-0.20423521
53	0xbe673e4b	-0.22582357
54	0xbe13ddcb	-0.14440076
55	0xbe591388	-0.21198857
56	0xbe920118	-0.2851646
57	0xbe793f46	-0.24340543
58	0xbe4b2bdd	-0.19840951
59	0xbe3fe717	-0.18740498
60	0xbe5d5b84	-0.21616942
61	0xbeb36e5d	-0.35045138
62	0xbe59f9f4	-0.21286756
63	0xbe654e29	-0.22393097
64	0xbea62dab	-0.32456717
65	0xbe557f9a	-0.20849457
66	0xbe6d438b	-0.23170297
67	0xbe60f797	-0.21969448
68	0xbe8b2b87	-0.27181646
69	0xbe563027	-0.20916806
70	0xbe6c6443	-0.23085122
71	0xbe422c33	-0.18962173
72	0xbe316a31	-0.17325665
73	0xbe48943c	-0.19587797
74	0xbe5a9780	-0.21346855
75	0xbe7412d9	-0.23835315
76	0xbe764cf8	-0.24052799
77	0xbe2ec723	-0.17068152
78	0xbe61407e	-0.21997258
79	0xbe508bf5	-0.2036589
80	0xbe78358a	-0.24239174
81	0xbe6595a4	-0.22420365
82	0xbe827ddf	-0.25486657
83	0xbe601f07	-0.21886836
84	0xbe86901c	-0.26281822
85	0xbe6b76e8	-0.22994578
86	0xbe73efa3	-0.23821883
87	0xbe41f0cc	-0.18939513
88	0xbe47792b	-0.19479816
89	0xbe5f2911	-0.2179301
90	0xbe3ce0a6	-0.18445072
91	0xbe6aa219	-0.22913398
92	0xbe287f7c	-0.16454881
93	0xbefb345e	-0.4906339
94	0xbe6aa419	-0.22914161
95	0xbe6587b7	-0.22415052
96	0xbe6cb9fd	-0.23117824
97	0xbe51867a	-0.20461455
98	0xbe805e60	-0.25072002
99	0xbe92d330	-0.28676748
100	0xbea64024	-0.3247081
101	0xbe6ffeb1	-0.23437001
102	0xbe72916f	-0.23688291
103	0xbe5dc5b0	-0.21657443
104	0xbe828b42	-0.2549687
105	0xbe6b15af	-0.2295749
106	0xbe596da5	-0.21233232
107	0xbe305906	-0.1722146
108	0xbe29da46	-0.16587171
109	0xbeb9c81b	-0.3628548
110	0xbe4fa36b	-0.20277183
111	0xbe4528da	-0.19253865
112	0xbe97a647	-0.29619047
113	0xbee7222c	-0.4514326
114	0xbe9c1f80	-0.30492783
115	0xbe63c1b5	-0.22241862
116	0xbe8d33b6	-0.27578515
117	0xbe53a439	-0.20668115
118	0xbe1d9270	-0.15387893
119	0xbe47e15d	-0.19519563
120	0xbea90891	-0.33014348
121	0xbe3a6cad	-0.18205519
122	0xbe8d2035	-0.27563635
123	0xbe5eacdf	-0.21745633
124	0xbe9cc6c7	-0.30620405
125	0xbe550095	-0.20801003
126	0xbe6a1b31	-0.22861935
127	0xbe5c981e	-0.21542403
128	0xbeb9ca2e	-0.36287063
129	0xbe607aca	-0.2192184
130	0xbe74e7d8	-0.23916566
131	0xbe5f5947	-0.218114
132	0xbe79b6a0	-0.24386072
133	0xbe8f6ed3	-0.2801424
134	0xbe5f59dc	-0.21811622
135	0xbe3699fb	-0.17832176
136	0xbe72cf3e	-0.23711869
137	0xbe63369d	-0.22188802
138	0xbec5a1e9	-0.3860009
139	0xbe65828c	-0.22413081
140	0xbe982847	-0.2971823
141	0xbe6d6deb	-0.23186462
142	0xbe83960a	-0.25700408
143	0xbe46a981	-0.19400598
144	0xbe6f8981	-0.23392297
145	0xbe3ee6d0	-0.18642735
146	0xbe354d54	-0.1770528
147	0xbe2da794	-0.16958457
148	0xbe7d3720	-0.2472806
149	0xbe45d46b	-0.19319312
150	0xbe772be7	-0.24137841
151	0xbe80bb50	-0.25142908
152	0xbe5f6bf0	-0.21818519
153	0xbe329374	-0.17439061
154	0xbeaf7ee2	-0.3427649
155	0xbe35168f	-0.17684387
156	0xbe6a24cf	-0.22865604
157	0xbe76b83e	-0.2409372
158	0xbe5f282e	-0.21792671
159	0xbe4145c6	-0.18874273
160	0xbea8df6e	-0.32982963
161	0xbe854b16	-0.2603385
162	0xbe74c010	-0.23901391
163	0xbe39e00a	-0.1815187
164	0xbe434a12	-0.19071224
165	0xbe4a907b	-0.19781677
166	0xbe7191a9	-0.23590721
167	0xbe54953c	-0.20760053
168	0xbe503d75	-0.20335944
169	0xbe66c7d1	-0.22537161
170	0xbe4b4ee3	-0.19854312
171	0xbe895070	-0.2681918
172	0xbe4ad96a	-0.198095
173	0xbe924616	-0.28569096
174	0xbe8118cd	-0.25214234
175	0xbe4b5e48	-0.19860184
176	0xbe6cd48a	-0.23127952
177	0xbe727744	-0.23678309
178	0xbe8d30c0	-0.27576256
179	0xbe275697	-0.16341625
180	0xbe51230a	-0.20423523
181	0xbe673e4b	-0.22582357
182	0xbe13ddcb	-0.14440076
183	0xbe591388	-0.21198857
184	0xbe920119	-0.28516462
185	0xbe793f46	-0.24340543
186	0xbe4b2bdd	-0.19840951
187	0xbe3fe718	-0.18740499
188	0xbe5d5b84	-0.21616942
189	0xbeb36e5d	-0.35045138
190	0xbe59f9f4	-0.21286756
191	0xbe654e29	-0.22393097
192	0xbea62dab	-0.32456717
193	0xbe557f9a	-0.20849457
194	0xbe6d438b	-0.23170297
195	0xbe60f797	-0.21969448
196	0xbe8b2b87	-0.27181646
197	0xbe563027	-0.20916806
198	0xbe6c6443	-0.23085122
199	0xbe422c33	-0.18962173
200	0xbe316a32	-0.17325667
201	0xbe48943c	-0.19587797
202	0xbe5a9780	-0.21346855
203	0xbe7412d9	-0.23835315
204	0xbe764cf8	-0.24052799
205	0xbe2ec722	-0.1706815
206	0xbe61407d	-0.21997257
207	0xbe508bf5	-0.2036589
208	0xbe78358a	-0.24239174
209	0xbe6595a4	-0.22420365
210	0xbe827ddf	-0.25486657
211	0xbe601f07	-0.21886836
212	0xbe86901b	-0.2628182
213	0xbe6b76e7	-0.22994576
214	0xbe73efa3	-0.23821883
215	0xbe41f0cb	-0.18939511
216	0xbe47792b	-0.19479816
217	0xbe5f2911	-0.2179301
218	0xbe3ce0a6	-0.18445072
219	0xbe6aa219	-0.22913398
220	0xbe287f7c	-0.16454881
221	0xbefb345e	-0.4906339
222	0xbe6aa418	-0.2291416
223	0xbe6587b7	-0.22415052
224	0xbe6cb9fd	-0.23117824
225	0xbe51867a	-0.20461455
226	0xbe805e60	-0.25072002
227	0xbe92d330	-0.28676748
228	0xbea64025	-0.32470813
229	0xbe6ffeb2	-0.23437002
230	0xbe72916f	-0.23688291
231	0xbe5dc5b0	-0.21657443
232	0xbe828b42	-0.2549687
233	0xbe6b15af	-0.2295749
234	0xbe596da5	-0.21233232
235	0xbe305906	-0.1722146
236	0xbe29da46	-0.16587171
237	0xbeb9c81b	-0.3628548
238	0xbe4fa36b	-0.20277183
239	0xbe4528d9	-0.19253863
240	0xbe97a647	-0.29619047
241	0xbee7222c	-0.4514326
242	0xbe9c1f80	-0.30492783
243	0xbe63c1b6	-0.22241864
244	0xbe8d33b6	-0.27578515
245	0xbe53a439	-0.20668115
246	0xbe1d9270	-0.15387893
247	0xbe47e15d	-0.19519563
248	0xbea90891	-0.33014348
249	0xbe3a6cae	-0.1820552
250	0xbe8d2035	-0.27563635
251	0xbe5eacdf	-0.21745633
252	0xbe9cc6c7	-0.30620405
253	0xbe550095	-0.20801003
254	0xbe6a1b32	-0.22861937
255	0xbe5c981e	-0.21542403

decoder.bias f4 [784]
0	0xc051e9a6	-3.2798858
1	0xc051e9a6	-3.2798858
2	0xc051e9a6	-3.2798858
3	0xc051e9a6	-3.2798858
4	0xc051e9a6	-3.2798858
5	0xc051e9a6	-3.2798858
6	0xc051e9a6	-3.2798858
7	0xc051e9a6	-3.2798858
8	0xc051e9a6	-3.2798858
9	0xc051e9a6	-3.2798858
10	0xc051e9a6	-3.2798858
11	0xc051e9a6	-3.2798858
12	0xc051e9ba	-3.2798905
13	0xc051e90c	-3.279849
14	0xc051ecdd	-3.280082
15	0xc051e9e8	-3.2799015
16	0xc051e9a6	-3.2798858
17	0xc051e9a6	-3.2798858
18	0xc051e9a6	-3.2798858
19	0xc051e9a6	-3.2798858
20	0xc051e9a6	-3.2798858
21	0xc051e9a6	-3.2798858
22	0xc051e9a6	-3.2798858
23	0xc051e9a6	-3.2798858
24	0xc051e9a6	-3.2798858
25	0xc051e9a6	-3.2798858
26	0xc051e9a6	-3.2798858
27	0xc051e9a6	-3.2798858
28	0xc051e9a6	-3.2798858
29	0xc051e9a6	-3.2798858
30	0xc051e9a6	-3.2798858
31	0xc051e9a6	-3.2798858
32	0xc051e9ca	-3.2798944
33	0xc051e975	-3.279874
34	0xc051c342	-3.2775426
35	0xc051c3cc	-3.2775755
36	0xc0520ba4	-3.2819605
37	0xc0518dad	-3.2742722
38	0xc02b03d6	-2.6721091
39	0xc009cd95	-2.1531727
40	0xc00581bd	-2.0860436
41	0xc0043bf9	-2.0661604
42	0xc0093415	-2.1438038
43	0xc02ac5b4	-2.6683168
44	0xc03e28dd	-2.971244
45	0xc04a7fc1	-3.1640475
46	0xc04e7804	-3.2260752
47	0xc04ff86b	-3.2495372
48	0xc0507d84	-3.2576609
49	0xc0518ec5	-3.274339
50	0xc051e2c0	-3.2794647
51	0xc051eaea	-3.279963
52	0xc051e9a6	-3.2798858
53	0xc051e9a6	-3.2798858
54	0xc051e9a6	-3.2798858
55	0xc051e9a6	-3.2798858
56	0xc051e9a6	-3.2798858
57	0xc051e9a6	-3.2798858
58	0xc051e85a	-3.2798066
59	0xc051e991	-3.2798808
60	0xc051aa76	-3.276029
61	0xc051d40c	-3.2785673
62	0xc051ad70	-3.2762108
63	0xc0354606	-2.832399
64	0xbfe101f1	-1.7578717
65	0xbfa0c4f4	-1.2560105
66	0xbf9c7e67	-1.2226075
67	0xbf8980e3	-1.0742458
68	0xbf645a67	-0.89200443
69	0xbf5f1af8	-0.87150526
70	0xbf369134	-0.7131531
71	0xbf4db6cf	-0.8035707
72	0xbf263175	-0.64919215
73	0xbf1c4dd4	-0.61056256
74	0xbf4aeb2f	-0.7926511
75	0xbf503ec1	-0.81345755
76	0xbf6765f8	-0.90389967
77	0xbf8636cc	-1.0485473
78	0xbfa41140	-1.2817764
79	0xc04fcd6c	-3.246913
80	0xc05177c6	-3.2729354
81	0xc051ed01	-3.2800906
82	0xc051e9a6	-3.2798858
83	0xc051e9a6	-3.2798858
84	0xc051e9a6	-3.2798858
85	0xc051e9a6	-3.2798858
86	0xc051e3aa	-3.2795205
87	0xc051bbb9	-3.2770827
88	0xc051ad03	-3.2761848
89	0xc05167e6	-3.2719665
90	0xc01f0758	-2.4848232
91	0xbfb8238f	-1.4385852
92	0xbfadbb5d	-1.3572804
93	0xbfafd54d	-1.3736969
94	0xbfb36f74	-1.4018388
95	0xbf982234	-1.1885438
96	0xbf926942	-1.1438372
97	0xbf8ffe1b	-1.1249422
98	0xbf862028	-1.0478563
99	0xbf64ff76	-0.894523
100	0xbf6efecf	-0.9335756
101	0xbf52dad2	-0.82365143
102	0xbf6faf7b	-0.93627137
103	0xbf6f0336	-0.93364275
104	0xbf8dff6c	-1.1093574
105	0xbf9e2584	-1.2355199
106	0xbf9d6c87	-1.2298745
107	0xbfb18fca	-1.3872006
108	0xc0357a57	-2.835592
109	0xc051e8d5	-3.279836
110	0xc051cf63	-3.2782829
111	0xc051e9a6	-3.2798858
112	0xc051e9a6	-3.2798858
113	0xc051e96d	-3.2798722
114	0xc051e13d	-3.2793725
115	0xc051c62f	-3.2777212
116	0xc050f5ef	-3.2650106
117	0xbfb9ef8f	-1.4526232
118	0xbf92bb8d	-1.1463486
119	0xbf8c5102	-1.0962222
120	0xbf9179f8	-1.1365347
121	0xbf9d1832	-1.2273009
122	0xbfa2aede	-1.2709615
123	0xbf86dd95	-1.0536371
124	0xbf660d14	-0.89863706
125	0xbf47b8f6	-0.78016603
126	0xbf411653	-0.7542469
127	0xbf33f590	-0.70296574
128	0xbf241e89	-0.6410909
129	0xbf3c9187	-0.7365956
130	0xbf47f44f	-0.7810716
131	0xbf428580	-0.75984955
132	0xbf389ccf	-0.7211427
133	0xbf6fd2cd	-0.9368103
134	0xbf855c3e	-1.0418775
135	0xbf874717	-1.056857
136	0xbf8f1186	-1.1177223
137	0xc0445cc4	-3.068162
138	0xc0511ba2	-3.2673116
139	0xc051deca	-3.279223
140	0xc051e9a6	-3.2798858
141	0xc051e9a6	-3.2798858
142	0xc051c6f6	-3.2777686
143	0xc0512fb1	-3.2685359
144	0xbfb1a9fa	-1.3879998
145	0xbf81f33e	-1.0152357
146	0xbf6e7874	-0.93152547
147	0xbf88dd46	-1.0692527
148	0xbf86564e	-1.0495088
149	0xbf88de19	-1.0692779
150	0xbf7f9ba2	-0.9984685
151	0xbf69c7ba	-0.91320384
152	0xbf419715	-0.7562116
153	0xbf1e5035	-0.61841136
154	0xbf05a518	-0.5220504
155	0xbf014726	-0.5049919
156	0xbf025f3f	-0.50926584
157	0xbf18b95f	-0.59657854
158	0xbf2779ce	-0.65420234
159	0xbf24913f	-0.6428413
160	0xbf39e631	-0.7261687
161	0xbf528774	-0.82237935
162	0xbf7631a4	-0.96169496
163	0xbf89366f	-1.0719737
164	0xbf849712	-1.0358603
165	0xbfa0d773	-1.256575
166	0xc04f38dc	-3.2378454
167	0xc051db42	-3.2790074
168	0xc051e9a6	-3.2798858
169	0xc051e9b0	-3.2798882
170	0xc051a51c	-3.2757025
171	0xc00610b2	-2.094769
172	0xbf6e30fa	-0.9304348
173	0xbf7cf990	-0.988183
174	0xbf86e86e	-1.0539682
175	0xbf8c53dc	-1.0963092
176	0xbf8d1d21	-1.1024514
177	0xbf80bd42	-1.0057757
178	0xbf82936d	-1.0201241
179	0xbf667a66	-0.90030515
180	0xbf1c9480	-0.61164093
181	0xbeb6d4f7	-0.35709354
182	0xbdfb33e1	-0.122657545
183	0xbda70aae	-0.08156334
184	0xbe550e7a	-0.20806304
185	0xbe5468b2	-0.20743063
186	0xbe92c8e7	-0.286689
187	0xbf1d7778	-0.6151042
188	0xbf3ecfdd	-0.74535924
189	0xbf881cfa	-1.0633843
190	0xbf898f85	-1.0746924
191	0xbf8c9834	-1.0983949
192	0xbf8af911	-1.0857259
193	0xbf90550e	-1.1275957
194	0xbffa5ca5	-1.9559523
195	0xc0519d70	-3.2752342
196	0xc051e8fa	-3.2798448
197	0xc051c8ab	-3.2778728
198	0xc04e5949	-3.2241995
199	0xbf86f89f	-1.0544623
200	0xbf59eaf8	-0.8512416
201	0xbf9497f3	-1.1608871
202	0xbfa6da98	-1.303546
203	0xbf92b075	-1.14601
204	0xbf8d81f0	-1.1055279
205	0xbf7cd9a4	-0.98769593
206	0xbf57407f	-0.8408279
207	0xbf11d663	-0.56967753
208	0xbe93e070	-0.2888217
209	0xbd155591	-0.036458556
210	0x3da660a6	0.08123903
211	0x3e684c8d	0.22685452
212	0x3e639e63	0.22228388
213	0x3dd12467	0.10212021
214	0xbd9adca9	-0.07561619
215	0xbe8da559	-0.27665213
216	0xbf2713f5	-0.65264827
217	0xbf764501	-0.9619904
218	0xbf858d90	-1.0433826
219	0xbf86e810	-1.053957
220	0xbf93bdd3	-1.1542305
221	0xbf8dd929	-1.1081897
222	0xbfc70b41	-1.555031
223	0xc0517be3	-3.2731864
224	0xc051db14	-3.2789965
225	0xc0512156	-3.2676597
226	0xbfa267f6	-1.2687976
227	0xbf50526a	-0.81375754
228	0xbf6cd637	-0.92514366
229	0xbf8ea402	-1.1143801
230	0xbf9f76a5	-1.2458082
231	0xbf9f1c94	-1.2430596
232	0xbf8c3e2d	-1.0956475
233	0xbf518f4a	-0.81859267
234	0xbf14350d	-0.5789345
235	0xbeb0f445	-0.34561363
236	0xbe086e5b	-0.13323347
237	0x3d3934ec	0.045216486
238	0x3e3a34f3	0.18184261
239	0x3ea2d639	0.31804064
240	0x3e2c1436	0.16804585
241	0xbcc7c618	-0.02438645
242	0xbdd31d53	-0.103083275
243	0xbe9f7d1b	-0.31150135
244	0xbf1a7903	-0.603409
245	0xbf6a2322	-0.9145986
246	0xbf769958	-0.96327734
247	0xbf92193b	-1.141395
248	0xbf9a1a78	-1.2039328
249	0xbf998c1f	-1.1995887
250	0xbfc651d2	-1.549372
251	0xc051e171	-3.2793849
252	0xc051e3c6	-3.2795272
253	0xc04ff12c	-3.249095
254	0xbf9ce9ec	-1.2258887
255	0xbf4e977a	-0.80699885
