model/VAE.pth (torch, 905841 bytes, 22 tensors)

encoder_shared.0.weight f4 [128, 784]
00000000: 9df5 11a1 b440 c221 3425 a2a0 5592 53a1
00000010: 5bd4 0aa1 6dbd 8c21 587f 06a1 953f 0aa1
00000020: 171a 5d1e 446d 9c21 9e30 b7a0 f211 5021
00000030: 632c ad20 83b9 cca0 eef0 431e f165 9aa1
00000040: 0b17 5aa0 0c1a 90a1 4ea3 5e21 dd66 2d21
00000050: d5e5 bda1 26c5 c021 97d7 8f21 73d5 4e21
00000060: 819b aaa1 4649 45a1 834d c09f 07b3 8721
00000070: c876 b2a1 1d31 af21 6d71 9d20 1097 0221
00000080: 845d 8ba1 34c5 9721 9c86 0131 69f6 19b8
00000090: 6212 973c 89a8 e53c d432 cb3b 4667 4a3b
000000a0: 1c27 40b9 989d 52bb d3b0 4cbe ded9 18be
000000b0: 5c0c 6cbd f0eb 05bc 4b6a 4938 1f08 bbb6
000000c0: 8589 60b6 5dc6 6eb4 68d7 a221 4493 afa1
000000d0: 0082 b1a0 9fd0 9ba1 ad0f c721 5d5e c621
000000e0: be0b 0ba1 3b31 88a1 268b e11e 7b1f d220
000000f0: adb0 0aa1 39bb 4aa1 035a 3a31 47e0 c33c
00000100: 23f1 fcbb 278d eebd 6ac3 f13d ad6d 223e
00000110: b238 9c3d 05e9 cd3c 1638 50bd fc70 cfbd
00000120: e4c9 bdbd 3100 9e3d bbbc bbbd 87fc d9bc
00000130: 141f b7bb 2138 e9b9 feed 6bb9 d8ae e8b5
00000140: ffd0 542f fa23 cd20 a796 3e21 27d0 13a1
00000150: 64d6 8721 0eb4 ed1f ede0 98be 461b a0be
00000160: 2301 2321 db28 823c 5ca2 aeb9 bdd4 7b3d
00000170: 4d52 a93c 39ff bb3d e299 883b 3efd 0dbe
00000180: 26ba a8bd b9b5 473e f89d 053e f724 d03c
00000190: cdbf d1bc 9561 eabd 8806 2fbe 234d 0abe
000001a0: 2ee8 693c cc34 15bc ba5e 55bc fe68 bfbb
000001b0: 81cd 21bb 80c1 98a1 559f 0ea1 c36e 73a1
000001c0: 7f43 5221 a539 9121 a765 9ebe e0db 8dbe
000001d0: 0b42 7c35 ca22 633c a54d e6bd bc60 cfbd
000001e0: 40b1 77be c0d7 90bd cdc4 2abe e716 02bd
000001f0: 0c9d 0d3d 81f5 8e3d a47b f8bc 7ae1 d4bd
00000200: fcad 86bd 4c62 da3c fc17 c53c 66b6 ee3d
00000210: 426d a13d 0a84 4bbd 639b 0cbe 9dd6 07be
00000220: 233f 25bd af53 8ebd 205d ed20 3a1f 5da1
00000230: 5f7c 0221 978d 34a0 1a4c 773d 087c 67bd
00000240: 9497 47bd 4489 7c3d af30 96be de58 32be
00000250: e734 c5be 51fc 63be 1dfe 12be af0d 0fbe
00000260: 0b84 7ebe 5d73 52be cf59 50be 7ccf 84bd
00000270: 5218 113e 3549 1a3e 69df 0f3e 9741 8c3e
00000280: 3e92 f73d 698e 28bd e4ac d43c a75c 99bc
00000290: 9411 a2bd 7171 e4bd 3096 30be 0d4e 6732
000002a0: 99e9 20a0 a197 851f d42a 4c3e 4bfa 053d
000002b0: c918 18bd 7257 bcbe e719 8bbe 2d41 87be
000002c0: a611 7bbe c52d 54be 09e1 7fbe de5c b0be
000002d0: 1f95 73be 3461 8cbe b520 0abd 8c1a b83c
000002e0: ecf6 4f3c 800c ea3d 2c0e da3d abe2 ea3d
000002f0: 8b83 bdbd c8fc 063c 1174 963e 9df9 ac3d
00000300: 8491 e13d 24c8 34be 0270 2cbd f589 2d31
00000310: e393 b0a1 48eb 9a21 7f37 c03c a700 cf3c
00000320: cf43 153d 2dd8 29bd 7266 ddbd a276 eabd
00000330: e40d f4bd bafd 4cbe ba1b e8be b0ff 05bf
00000340: 42ee abbe 8fec ccbe cf46 24be fa17 8d3c
00000350: 03d1 cc3d efc8 43bd 56cf ecbd 8f41 08be
00000360: 1b1f 34be e4f1 973b 922b d93d 51e4 a73d
00000370: 4d59 173e 56ac 13be 0a1d 18be 0f5c d8b4
00000380: 928f 1f20 6fc5 0a2f ee38 ebbb 78a3 c5b9
00000390: 2270 813c c223 39bd f141 183d 57d5 5bbd
000003a0: d5a7 0dbc c56e 63be 45b6 c6be dab1 b4be
000003b0: d03a 7dbe 4b16 cabe 72c1 e4bd ad47 513e
000003c0: fa30 c73d 0b47 f4bc 409e 4fbe 78b0 4bbe
000003d0: 09f1 94be 3a02 5cbd 53a2 89bd 2a19 e2ba
000003e0: b33b be3d 22f6 e1bd ac48 02bc 124f acb4
000003f0: d195 1da1 4a5d f7bd a3a3 87b4 1499 2ebe
-4.9452977e-19 1.3163078e-18 -2.7468486e-19 -7.168325e-19 -4.703727e-19 9.53691e-19 -4.5569504e-19 -4.684037e-19
1.1705038e-20 1.0599894e-18 -3.1033578e-19 7.049689e-19 2.9336713e-19 -3.4681706e-19 1.0373037e-20 -1.046243e-18
-1.8472943e-19 -9.764714e-19 7.543266e-19 5.875082e-19 -1.2867974e-18 1.3062611e-18 9.747123e-19 7.007801e-19
-1.156081e-18 -6.6843173e-19 -8.1443395e-20 9.195344e-19 -1.209319e-18 1.1871461e-18 2.6671893e-19 4.4245643e-19
-9.44376e-19 1.0284357e-18 1.8848487e-09 -3.670753e-05 0.018441383 0.028034465 0.0062011275 0.003088431
-0.00018325116 -0.003213739 -0.19989328 -0.1492686 -0.057628974 -0.008173928 4.8021127e-05 -5.5739797e-06
-3.3458648e-06 -2.2237641e-07 1.1034565e-18 -1.1897442e-18 -3.0070993e-19 -1.055843e-18 1.3488914e-18 1.344198e-18
-4.711057e-19 -9.22875e-19 2.3880352e-20 3.5596216e-19 -4.6990047e-19 -6.868805e-19 2.7117728e-09 0.023910655
-0.0077191754 -0.116480164 0.118048504 0.1586215 0.07628001 0.025135526 -0.050834738 -0.10128972
-0.09267023 0.0771488 -0.09166857 -0.026609672 -0.0055884216 -0.00044483042 -0.00022500005 -1.7336233e-06
1.9355538e-10 3.4752158e-19 6.457389e-19 -5.0081025e-19 9.204705e-19 1.0067128e-19 -0.29859105 -0.31270808
5.5228053e-19 0.015888622 -0.00033308833 0.06148218 0.020669127 0.09179539 0.004168735 -0.13866135
-0.0823863 0.19502915 0.13048542 0.025408251 -0.025604153 -0.114443935 -0.17092335 -0.13505988
0.014276547 -0.009106826 -0.013023073 -0.0058413735 -0.002468914 -1.035114e-18 -4.8322346e-19 -8.2478194e-19
7.12401e-19 9.840841e-19 -0.3093693 -0.27706814 9.397342e-07 0.013863275 -0.11245278 -0.101258725
-0.2418871 -0.07072401 -0.16676636 -0.031760123 0.0345736 0.0698042 -0.030332394 -0.10394569
-0.06576154 0.0266582 0.024059288 0.116558835 0.078821674 -0.04968647 -0.1373115 -0.13265462
-0.040343415 -0.06949555 4.0210987e-19 -7.491904e-19 4.4210317e-19 -1.5293441e-19 0.06037531 -0.05651477
-0.04872854 0.061654344 -0.29334018 -0.17416713 -0.38516924 -0.2226422 -0.14354749 -0.13970064
-0.24855058 -0.2055182 -0.2034676 -0.06484887 0.14169434 0.15066989 0.14050068 0.2739379
0.1208844 -0.041151438 0.025961347 -0.018720938 -0.07913509 -0.1115445 -0.17244792 1.3463716e-08
-1.3629818e-19 5.657854e-20 0.19938213 0.0327094 -0.037133012 -0.36785465 -0.271682 -0.26416913
-0.24518451 -0.20720585 -0.24988188 -0.34445852 -0.23787354 -0.2741791 -0.033722598 0.022473596
0.012693148 0.114281654 0.10647234 0.11469015 -0.092536055 0.008238979 0.29385427 0.084460475
0.11014083 -0.17654473 -0.042099006 2.5253233e-09 -1.1965369e-18 1.0497724e-18 0.023463963 0.025268866
0.03644162 -0.041465927 -0.108105555 -0.11448409 -0.11916712 -0.20018664 -0.45333654 -0.52343273
-0.33580214 -0.4002423 -0.16042636 0.017223347 0.10000803 -0.047799047 -0.11562984 -0.13306259
-0.17589991 0.00463699 0.106040135 0.08197845 0.1478016 -0.1442121 -0.14854828 -4.0300117e-07
1.3515327e-19 1.262117e-10 -0.0071784174 -0.00037696562 0.01580054 -0.045200117 0.03717226 -0.053670254
-0.008645971 -0.22210224 -0.38810936 -0.3529194 -0.24729466 -0.39470133 -0.11169709 0.20437498
0.097261384 -0.029819032 -0.20275211 -0.19891536 -0.29090145 -0.05371306 -0.06720414 -0.0017249931
0.092887305 -0.11033274 -0.007951897 -3.2095028e-07 -5.339195e-19 -0.1207834 -2.526477e-07 -0.17050582

encoder_shared.0.bias f4 [128]
00000000: 1b68 263f 7270 e5be a0ff 65b4 3099 6dbd
00000010: fb9e 993e da19 2b3f fbb1 843c 1b85 35b3
00000020: 57a9 01bd 1566 bd3e a1b7 e2bc 89be dc3e
00000030: 5dc5 75ae 1653 fcbc e61f 233f 1d70 75bc
00000040: 3647 f03e cf54 393f 1fd5 90bd edc2 a5bb
00000050: 409e c8b0 36ae 77b4 cf30 9dbc 5d1a 443c
00000060: 383b 0ebe c451 b1bc 74e1 463f 47f0 f83e
00000070: 9b6d afbd 529b aa39 b427 b43b 573b 0cb8
00000080: 4bb7 463e 099a cebc 9e3d 05be 5abb ab3e
00000090: c3cf 8fbe 6baa 01bd 58d4 cfbe 31fc 2eb6
000000a0: f788 07bd 9c1d b43e bb66 323e 0522 bb3e
000000b0: 3c4d 6b3b 3a76 e3be da02 223f 7d42 d73d
000000c0: 6fdd 253f dc34 99be 4400 393f 3e30 0fb5
000000d0: d505 3e3f 94ce 19bd 6498 0cb2 06ba a3af
000000e0: 1e04 00be 9b7f cfbc f428 c43e aea3 5bbc
000000f0: 62fc 473e 3604 063f 1915 923e 77ee f63e
00000100: 2daf 56bc cad8 efbc 7a88 8bbd a7fa 023d
00000110: 72fc cb3e 1599 853e 100a d13e ee45 6e3f
00000120: c3d4 a13e dc01 463f 928b 133a 9d3b 64bc
00000130: 56f6 243f 054e 1d3f 343b 693d 038e 713e
00000140: 5730 f53b e95d 143f c99f 3abd 6228 c4bc
00000150: eb5d 3cbe d02b 9a3e d5af e13e 3063 923e
00000160: eac3 123b 1086 96b8 cbba b13f f481 a83e
00000170: 477b 03be e675 1e3e 2fd2 cdba a767 353e
00000180: 0280 a4b3 872f 19bc 7ed7 e2b3 e148 813e
00000190: 2ae9 ad3e 76fc 00b4 e1c2 fdbc 11bd 893e
000001a0: 7444 02bd 3e43 19b3 8697 593f 206c 85b5
000001b0: 759e d0b3 480b 00bd d31d 843e cf07 ee3e
000001c0: be3a 632f 9ae4 cd3e 472c 393e e04b 1eb3
000001d0: b383 213f f619 0bbe add5 053f c659 83bd
000001e0: 964d 433f d70f e137 c83f 4fb2 5ce4 71b1
000001f0: d9e6 c7bb cb72 0fbd 0850 893e c212 b83e
0.650026 -0.4481235 -2.1420283e-07 -0.05800742 0.30004105 0.6683632 0.016198149 -4.2263405e-08
-0.031655636 0.36991945 -0.027675452 0.43114117 -5.5881844e-11 -0.030801337 0.6372055 -0.014980343
0.4692933 0.7239503 -0.070718996 -0.0050586374 -1.4596893e-09 -2.3067045e-07 -0.019188313 0.011969176
-0.13889778 -0.021645434 0.77687764 0.48620817 -0.085658275 0.0003254065 0.005497897 -3.3433866e-05
0.19405858 -0.025219934 -0.13011786 0.33541375 -0.28088197 -0.031656664 -0.40591693 -2.6074815e-06
-0.033089604 0.3517884 0.17422001 0.36549392 0.003590419 -0.44426137 0.632856 0.105107285
0.64791006 -0.2992314 0.7226603 -5.3341853e-07 0.7422765 -0.037550524 -8.183722e-09 -2.9781705e-10
-0.1250157 -0.025329402 0.38312495 -0.0134057235 0.1952987 0.52350175 0.2853172 0.4822881
-0.013103289 -0.029278178 -0.0681314 0.031977322 0.39841038 0.26093355 0.4082799 0.93075454
0.31607637 0.7734659 0.00056284026 -0.013930229 0.6443838 0.61447173 0.056941226 0.2358933
0.007482569 0.57955796 -0.04556254 -0.023945037 -0.18395202 0.3011155 0.44079462 0.285913
0.0022394606 -7.1775285e-05 1.388513 0.32911646 -0.12839995 0.15474662 -0.0015702898 0.17715321
-7.6601296e-08 -0.00934971 -1.0563143e-07 0.25250915 0.33966953 -1.2012774e-07 -0.030976715 0.2690206
-0.031803563 -3.5684245e-08 0.8499683 -9.940741e-07 -9.714578e-08 -0.03126076 0.25804004 0.46490332
2.0666399e-10 0.40213472 0.18083297 -3.685625e-08 0.6309158 -0.13584122 0.5227917 -0.06413607
0.7629026 2.6829466e-05 -1.2063488e-08 -3.5199923e-09 -0.006100517 -0.035021584 0.26818871 0.3595181

encoder_shared.2.weight f4 [64, 128]
00000000: ae51 81bb 80f6 e7b8 db44 53af 60d3 1e2f
00000010: 190f cfbc 0989 9dbc b156 33ba f888 72b3
00000020: 2680 a231 3a99 3838 4987 b432 e9d4 b2bd
00000030: b988 4e2f d6aa 1eb3 6ee3 cc3a 85ca c0ac
00000040: 20fc ff3c c2c6 9cbb bf22 01b3 87ba 06bd
00000050: 2699 b32b 7448 9632 e5e4 a330 4f49 a8bd
00000060: 4978 d5b0 c706 972e bc4d cdb9 9e3b 98b9
00000070: 4a59 13b9 a08c 8ab5 0292 88bb f725 2531
00000080: 5a9a 49bc 4caf 92b2 63d3 07bc 798a 19be
00000090: 15e8 96ba 41f0 4b30 b6d8 87bd cf95 d732
000000a0: 1810 1fb2 4bdc aeb9 9cc9 a83a 17d3 8b3a
000000b0: 3c49 e838 25bd a337 0393 bd3a 59d7 79bc
000000c0: 8836 9cbd f384 44bb 9e71 c4ba 3984 4cb3
000000d0: ccfa 9e31 6b0a 8133 683c e2af 936d 40ae
000000e0: b660 9fbb b825 fcaf 41e3 babb 12a1 e1b0
000000f0: e66e 8cba 7a36 a4ba 839d 0a3b 470f 6dbb
00000100: 3c14 88bb eb9e 1ab2 4f26 67bd 9e7a b0ba
00000110: 0cac 3138 c4c4 48b2 fb47 8a3c 8b44 e3b3
00000120: bd55 bbb9 4752 e3b9 4e0b 9832 934c 7130
00000130: 7218 f7ba a39f 39b6 038b 1fb8 ec0a 0abb
00000140: 50b9 6eb5 0d39 68bd 2967 72b0 3a25 f52e
00000150: 3997 21bc b049 4fbb c09b 6c3c 9fc6 3b39
00000160: d35c a7b3 f84c 84b1 e6af 5db8 0c61 27bb
00000170: 2442 91bd 4e9a 0db8 dd40 6a32 65a6 63bb
00000180: f6c3 8cb1 36e0 0d31 91d6 47b0 f639 89ba
00000190: 0577 943b 2a86 2630 c1ab a532 7534 aaba
000001a0: 81ab ccbc 50c6 c032 a58b 27b9 a803 13ac
000001b0: e620 ca31 d426 0aba 10e5 99ba 51bc 54ba
000001c0: 32ee 91b1 9d2e 1bb7 7a18 6236 73fd cfb2
000001d0: 47e6 efb8 67fb 403b b04a 8eb4 c9f6 5e30
000001e0: 7546 2d3b 1ec3 a433 8b94 37af fb45 e2af
000001f0: 94ba 7531 a761 c732 64c5 b3bd 7470 15ba
00000200: d47e b6bd 89f9 a73c d45d 5b30 b5cf 71bd
00000210: bf67 3b3c fc04 97bd 1c92 2d3d c7ad 57a2
00000220: 48da 8aa2 d358 91bd a2ac 9b21 691c 8dbd
00000230: 991e a8ad c2dc 85a2 170b 2dbe 8bb0 113e
00000240: ed55 82bd c258 363e 49ee 1b3d 18e5 143e
00000250: b3de 66b0 559f 2caf 479e 47a2 79ca 01be
00000260: baca a3bd 5891 5aa2 9203 0b3d d705 483e
00000270: a320 ae3d 4a4c 01bc 79d5 87bd 074c 08b9
00000280: ca91 19be f23c 4e21 f67e 90bd b10f eebd
00000290: f6ad 30bc 3443 d8a1 00bb b8bc 2fc2 65b5
000002a0: e536 37ba 42a0 83bd 0272 b8be 68eb 8abe
000002b0: 0977 98bc 7b9c 43be 70e3 053e e1f2 87be
000002c0: 481e fdbd 2f2e 10be c955 a83e fa84 cfad
000002d0: 17d4 723c 9b5e 9bb5 3527 40a2 f643 e5a1
000002e0: fcec 6b3d 0959 1022 fe64 c2bd feb5 a4bd
000002f0: 3cb1 843c 79d3 a3bd c685 50be fe95 8abe
00000300: 3af5 e5be b479 8f21 d52a 8a3d f8aa c4be
00000310: 15f0 ff3d bde2 b1bd 329c 25be 44b3 c73c
00000320: 3e08 5dbd 0c77 273c 1d7d e53b be72 b83a
00000330: 1ca9 32be 108a 4dbe 7afd ab3d 5346 23be
00000340: ec2b 30be 934c 7e3d f392 a03d 3e94 283d
00000350: e8ab 5fbd ddc9 63be b7f0 7cbe 3265 a13d
00000360: ac18 0d3c 2700 5538 d1a6 8d3e 0aa9 49bd
00000370: 81c1 3bbe 62b0 043d d95c 09bc 7007 f0bd
00000380: ae6b 102f b4fe 63bd 568d 3d22 88e8 aebd
00000390: 62a5 6abe b3b3 4032 9004 f1a1 9acf 5e3d
000003a0: f065 2ebd c7c2 40a2 50a2 bdbc 4bbf 0931
000003b0: 1d09 a6ae 76b1 35be 8ed1 263e 656b 233e
000003c0: 94c5 d1ae 8968 0c3e d5ff 66bc 9e0f 3aa2
000003d0: ab75 cd3d 2cf7 1f3d 7336 393e f87d d73c
000003e0: ee39 21be 7b04 3cb5 91df 0eaf df08 c521
000003f0: 9fbd 26a2 a992 56bd ce26 bfbe 64ff bf3d
-0.0039465046 -0.000110608526 -1.92148e-10 1.4445112e-10 -0.025275754 -0.019230383 -0.0006841226 -5.6469588e-08
4.7293893e-09 4.4011722e-05 2.1016278e-08 -0.08732016 1.8784165e-10 -3.6942616e-08 0.0015631744 -5.4794524e-12
0.031248152 -0.004784436 -3.0066754e-08 -0.03289273 1.2761222e-12 1.7495246e-08 1.1924867e-09 -0.082171075
-1.5531977e-09 6.867889e-11 -0.00039158564 -0.00029036117 -0.00014052275 -1.0322728e-06 -0.004167796 2.403224e-09
-0.012304867 -1.7076353e-08 -0.008290145 -0.1499423 -0.0011513258 7.419239e-10 -0.06633131 2.509742e-08
-9.258677e-09 -0.00033351997 0.0012877467 0.0010667768 0.00011076263 1.9519191e-05 0.0014463369 -0.015249097
-0.076275885 -0.002998647 -0.0014987474 -4.7617707e-08 4.6269175e-09 6.0089256e-08 -4.1152082e-10 -4.3753067e-11
-0.0048638238 -4.5865334e-10 -0.0057033603 -1.6416684e-09 -0.0010714203 -0.0012528442 0.0021151013 -0.0036172436
-0.0041528028 -9.0001135e-09 -0.05643302 -0.0013464277 4.236032e-05 -1.16862715e-08 0.016880026 -1.0582979e-07
-0.000357313 -0.00043358115 1.770027e-08 8.778411e-10 -0.001885189 -2.766007e-06 -3.803802e-05 -0.002106364
-8.8931574e-07 -0.056695033 -8.8185687e-10 1.1147923e-10 -0.009862714 -0.0031629615 0.014441431 0.00017907702
-7.793428e-08 -3.850456e-09 -5.2854324e-05 -0.0025540022 -0.070926934 -3.3760727e-05 1.3635341e-08 -0.003473663
-4.0968144e-09 2.064565e-09 -7.2700695e-10 -0.0010469544 0.00453079 6.0581107e-10 1.9286633e-08 -0.0012985604
-0.024984123 2.2441924e-08 -0.00015978383 -2.0891986e-12 5.882714e-09 -0.0005270068 -0.001174124 -0.00081152195
-4.247135e-09 -9.249573e-06 3.3690872e-06 -2.4213227e-08 -0.000114393006 0.0029446722 -2.6503903e-07 8.111383e-10
0.00264397 7.672337e-08 -1.6696526e-10 -4.1158885e-10 3.575825e-09 2.3211056e-08 -0.08777884 -0.0005700656
-0.08910909 0.02050473 7.9805074e-10 -0.059035975 0.011438309 -0.073739976 0.04237567 -2.922993e-18
-3.763609e-18 -0.0709702 1.0548904e-18 -0.068901844 -1.9112977e-11 -3.628346e-18 -0.16898762 0.14227502
-0.06364045 0.17807296 0.038069043 0.14540517 -8.3989987e-10 -1.5699915e-10 -2.705332e-18 -0.12674893
-0.079976514 -2.9621454e-18 0.03393895 0.19533478 0.08502319 -0.007891724 -0.066325136 -0.00012998293
-0.1499702 6.9876175e-19 -0.07055466 -0.11624087 -0.010783663 -1.4654518e-18 -0.022550106 -8.559172e-07
-0.0006989076 -0.06427051 -0.3602448 -0.27132726 -0.018611448 -0.19102661 0.13075042 -0.2655249
-0.12359291 -0.14080118 0.3287795 -2.3592229e-11 0.014821074 -1.1575934e-06 -2.6041608e-18 -1.5535633e-18
0.057599053 1.9562774e-18 -0.09491919 -0.08042525 0.016197793 -0.079993196 -0.2036353 -0.2706756
-0.44913656 9.722271e-19 0.06746451 -0.3841169 0.12496964 -0.08685825 -0.16172865 0.024377473
-0.05396294 0.010221254 0.00700344 0.0014072282 -0.17447323 -0.20072198 0.08397956 -0.15944795
-0.17204255 0.062084746 0.07840528 0.041157 -0.054607302 -0.22244973 -0.247012 0.078806296
0.008611839 5.07833e-05 0.27666333 -0.049233474 -0.18335535 0.032394774 -0.008383953 -0.117201686
1.3134979e-10 -0.055662826 2.5689099e-18 -0.085404456 -0.22914651 1.121673e-08 -1.6332003e-18 0.054397203
-0.042577684 -2.6123966e-18 -0.023148686 2.0044861e-09 -7.550425e-11 -0.17743477 0.16290876 0.15958937
-9.5393166e-11 0.13711752 -0.014099081 -2.5215968e-18 0.10032209 0.03905408 0.18087177 0.026305184
-0.15744755 -7.004198e-07 -1.2994252e-10 1.3351587e-18 -2.259758e-18 -0.05238596 -0.37334293 0.09374884

encoder_shared.2.bias f4 [64]
00000000: 8423 c8bd 7899 10bd 8616 c53f ae86 4cbf
00000010: 7cdc fe3e 24e7 323e f761 353e 1b77 0cbe
00000020: 103d 443d 56f0 e5bd 140e 533e 7b3d 17be
00000030: 1dc4 07be c594 833e f0a9 083f 1599 25be
00000040: 04c4 053f 8bf0 fe3e fe92 613e 441e 8a3e
00000050: 9015 6b3e 3a78 69bd 4b29 d5bd 5bfb 223c
00000060: 069c 983d fe05 e83e 282a a23e 4927 f23e
00000070: a275 23be 7c15 79bd 5a94 973e 0be3 e83e
00000080: 0af4 9abe 2c90 433c 26c5 53bd 0b54 a4bd
00000090: e4ff ccbe 455d 85bd 6f05 7e3e f3e8 c6bd
000000a0: 232f 2cbc 1c8c 35bf 06dc 253f 1eec fbbd
000000b0: 632e 09be 9195 b9be d8a4 6abd 2731 503f
000000c0: f021 033e 2778 febd 4806 2ebe c515 05bc
000000d0: 8fcf 55be 56f4 2e3f 5703 5abe 2a0d e73e
000000e0: 619c 373d b76c b03e e3d5 bd3c e9c3 a93f
000000f0: 7ca7 50bd e693 a13e 6af7 0f3f 05b0 f0bd
-0.09772399 -0.03530261 1.5397499 -0.79893005 0.4977759 0.17470986 0.17713152 -0.1371731
0.047909796 -0.11227481 0.20610839 -0.14769547 -0.13258405 0.2569944 0.53384304 -0.16171677
0.5225222 0.49792895 0.2202873 0.26976216 0.22957444 -0.056999423 -0.10408267 0.009947623
0.07451634 0.45317072 0.31672788 0.47295597 -0.15962842 -0.060811505 0.2960537 0.4548572
-0.30264312 0.011936229 -0.051701687 -0.080238424 -0.4003898 -0.065119304 0.2480676 -0.097124
-0.010509285 -0.70916915 0.64788854 -0.12300895 -0.13396601 -0.36246923 -0.057286114 0.81325
0.12805915 -0.12425261 -0.16994584 -0.008122866 -0.20879959 0.6834158 -0.21290337 0.4512723
0.04482687 0.34457943 0.023173278 1.3262912 -0.050940976 0.3155815 0.562369 -0.11752323

encoder_shared.4.weight f4 [36, 64]
00000000: 00d4 f03b d9ff fcbc ffad 473e ac2d 50bd
00000010: bfd2 dcbd 0ab0 edbd 35e2 373d 98d6 313b
00000020: 6df5 cebb 3669 833a 7d61 05bd 0528 1cbd
00000030: f512 743d 5c06 18be 3eab 78be 1bb4 cd3d
00000040: db4a ae3d 81f9 c3bd 56b8 eebd bd83 fe3b
00000050: 7f07 a13d 3bd3 9439 4ff1 e63d caee 2abd
00000060: 133c f33c d115 23bc f661 8ebe 9cc3 e93d
00000070: 1849 753c 361c 13b8 c08f 23be 4356 013b
00000080: 7df6 73be 9a68 21be c5c0 d5bd 5f48 dbbc
00000090: bc3a 763e 20e0 873c e50a 813d 8629 ebbc
000000a0: e7e2 9db9 f382 953d 700a 0c3e aff0 c23d
000000b0: ec64 e8bc 5062 4abe 1ca0 0f3b 1a1a 363d
000000c0: 3584 cebd 5d65 07be 1643 913b 6846 503c
000000d0: 71d3 94bc 397c a53e 8a10 aabc eefb 2d3d
000000e0: 6dd5 43bc 008e 133d 4f7f c7bd c583 ec3d
000000f0: 671c b2b5 b51a 11be e026 d8bd d93c 09bb
00000100: 7b05 b722 9f54 86bd bbd3 e03c a0b0 6f22
00000110: 324e 08bc 7ab0 85bc b424 37bd 2a3e a122
00000120: dd1c 02bd d64e 9fab f17a d1bd 0af1 2521
00000130: cfbb a522 66c5 843c e1a8 4bbb b1a4 67b6
00000140: 26d8 fabc 8cb3 73bb 4471 4ebd 38ed cebd
00000150: 7dc2 89ba b746 d021 f8d5 663b 1cad 81be
00000160: a35b efbc deba 08be 295c 8bbd 3faf bebb
00000170: 7cc7 8522 3021 cfa1 f073 56bd b539 843c
00000180: f68d 01ab a776 a73d 84c9 4622 0f48 9722
00000190: 6e54 11bd bf5c 4522 995f c8b9 9dfb a3ad
000001a0: 77e8 33a2 c79e 0ebd 0766 b23c 602e c421
000001b0: ba55 e3b1 0f7c 38b6 bf1e 40a0 b5b6 10be
000001c0: aac7 0ebe 7cf6 02bd 3f8c 9d20 e868 f620
000001d0: d43d ac1f 27c4 31bc 18a2 50be 242b e93c
000001e0: 4bc7 cc3b 3cc4 62bd 3df5 8dbd 5e40 b6bb
000001f0: 4b5c d7af 7780 05bd 882c 50bb 2535 38a2
00000200: eb93 9cbb f969 a53d 6839 423e 5851 86be
00000210: c7b7 79be a0a6 8b3d c2d8 743d 524e 142d
00000220: 6a21 17be 0b01 543d bbcf 18bf 6378 2fb4
00000230: 8c42 b13c ebc6 863d 2ebd e83d 74fa 503d
00000240: 48f7 123e 32f5 46be b007 14bf d027 c13d
00000250: 2b71 6abe 329d 0bbc 8569 e5be 5ae2 92bf
00000260: 698e 3dbf e4a3 74bf f593 303d 556d 4dba
00000270: 7fa0 06be 675e d937 92a7 07bf a800 40bf
00000280: 9a91 4d3d 018e 23be 6e90 ce39 d91c 02bd
00000290: 7e10 8cbe d0be 073d 57ea fd3d 8c19 d537
000002a0: c69c 2cb6 26b0 2ebe c435 cd3d 6565 84bd
000002b0: f226 a735 eadc d9bd 460f e533 b823 c73c
000002c0: 573e 10bb 9f6a 7ebe 0174 47b0 923b 1c3d
000002d0: 3071 62bd 9937 483e f1c5 66be c505 3ebd
000002e0: 90aa 573e 5670 203e de8f f53d c397 64bd
000002f0: cb8f 7fb3 e1f0 f5be 64af 843d 46ed e036
00000300: 8015 24bb a5ef e53c 380c 553d de26 f33d
00000310: fe6f 783d 62d3 213a 40ca 1c3e 803e a9bd
00000320: f0ed bcbc 2d5e d5bc ec1a 0abd cf14 aa3a
00000330: 623a 123d 07c4 10be d926 323e ad0f 423d
00000340: 22bd 34be 2ce3 16be b826 ebbd ed76 4abe
00000350: f2d7 733d e6d2 9b3d 0066 9dbe 8c5c efbb
00000360: e474 92be 16fc 243e c89e f93d 8181 b53d
00000370: 53a3 a03c 3356 2fbb 4abc 513d 9760 20be
00000380: dcb1 09bd f02c 8d3b 5203 85bd 6109 3c3d
00000390: 8479 cebc 885b 543d fa21 ca3d 452d 57ba
000003a0: d0a8 dbb6 6b9a 7c3c ff3c 77be 2394 253d
000003b0: 4dc0 bc35 f548 0b3e 77f0 b83b 71c2 a7bd
000003c0: c83a 103c 125b 8ebd af8a 253b 32af 2bbf
000003d0: e022 e3bb 45ac 7b3e 42b4 e8bd 21d6 173e
000003e0: 927b debd 7f6c 20be 31c8 15be cf75 483c
000003f0: ee1a 023d f2d0 49bd bb48 b93c 1864 fcbc
0.007349491 -0.030883716 0.19499968 -0.050824806 -0.10782384 -0.116058424 0.044893462 0.0027135964
-0.006315878 0.0010025862 -0.032563675 -0.038124103 0.05958839 -0.14846176 -0.24284074 0.10044118
0.08510371 -0.095690735 -0.11656253 0.0077671693 0.07862758 0.0002838614 0.11276495 -0.041731633
0.029691732 -0.009953932 -0.27809113 0.11414263 0.01497104 -3.5073805e-05 -0.15972805 0.0019735254
-0.23824497 -0.15762559 -0.104371585 -0.026767908 0.24045843 0.016586363 0.06300906 -0.028706323
-0.0003011443 0.07300367 0.13675857 0.09518563 -0.028368436 -0.19764066 0.00219155 0.044458486
-0.1008381 -0.13222261 0.004433046 0.012712099 -0.01816723 0.32321337 -0.02075984 0.042476587
-0.01195274 0.036024094 -0.09741079 0.115485705 -1.32703e-06 -0.14170344 -0.1055429 -0.002094081
4.960805e-18 -0.06559109 0.027444711 3.2484044e-18 -0.008319424 -0.016319502 -0.044712737 4.3704956e-18
-0.031765807 -1.1319511e-12 -0.10228527 5.6223187e-19 4.492219e-18 0.016207408 -0.0031076001 -3.4517545e-06
-0.030620646 -0.0037185876 -0.050400987 -0.1010384 -0.0010510233 1.4113346e-18 0.003522275 -0.25327384
-0.0292185 -0.13352534 -0.068046875 -0.005819231 3.6260935e-18 -1.403565e-18 -0.05235666 0.016140798
-4.6027017e-13 0.08176928 2.6940685e-18 4.1004927e-18 -0.03548091 2.6747578e-18 -0.00038218198 -1.8642693e-11
-2.438209e-18 -0.03481939 0.021777166 1.3293752e-18 -6.6163155e-09 -2.7490348e-06 -1.6273206e-19 -0.14132197
-0.13943353 -0.031973347 2.6689642e-19 4.1743442e-19 7.294712e-20 -0.010849989 -0.20374334 0.028462954
0.0062493435 -0.055362925 -0.06931541 -0.0055618724 -3.917385e-10 -0.032593217 -0.0031764824 -2.4964784e-18
-0.0047783754 0.08076853 0.18967211 -0.26233935 -0.24386512 0.068188906 0.05977703 8.430217e-12
-0.1475884 0.051758807 -0.5969197 -1.6341941e-07 0.021638177 0.06580909 0.11364208 0.0510201
0.14352143 -0.19429472 -0.5782423 0.09431422 -0.22894733 -0.008521365 -0.44807068 -1.1475327
-0.74045426 -0.9556258 0.043109853 -0.0007836421 -0.13147162 2.5912375e-05 -0.52990067 -0.75001
0.050187685 -0.15972139 0.0003939899 -0.031765793 -0.27356333 0.033140957 0.123982124 2.5403475e-05
-2.5721251e-06 -0.17059383 0.100200206 -0.06464652 1.2453804e-06 -0.10637839 1.0666422e-07 0.024309024
-0.0022009814 -0.2484536 -7.256063e-10 0.03814275 -0.055283725 0.19552459 -0.22536446 -0.04639222
0.21061158 0.15667853 0.11990331 -0.055808794 -5.9502593e-08 -0.4803534 0.064787656 6.7033425e-06
-0.002503723 0.028068373 0.052013606 0.11872648 0.06065368 0.0006173161 0.15311527 -0.08263874
-0.023062676 -0.026045883 -0.03371708 0.0012976172 0.03570021 -0.14137278 0.17397632 0.04737823
-0.17650273 -0.14735097 -0.114819944 -0.19771929 0.059532113 0.07608585 -0.30741882 -0.0073047336
-0.28604805 0.16111788 0.12188488 0.088625915 0.019609129 -0.002675426 0.051204957 -0.15661846
-0.033616886 0.0043083355 -0.06494774 0.045907382 -0.025204428 0.051845104 0.09869762 -0.0008208345
-6.546361e-06 0.0154176755 -0.24144362 0.040424477 1.4063058e-06 0.1360205 0.0056439 -0.08191384
0.008803077 -0.06950964 0.0025259664 -0.670642 -0.0069316477 0.24577434 -0.113625064 0.14827777
-0.10863413 -0.15666388 -0.14627148 0.012235119 0.031763963 -0.04927153 0.022617688 -0.030809447

encoder_shared.4.bias f4 [36]
00000000: ea1e 553f 5fa0 2abe 9741 da3e 6787 0b3f
00000010: ab81 2abe 31e1 77bd 8f40 103f 9adb f53e
00000020: 7493 323f 623a e53d c681 4e3f 58a2 243f
00000030: 1898 14bd 9cf0 403f fbcb 813d d453 fd3c
00000040: ea5a 163f b14e 033f 237e 2d3e fbab 33be
00000050: e638 ad3e 3eb7 19ba ce2a c83e 13cd 023f
00000060: 4394 dc3e c1c0 ed3e fbf1 a03e 134e 583e
00000070: 01e5 813f 1572 f8bd b381 a1be 44e5 ebbc
00000080: 44db cdbd 3ceb 193f 204d 553f 474a aebd
0.83250296 -0.16662739 0.42628166 0.5450348 -0.16651027 -0.060517494 0.5634851 0.48019105
0.69756246 0.11192776 0.8066677 0.64310217 -0.03627786 0.7536714 0.06337734 0.030923761
0.58732474 0.5129195 0.16942649 -0.17546074 0.33832473 -0.0005863792 0.39095157 0.5109417
0.43081865 0.46436122 0.31434616 0.21123533 1.0148011 -0.121311344 -0.31544265 -0.028795846
-0.10051587 0.60124564 0.8332081 -0.08510261

encoder_shared.6.weight f4 [18, 36]
00000000: dbfa ac3d 6789 b73d f510 7b3e ebbc c33d
00000010: b186 af3d cb48 213d bde1 14bd 555f f63d
00000020: a817 2f3d 1947 5f3d ff0f 08bd 9714 49be
00000030: 0231 f4bb c55f 1e3e ecb7 b2bd b37c 50bc
00000040: 39f4 1ebe 3a10 103d 04f1 52b9 b830 06bd
00000050: 3dd9 d73d 2a39 a0ba b15f 453e 2333 afbd
00000060: fa49 4d3d ac83 0b3e c657 663e f74c 81bc
00000070: 87da 553e 2096 cf3c 141c 853d a261 a3bd
00000080: 9e8d 033d 7fc5 003d 8c71 01be c8df 87bd
00000090: 0789 263e 2e70 f6bd 78c4 6e3d ff42 b9bd
000000a0: 4dd2 d2bd fcb1 af3c d3e9 fb3b 5eee 023c
000000b0: 8a81 85bc 2ac1 683c 15bd 6f3e f24c 33be
000000c0: ecbf 67bb 144b bd3d 737e 28be 2aa4 4e3d
000000d0: 9f33 6dbe 3251 163e 81de 0d3e 78fc 9a3b
000000e0: 9672 84bd 2cad a8b7 1c93 843e 2c16 adbd
000000f0: 26ab 1e3d 6fd1 b7bc a5b8 48bd 6925 063e
00000100: 31e4 113d 1392 8abd dd0d 9d3d 3181 593d
00000110: 9871 8b3c 4d97 d23b d1d2 e13d e062 303d
00000120: 3289 503d 0804 05b8 29bd a23e ff44 44be
00000130: 6dd0 40b7 116f 50b1 0b1c 663d 1759 2dbd
00000140: effe a7bc 1103 c1be 179c 1dbe 5906 9c3d
00000150: 1192 3fbd 5ba5 bebd c4c9 c23c b2ae 0e3d
00000160: 3bb4 a0bd 306f 86bd 624f 993d 74b7 c2b1
00000170: 24b7 8b3e fdee 15a3 a83d fdbe c80d 8cbb
00000180: b8d8 183e f901 a4be 6871 2cbe a233 06bd
00000190: 5785 37be cf1b 023d 7a25 7cbb 9b0d 733c
000001a0: e99a dcb0 9a0a 39bd fcf4 7c3e 12da ee3c
000001b0: a430 3abc 2115 8aa2 837f 1eb3 74ea 2f3d
000001c0: 11b5 f9a2 04f9 e421 69f8 0dbe acb8 38b9
000001d0: dfde 6e3a 1a29 e7bd 8808 873d efa1 d0bd
000001e0: d550 dda2 66e3 0cbe 61d9 0abc d1d7 f1b8
000001f0: 9e3f 103c c2c0 dbbd 8def 6ca2 3bd4 9fa2
00000200: cbc8 79b7 eda6 631f f039 6f3c 1dbf 353d
00000210: 0b70 fab7 7994 abbd 3c0a 13be 7d55 0537
00000220: 4a44 2cbe f9fa 92a2 683a 4239 2c5b 0a23
00000230: 599c fca1 f0f7 b53b be66 97bd 91fc 4721
00000240: 4889 1f3e 721d a53a 02fe 93bf 6bd3 083e
00000250: e2b2 1abc f38f 14bd 0f06 07be 69c5 853e
00000260: 2837 8e3d 0804 73be 6af5 55be b9b2 0ebb
00000270: 8c49 22bc 28e3 973d bbac 7c3e 92fa 98bd
00000280: 9b96 933e a1f4 30be 3b96 1f3f c22d 98bd
00000290: 9124 abbd 5369 5db8 6c98 5fbd 5b58 92bd
000002a0: 21eb cabf e1f0 90bf 29b0 073c b08e ae3a
000002b0: 7c11 1a3e 7fac d93d f4d3 a23d 3b7d 693d
000002c0: 089b 85b9 5cfc 09be 55dc 15bd b3e3 5a3d
000002d0: 31b8 39bd f98f 24a2 9cd1 0abc 224f 1dbc
000002e0: e404 7b22 0e2d e322 758d a0bc baa2 3cba
000002f0: 8e2a 99bc 8925 5bbc e9f9 25bd 3d0e 07bd
00000300: e45e eba2 ba46 5abc 63c1 6ebb d021 b9bc
00000310: 7514 00bd 2e57 c8bc f3d6 3abc 3cce 18a3
00000320: dec8 76bb 2b0b b021 61f0 a2b9 a85c 3fbc
00000330: 9d8a 3dbc 29e4 4fbc 0c91 2cbb 0168 dfbc
00000340: 6031 edbc 34c6 e722 2955 a73b 35de 00a0
00000350: 6740 0b22 30c7 b8bc 4765 adbc fd87 8da2
00000360: 8702 d8bc 7150 ab37 134f 05bd 5c90 9f3d
00000370: d660 0fb7 764e 08b3 ed82 f83c 0ae0 d53d
00000380: d106 20be a40f 813d c43a 2fbe c96c 26be
00000390: bfb3 82a2 d7a3 3abe 75e1 97bd c258 70be
000003a0: 9983 32bd 33a0 17be 5866 6f3e 3969 1ab2
000003b0: ac60 2cbd fd59 11a3 de4a 42be ead7 193b
000003c0: a353 b53d 6d12 ad3c 98c7 c83c ec62 0c3e
000003d0: 0908 23be 46f4 1f35 339e 8c3c 8884 7b31
000003e0: 396d 03b3 d954 95bd eb18 05be efc6 d3b2
000003f0: 7341 de3d 9405 a1bb c39c ab3e f809 68bd
0.084462844 0.08961754 0.24518187 0.095575176 0.08570612 0.03937606 -0.036348093 0.12029902
0.04274717 0.054511163 -0.03321838 -0.1963676 -0.0074521312 0.1546622 -0.087264866 -0.012725043
-0.15522851 0.035171725 -0.00020116946 -0.032761306 0.10539482 -0.0012224067 0.19274785 -0.085546754
0.050119378 0.13624448 0.2249442 -0.01578377 0.20884143 0.02534014 0.06499496 -0.07977606
0.03211748 0.031438347 -0.12640971 -0.0663448 0.1626321 -0.12033115 0.058292836 -0.090459816
-0.10294018 0.021447174 0.007687786 0.0079914015 -0.01629712 0.01420621 0.23411973 -0.17509821
-0.0035362197 0.09242836 -0.16454487 0.050449528 -0.23164223 0.14679411 0.1385441 0.0047298037
-0.06467168 -2.01078e-05 0.25893486 -0.084514946 0.03873744 -0.022438733 -0.049004216 0.13100208
0.03561801 -0.06766143 0.0766866 0.053101722 0.01702194 0.006426728 0.11026538 0.043063045
0.05091209 -3.1713425e-05 0.31784943 -0.19166945 -1.149262e-05 -3.0331118e-09 0.056179088 -0.04232129
-0.020507304 -0.37697652 -0.15391575 0.07618398 -0.04677016 -0.09308883 0.02377785 0.03483457
-0.07846876 -0.06564176 0.07485844 -5.6669993e-09 0.27288163 -8.127914e-18 -0.49461102 -0.004274104
0.14926422 -0.32032755 -0.16840136 -0.032764085 -0.17921959 0.0317648 -0.0038474486 0.014834787
-1.6051135e-09 -0.045176126 0.24702829 0.029156718 -0.011364136 -3.7427346e-18 -3.6903213e-08 0.0429482
-6.7683297e-18 1.5515795e-18 -0.13864292 -0.00017616403 0.000911219 -0.112871364 0.06593424 -0.101871364
-5.9987754e-18 -0.1375862 -0.008474679 -0.000115319745 0.00880423 -0.10730125 -3.2110781e-18 -4.3321744e-18
-1.4888307e-05 4.8207198e-20 0.014601216 0.044371713 -2.9854496e-05 -0.08377928 -0.14359373 7.947322e-06
-0.16822925 -3.9839107e-18 0.0001852304 7.500301e-18 -1.7117569e-18 0.005553238 -0.073926434 6.775809e-19
0.15579712 0.0012597276 -1.1561892 0.133619 -0.009442063 -0.036270093 -0.13185905 0.26127174
0.06944114 -0.23732007 -0.208944 -0.0021774007 -0.00990523 0.074163735 0.24675266 -0.074696675
0.2882584 -0.17280819 0.6233861 -0.074306026 -0.08356584 -5.2788597e-05 -0.05458872 -0.07145759
-1.5853006 -1.132351 0.008281746 0.0013317671 0.15045732 0.10628604 0.07950583 0.057004195
-0.00025483244 -0.13475174 -0.036587078 0.053439807 -0.045341674 -2.2302363e-18 -0.008472826 -0.009601386
3.4019432e-18 6.1576177e-18 -0.019598702 -0.0007195879 -0.01869705 -0.013375648 -0.040521536 -0.032972563
-6.3797347e-18 -0.013322527 -0.0036431185 -0.02259913 -0.03126951 -0.024455633 -0.011403787 -8.283608e-18
-0.0037656347 1.192918e-18 -0.00031078144 -0.011679806 -0.0115686925 -0.012688675 -0.0026331572 -0.027271273
-0.028954208 6.282253e-18 0.0051065874 -1.0915544e-19 1.8872107e-18 -0.022555918 -0.021166457 -3.836211e-18
-0.026368393 2.0422247e-05 -0.032546114 0.07791206 -8.546011e-06 -3.1736327e-08 0.030335868 0.10443123
-0.156276 0.06301811 -0.17112261 -0.16252436 -3.5426884e-18 -0.18226562 -0.074160494 -0.23471358
-0.043582533 -0.14807205 0.23378885 -8.987905e-09 -0.04208438 -7.8795215e-18 -0.18973872 0.0023474642
0.08853843 0.02112695 0.024509236 0.1370961 -0.15921034 5.958758e-07 0.017165279 3.6600643e-09
-3.060015e-08 -0.07291574 -0.12997787 -2.4654097e-08 0.10852327 -0.004913995 0.33518037 -0.056650132

encoder_shared.6.bias f4 [18]
00000000: 45bc cb3e 912f d23e 5e2a 07be 87dc 32be
00000010: ae5c 093f 6141 d0bc 3a8a b0bd 22a7 bc3e
00000020: ff2b 083f 1e16 53bd 6ff5 543d 6af9 923e
00000030: 9866 17bf 363f ef3e 97a2 39be d00e e83e
00000040: 7876 eb3e de41 e93e
0.39792076 0.41051915 -0.13199756 -0.17466937 0.5365704 -0.0254218 -0.086201146 0.36846262
0.5319213 -0.051534764 0.051991876 0.28705913 -0.5914092 0.46727914 -0.1812843 0.453238
0.45988822 0.45558065

fc_mu.weight f4 [9, 18]
00000000: ab24 8a3a b5c6 373b 5d43 ca3b eaa9 c93c
00000010: 267a 4fbb 3948 8cbb 4e07 f5bc b006 96bb
00000020: 8c50 743b 5b7f 873b 516e e8b9 8cb0 aeb9
00000030: cacc cf3b 5091 023b a0a4 e83c 7c60 b83a
00000040: 4ebb 3cbb 473d ddbb 9725 4cbb 1b95 353b
00000050: 4650 79bb 8e01 da3c 0130 93bb 782b 933b
00000060: c513 263a 554d 6a3b 9146 2abb 67c6 e839
00000070: 4de3 77b9 c32d fbba e59b 063c 68f1 e83b
00000080: 77f4 9fbc 140a 9c3b 6d72 5eba beb1 14bc
00000090: 1f43 16bc da05 3d3a daae 8f3b 7b39 55bc
000000a0: 7274 3b3b f826 d3b9 0069 83b9 4a7c 6dbb
000000b0: eca4 163b 6005 5db8 f2b4 bebc a05d 753b
000000c0: f87e 1a3c b949 883a b156 a13d e7e7 07b9
000000d0: 5f1b bcba 3d70 e7bb 7947 2f3b 56d0 d53b
000000e0: 941c b8bb 6a64 aebd e54c 4ebb ee96 ff3a
000000f0: e89e 4d3c cbf2 f639 5f22 95bb 78d0 873b
00000100: b333 dcbc 0f44 0abc d7db 983b b764 9abb
00000110: e94e db3d 7ac4 2f3b d59a 9d3a b6d4 0fba
00000120: 85f5 103e 636c 903d 87fd bcbd 7308 1b3d
00000130: 41ca 54bd a891 a7bc faa9 95bb a9b9 a63e
00000140: 7874 b6bd 2e22 283e 7659 c93d 0452 3b3d
00000150: dc80 f03b 25a5 5abe 7110 aa3d 9d56 ddbe
00000160: e285 05be 04f8 4fbe 0875 d1bb d37a 12b9
00000170: c773 5a3b 0910 a53d 6365 a63a 2d99 673a
00000180: 6f04 8ebc 9418 893b 4e65 1e3b 3423 553b
00000190: 1ebf 953a b2f1 0a3c 8a06 81bb 90f5 2abb
000001a0: 765b 12be 7208 b1bb 2ca4 303b f8e8 e5b7
000001b0: ea42 14bc a467 013b c890 f43b fbc7 2e3d
000001c0: d43b afbb 528a 4fba 8499 80bb 4889 783a
000001d0: 7edf 353b 9e52 183b 1c71 07bd 7be8 0fba
000001e0: 1a10 09ba b9de 38bb 7dd2 c2bd e9bc 95bb
000001f0: a6ff 843a c9d9 c7bb cd15 52bd cf4a 04be
00000200: 5cb8 313b 8bfc 1e3e 1643 0a3f 70ca 17bb
00000210: 1ab6 1cbd 6a0e f53d 72b4 483e 8291 a33d
00000220: 7d3e 673e b082 77be d515 253e 0a6e f63d
00000230: c52e 92bd 6079 dc3c 4d4c a2be b064 3dbe
00000240: ed24 22bb bdea 713b 5d8e 073c 161a e1bd
00000250: 949e 1e3a e911 9ebb e5cb 4fbc 8239 d63a
00000260: 0c17 dbb9 721d 283b 77a1 2d3b c1f6 0ebb
00000270: 831c eeba 46ba 133b 11d4 bd3c eb46 c0bb
00000280: 7856 c43b 02a6 18bc
0.0010539492 0.0028042023 0.006172581 0.024617154 -0.00316585 -0.0042810705 -0.02991071 -0.004578434
0.0037279455 0.004135055 -0.0004433268 -0.00033319404 0.0063415514 0.0019923039 0.028398812 0.001406684
-0.0028798166 -0.0067516896 -0.0031150335 0.0027707282 -0.0038042231 0.02661207 -0.0044918065 0.004491266
0.00063353434 0.003575166 -0.0025982002 0.0004439831 -0.00023640432 -0.0019163418 0.008215879 0.007108856
-0.01952575 0.0047619436 -0.00084856787 -0.00907558 -0.009171276 0.000721065 0.0043848576 -0.013014193
0.0028603342 -0.0004027409 -0.00025064498 -0.0036237412 0.0022986485 -5.2695512e-05 -0.02327964 0.0037439838
0.009429686 0.0010397948 0.07877863 -0.00012960994 -0.0014351419 -0.0070629404 0.0026745482 0.0065250797
-0.005618641 -0.08515246 -0.0031478938 0.0019499937 0.012550093 0.0004710167 -0.0045512165 0.0041447245
-0.02688012 -0.008439078 0.004664879 -0.004711713 0.1070841 0.002681999 0.0012024293 -0.00054867135
0.14156158 0.07051923 -0.09228044 0.037849855 -0.051950697 -0.020455196 -0.004567382 0.32563522
-0.089089334 0.16419289 0.098315164 0.045732513 0.00733958 -0.2135206 0.08303917 -0.43230143
-0.13039353 -0.20309454 -0.006392125 -0.000139694 0.0033333169 0.08059699 0.001269501 0.00088347757
-0.017336098 0.004183838 0.002416927 0.0032522203 0.0011424755 0.008480476 -0.003937547 -0.0026086308
-0.14292702 -0.005402618 0.0026953323 -2.7407412e-05 -0.009049157 0.0019745613 0.0074635483 0.042671185
-0.0053477082 -0.00079170347 -0.0039245505 0.0009480906 0.002775162 0.0023242603 -0.033066854 -0.00054896594
-0.00052285346 -0.0028208925 -0.09512804 -0.004569639 0.001014699 -0.00609896 -0.051290322 -0.12919162
0.0027117943 0.15526025 0.54008615 -0.0023161434 -0.038259603 0.1196564 0.19600084 0.07986738
0.22582431 -0.24170947 0.1612161 0.12032707 -0.07137827 0.026913345 -0.31698838 -0.1849544
-0.0024741248 0.0036913597 0.008273688 -0.109913036 0.00060508517 -0.0048239124 -0.01268289 0.0016344043
-0.00041788106 0.0025652316 0.0026493946 -0.0021814557 -0.0018166456 0.0022541448 0.02317241 -0.005867829
0.005991753 -0.009316923

fc_mu.bias f4 [9]
00000000: 1cfa 87bc 0e38 193c 777c 0cbb eb64 2d3a
00000010: 7e84 503d 7ae7 963b d63e 883b 6bdb 52bd
00000020: 55e4 093b
-0.016598754 0.009351743 -0.0021436492 0.0006614464 0.050907604 0.004605231 0.0041578813 -0.051478785
0.0021040638

fc_var.weight f4 [9, 18]
00000000: e037 b4bb 2d46 fe39 2889 233a 39b6 d13d
00000010: d25f 94ba ea39 9439 c93d 41bc 7a5d bc3a
00000020: 0489 5dbc 509a 37bb f313 113d 01ec 6d3b
00000030: 9fa7 1e3b b0ba d2bb 84c4 1bbc 03f9 60bb
00000040: 755e cdbb 0053 003a 89cb 3abc c54b 9bbb
00000050: 1dd1 c9ba 5eec d2bc 65d8 95bb 7961 803a
00000060: 27e3 e93b 9c29 293b 8e19 22bc 6af0 b6ba
00000070: 8f8a f9b8 6cbc 0d3c 6764 cfbb 0ed8 37bb
00000080: f26e aa3d b031 31ba eada 69bb dc2b 613b
00000090: 437e f6bb e823 e5ba 12ca efba 1651 17be
000000a0: 9d7d c8b9 8512 8939 a386 ea3b 1e3c 6b3b
000000b0: 2c97 97bb b76a 76bb ac7a e537 dde6 023b
000000c0: 4830 90bb 677c a3bb 3059 053e 1350 813a
000000d0: 9365 09bc fb74 863b f8f4 07bc 5631 21bc
000000e0: aaf7 083c 51be 7cbd 9b1d cf3b e613 65b8
000000f0: 26e8 1abc 7432 233c b607 18bc 4c61 02bc
00000100: 20c3 9b38 d829 13b9 0e8e c63a 420e 0dba
00000110: c400 59bc 7135 28bb fe67 dfbb 0286 bb3a
00000120: 5b8d 67bf 6488 bebe fa3f b0be 90d5 febd
00000130: 1731 c4be 534d 0ebd 4580 e03e ce45 ee3e
00000140: 8226 94bf 702c b33d 1a95 d53c ede7 943e
00000150: be76 34be 2a13 39bf 19fd 0b3e 5da1 e73e
00000160: dd1c eebe 9fc9 ae3e 76a8 7dbb 30df aebb
00000170: f934 daba e48d 703d ac79 1bbc add2 0d3a
00000180: 9523 aebb ce96 80bb 3fd6 ffbb 42db 14bb
00000190: af21 d53a 7ab0 cf39 dfd6 0ebc a11b 23bb
000001a0: 5d6e 25bd ed68 96ba 9b8d 01bb 742e 163c
000001b0: 2a93 8ebb fa7a 36bb 00c9 05bb dffb ee3c
000001c0: 43c6 bebb 47a3 6e39 b638 663c 726b e13a
000001d0: 04a9 52bc e4d7 22bb 7bec f6bb 9ded 843a
000001e0: 5c7e 183b 8fa9 263a b473 123d b726 483b
000001f0: f962 f1bb f9ce f2ba 143b a0be 2e9d 79bf
00000200: c3bc e23e d488 7f3d 6ed1 943e 5fa2 603c
00000210: 8f3e 453d 4252 053e 2b76 74bf de0d abbe
00000220: 9b70 9dbd fbb3 223e 3cc1 853f dd46 08bf
00000230: 4ae6 b03d 592a 39bd fb68 00bf 8f57 e3bd
00000240: 5a96 ffbb 9f96 e3bb 4026 0fbc 03c0 813d
00000250: 6479 81bb b656 fbb8 cccb 2ebc 6915 7d3b
00000260: 69b5 e9bb 42e7 5e3b 5ea2 da3a 4751 d53b
00000270: 64d3 8b3b b6e7 a6bb 70a0 0e3d eb3f 03bc
00000280: c81b b3bb 35da 83ba
-0.005499825 0.0004849894 0.00062383944 0.10239834 -0.0011320061 0.0002827191 -0.011794516 0.001437112
-0.013521437 -0.0028015561 0.035419416 0.0036304 0.0024208797 -0.0064309463 -0.009507302 -0.003432811
-0.0062673637 0.00048951805 -0.011401066 -0.004739257 -0.0015397404 -0.025747474 -0.0045729154 0.0009794674
0.0071376744 0.0025812155 -0.009893788 -0.0013957147 -0.00011899054 0.00865088 -0.0063291076 -0.0028052363
0.083219424 -0.0006759418 -0.0035683461 0.0034358418 -0.007522376 -0.0017482014 -0.0018294475 -0.14777026
-0.00038240562 0.00026144474 0.007157163 0.0035893987 -0.0046261754 -0.0037600228 2.735605e-05 0.001997403
-0.004400287 -0.004989195 0.13022304 0.0009865783 -0.008386034 0.0041033006 -0.008298151 -0.009838423
0.008359829 -0.061704937 0.006320668 -5.4616386e-05 -0.009454763 0.009960759 -0.009279182 -0.007957768
7.427321e-05 -0.000140346 0.0015148537 -0.0005380848 -0.013244811 -0.002566662 -0.0068178168 0.0014306905
-0.90450066 -0.37213433 -0.3442381 -0.124430776 -0.38318703 -0.03474171 0.43847862 0.46537632
-1.1574252 0.0874871 0.026072074 0.29083195 -0.17623422 -0.7229487 0.13670768 0.45240298
-0.46506396 0.341382 -0.0038705147 -0.0053366646 -0.0016647867 0.058729067 -0.009489458 0.0005410116
-0.0053143003 -0.0039242273 -0.0078075225 -0.0022713696 0.0016260649 0.00039613602 -0.008718221 -0.0024888294
-0.040388454 -0.0011475362 -0.0019768241 0.009166349 -0.0043510394 -0.0027844296 -0.0020413995 0.029172836
-0.0058219745 0.00022758274 0.014051607 0.0017198159 -0.012857679 -0.002484792 -0.007535515 0.0010141615
0.0023268675 0.00063576637 0.035754874 0.0030540654 -0.007366535 -0.0018524817 -0.31295073 -0.9750546
0.4428464 0.06238635 0.29066032 0.013710587 0.048155364 0.1301966 -0.9549281 -0.33409017
-0.076874934 0.1588897 1.0449595 -0.5323313 0.08637674 -0.0452064 -0.5016019 -0.11100685
-0.0077999057 -0.0069454457 -0.008737147 0.063354515 -0.0039512385 -0.00011984764 -0.010668706 0.0038617498
-0.0071322215 0.0034012352 0.0016680469 0.006509933 0.004267143 -0.00509354 0.034820974 -0.008010845
-0.0054659583 -0.0010059538

fc_var.bias f4 [9]
00000000: fcbf a13c 00fd e93c 97da 793c 397f 973c
00000010: 7718 f6bf d63a b43c 1367 943c 484c fdbf
00000020: 5425 b93c
0.019744866 0.028563023 0.01524987 0.018493282 -1.9226216 0.022000711 0.018115556 -1.9788904
0.022600807

decoder.0.weight f4 [18, 9]
00000000: affd b3bb 05b4 d4bb 5c3f 0cbc a440 263b
00000010: f255 0fbf 57bf 64bc 63ce 023b 6862 663f
00000020: 0a4c 22bc 89ed 6a3c 4385 eb3b d6f9 f53a
00000030: d347 033b a909 e23e 4710 5cbb 703a fbb9
00000040: b976 24bf 3dca 063c c839 77ba 2ac6 c73b
00000050: 9da7 1abc 2885 383b e79d 1cbf 0e48 e839
00000060: 9628 9fbb 365e 81bb fd0b 07bb 2a5c 8b3b
00000070: b7b6 043c 5bf0 9a3b b96c 613b 069b 30bf
00000080: f21b c8bb c38a dfbb 9a73 27bf 9481 12bc
00000090: 2897 88bb 32f7 33bc 9ab3 28bc f684 02bb
000000a0: 2e08 0c3f 8df3 92bc 4f8b 313a 67f2 ee3e
000000b0: 532d 183c 979c 07bc ca08 8c3b 99d8 e2bb
000000c0: 1b57 133c fb25 88bd f4d4 3e3a 11ee 0e3c
000000d0: a694 48be ef60 3ebc c15b 7f3b 8096 5cbb
000000e0: 8bb5 e1bb e2db 00bc 63ce fabc 0734 e4bc
000000f0: 9f15 1d3c 0e6b 0abf 6c9e 9c3a 387c 1a3c
00000100: 1de1 7a3c a42a 513b a696 ba3b edae 18bf
00000110: 6a23 14bc 8785 b3ba f37d 803d 1a32 83bb
00000120: 41d6 b7bc d132 a9bc ca2e 97bb c4ea e83b
00000130: 420f 6d3e 4e43 833c 9f02 b13c 5520 a63e
00000140: 0c62 e83c 571c f03a 5bea efbb 2ec0 873b
00000150: 14d7 35bc 20b9 a4be 1bcd 20bb bb8f 783b
00000160: c847 8abf 5c9b 563a bac1 3dbc d727 673c
00000170: 119c eaba 6be2 49bb 0b25 853f 1849 c03a
00000180: 4b50 873a 74b7 8cbd fe26 a93b f673 0d3c
00000190: 96a2 2b3b cb85 e6ba 8264 b23a 7ba4 163f
000001a0: 40d6 713b e541 05bb e76d 4c3f 4543 af3b
000001b0: 22e4 47b9 4631 df3b aeaa 77bb e810 12bb
000001c0: 540d 4bbf a7e7 59bb 1fb2 57bb 09ab c23e
000001d0: a804 af3b 7343 62ba 9f27 e33a 2608 863b
000001e0: d648 c8bb 546f 4dbf 38d8 bdba 701a 9cbb
000001f0: 7be1 90bd c77d 083c c305 633c 2a3d bfba
00000200: 57c1 3dbc 0a03 663b b2fc 493f 3694 2b3c
00000210: aa09 c0ba 2470 10bf ba3b 81bb d86e f2ba
00000220: b80a 7bbb 3bfb b6ba 464a ea3b 93fd 313f
00000230: ff75 cfbb c323 a03b 2536 2fbf a0e4 3c3a
00000240: 18a1 0e3b 4c46 7bbb 7a92 073b a172 dd3a
00000250: 2b46 e2be fb7f 14bc 9ced 563b 9afd 5bbf
00000260: 3d3b 97bb 0c41 81bc 30b7 763b 599e e93a
00000270: 076a 00bb 866f 2fbf 4171 3ebb 01fe 173c
00000280: 8200 673e 2da6 36bc
-0.005492888 -0.0064911866 -0.008560028 0.0025368119 -0.5599052 -0.013961635 0.0019959442 0.89993906
-0.009905824 0.014338859 0.007187517 0.0018766474 0.0020031824 0.44147995 -0.0033579038 -0.0004791799
-0.64243656 0.008226928 -0.00094309123 0.006096621 -0.009439376 0.002815554 -0.6117844 0.00044304173
-0.004857133 -0.0039479984 -0.002060651 0.00425293 0.008100203 0.0047283596 0.003439708 -0.68986547
-0.006106847 -0.0068219616 -0.6541077 -0.008942027 -0.00416841 -0.010984229 -0.010296727 -0.0019915677
0.5469998 -0.0179384 0.0006772773 0.46669313 0.00928815 -0.00827708 0.0042735087 -0.006922793
0.0089929355 -0.06647869 0.00072796573 0.008723752 -0.19587955 -0.01161979 0.0038964602 -0.003365904
-0.0068880967 -0.007864924 -0.030615991 -0.02785684 0.009587674 -0.540696 0.0011949069 0.00942903
0.01531246 0.0031916285 0.005694228 -0.59641916 -0.0090416465 -0.001369641 0.06274023 -0.0040037753
-0.022441031 -0.020654114 -0.004613732 0.0071080644 0.23150352 0.016023304 0.021607695 0.32446542
0.028367065 0.0018318993 -0.0073216385 0.0041427827 -0.011098642 -0.3217249 -0.0024536315 0.0037927467
-1.0803156 0.00081866025 -0.011581833 0.01410862 -0.0017899295 -0.0030805122 1.040193 0.0014670221
0.0010323612 -0.068709284 0.005162119 0.008633604 0.0026189438 -0.0017587481 0.0013610276 0.5884473
0.0036901385 -0.0020333466 0.798552 0.0053485953 -0.00019063105 0.006811294 -0.0037790942 -0.002228791
-0.7931721 -0.0033249648 -0.0032912565 0.38021114 0.0053411312 -0.00086312665 0.0017330534 0.004090327
-0.0061121983 -0.80248 -0.0014483994 -0.004763894 -0.07074257 0.008330769 0.013856354 -0.0014590372
-0.01158174 0.0035097026 0.7890121 0.010472348 -0.0014651318 -0.56421113 -0.0039438875 -0.0018496169
-0.003830595 -0.001396037 0.0071499674 0.6952755 -0.006331205 0.0048870756 -0.68441993 0.00072056986
0.00217635 -0.003834146 0.0020686672 0.0016895124 -0.4419416 -0.009063716 0.0032795435 -0.8593384
-0.004615216 -0.015778087 0.003764581 0.001782368 -0.0019594447 -0.68529546 -0.0029059204 0.009276868
0.22558787 -0.011148018

decoder.0.bias f4 [18]
00000000: 81fb bdbc fa76 6a3d 409e 203d 953d ea3c
00000010: d435 28bd 646b 663e 1850 2cbe 93df 2dbf
00000020: e11f 12bf 4d4f 68be 034d 833d 6f3f d2bc
00000030: 09b2 133e 4f94 8d3e ed59 a6bd 9252 9e3d
00000040: 360c 833e 5a8e 7a3e
-0.023191215 0.05724237 0.03921342 0.028593818 -0.04106696 0.22501904 -0.16827428 -0.6791927
-0.57079893 -0.22686501 0.06411173 -0.025665013 0.14423384 0.27652213 -0.08122621 0.07730593
0.25595254 0.24468365
