Conv_Autoencoder.pth (torch, 846561 bytes, 11 tensors)

encoder.0.weight f4 [16, 1, 3, 3]
000000 59 1d 4e 3e 84 0a 2f 3e d2 92 43 bd 82 5d 14 3e
       0.20128383 0.17093855 -0.04774744 0.14488795
000010 3b 36 d2 3d 7c 10 b2 3e f0 40 c7 be 7b 14 90 be
       0.1026425 0.34778202 -0.3891673 -0.28140625
000020 8c d0 8e 3e 17 3f 03 bf 6e 8c c4 be 51 84 f7 bf
       0.27893484 -0.5126814 -0.3838839 -1.9337255
000030 88 ac 1b bf 3a 0b 04 3f c6 26 c3 be dc 55 b1 bf
       -0.60810137 0.5157963 -0.3811552 -1.3854327
000040 1f ec a8 be 7a 7d fa be b8 b6 57 3e fb 73 c9 be
       -0.32992646 -0.48923856 0.21065795 -0.393463
000050 f3 04 00 3e 85 2f 39 bf 5b b8 82 be a7 85 9e 3e
       0.12501888 -0.72338134 -0.25531277 0.30961344
000060 1e 06 2e 3e 0b c8 0d 3f 4d fe 47 bc a5 94 40 3e
       0.16994521 0.55383366 -0.012206626 0.18806703
000070 6b 2b 9c 3e c7 77 c4 be 66 9c 54 bd b8 6b 0a 3f
       0.30501875 -0.38372633 -0.051906966 0.54070616
000080 2d 20 6f be 05 7a f4 be 8a ba 9c 3e 72 b5 65 bd
       -0.23352118 -0.47749344 0.30611068 -0.056081243
000090 9d f1 9f bc 72 d2 bd 3d b1 ad 9b 3d 62 2c f1 bd
       -0.01952439 0.09268655 0.076014884 -0.117760435
0000a0 58 e2 07 3f 23 6c 9d 3e 57 b4 00 be 24 d0 ee 3e
       0.5307975 0.30746564 -0.12568794 0.46643174
0000b0 fb 30 4d be 47 56 35 bf 82 b7 a0 3d 92 ba 2e 3e
       -0.20038216 -0.70834774 0.07847501 0.17063358
0000c0 37 e8 2b 3e 9e 2e c7 3e b8 53 d4 3e e6 11 86 3d
       0.16787802 0.38902754 0.41470122 0.065463826
0000d0 56 af 33 3d 87 ce 14 be bb f8 5e 3e d9 4b cf 3d
       0.043868385 -0.14531909 0.2177457 0.10121889
0000e0 10 f3 c7 bd e4 6f fd 3c c0 0d 06 3e bf e5 06 3e
       -0.09763157 0.030937143 0.13091183 0.13173579
0000f0 b3 dc e3 3e bf 01 bf 3d 6f c1 9b 3d e3 99 5f be
       0.44504318 0.09326505 0.07605254 -0.21836047
000100 6d e8 cf 3d 94 08 1a 3f 9f 07 19 bf 46 05 1b bf
       0.101517536 0.6016934 -0.59777254 -0.6055492
000110 4f c1 90 3d a9 5c 41 be 98 0a 26 be fc ad 9e be
       0.07068121 -0.18883003 -0.16214979 -0.30992115
000120 0d bb 91 bd d7 7a 1d bf d9 0f 21 3c 40 e1 48 be
       -0.07115755 -0.61515564 0.0098304385 -0.19617176
000130 c4 08 28 bf 56 d6 cc 3e ba f7 64 be a4 a7 0a bf
       -0.65638375 0.40007275 -0.22360125 -0.5416205
000140 05 d1 c0 3e 77 ae a2 3d d7 c9 a1 be 03 22 55 be
       0.3765947 0.07943433 -0.31599304 -0.20813756
000150 c7 8f 05 be f0 92 70 be fc 47 9f be c4 59 24 be
       -0.13043128 -0.23493552 -0.31109607 -0.16049868
000160 ba 9c e4 be 65 79 0f be d9 4d a9 3d 05 43 6e bd
       -0.44650823 -0.14011152 0.082668014 -0.058169384
000170 7f 7d 00 bf 66 a6 02 3f 55 1a db 3d 63 97 c3 be
       -0.5019149 0.51035154 0.10698382 -0.38201436
000180 92 60 b4 3d a1 b9 43 be 22 41 ee be 66 e1 d0 3d
       0.08807482 -0.1911378 -0.46534067 0.10199241
000190 cd 6a 2a bf be 8e 11 bf 80 37 80 3e ce a6 0a bf
       -0.66569215 -0.5685843 0.25042343 -0.54160774
0001a0 a7 97 93 be 6d b5 df 3e 38 3c 4f 3e 52 a3 5e be
       -0.2882664 0.43693104 0.20237815 -0.2174199
0001b0 f0 91 d8 3e 0c 1f 80 3e 0f da cd 3e 31 c6 b8 3e
       0.4229884 0.25023687 0.40205428 0.36088708
0001c0 19 05 02 be 3f 40 02 bf f4 ce 5a 3d a1 cc 97 be
       -0.12697257 -0.5087928 0.053420022 -0.29648307
0001d0 04 e2 c6 bc a5 15 00 bf f6 92 ab be 27 8e b2 bd
       -0.024277695 -0.50033027 -0.3351056 -0.0871852
0001e0 e0 21 56 3e 3c 32 86 3d d1 3b 81 bb dd 50 cb 3e
       0.2091136 0.0655255 -0.0039438982 0.3971013
0001f0 28 97 7c 3b 36 4b c2 bc 77 06 20 bd ef bc a9 be
       0.0038542245 -0.023717504 -0.039068665 -0.33151957
000200 51 16 8f be b0 07 a5 3e ee e2 57 3e a7 ae 35 be
       -0.27946714 0.32232428 0.2108266 -0.17742406
000210 b1 4f e3 bc b6 07 95 3e 60 dc 96 3e b9 38 e3 bd
       -0.02774796 0.29107445 0.29465008 -0.11094803
000220 ca da 81 3e dc d3 f5 bc 8d 18 56 3e ef 4a 72 3e
       0.25362235 -0.030008249 0.20907803 0.23661397
000230 32 0b 5f be ae 30 a9 3e f4 30 dc bd 26 b5 8b be
       -0.21781614 0.33044952 -0.107515246 -0.27286643

encoder.0.bias f4 [16]
000000 56 d1 f0 ba 98 ab cb 3e 85 65 7b 3c 85 1c 84 bb
       -0.0018372934 0.39779353 0.015344028 -0.00403172
000010 86 cc 81 bc 38 fa d0 3a cd 54 ca ba 81 3d 9f 3e
       -0.015844595 0.0015943712 -0.001543665 0.3110161
000020 21 51 81 3e b0 1d e5 3e c3 67 f5 3c ad 2e 2a 3e
       0.2525721 0.44749212 0.029956704 0.16619368
000030 2e cd 10 3b 79 b4 87 3e 13 38 d3 ba 53 ae be ba
       0.0022094953 0.26504877 -0.0016114734 -0.0014547802

encoder.2.weight f4 [32, 16, 3, 3]
000000 a0 8f 19 be 7e c3 4d bd 7a c1 c3 bd 27 f2 de 3d
       -0.14996195 -0.050235264 -0.09558387 0.10886031
000010 c9 d7 09 3e 86 2c 85 bd cd 33 b0 3d 89 3b 37 3c
       0.13461222 -0.06502633 0.0860363 0.011183628
000020 d8 61 93 bd 06 79 80 3e 09 05 66 be e5 6f 22 bb
       -0.071963966 0.25092334 -0.22462858 -0.0024785933
000030 12 df 39 3e ec 8d f8 bf ac 27 67 3e 43 73 a4 3e
       0.18151501 -1.9418311 0.22573727 0.32119188
000040 3c 4b 4e 3e 8f 91 09 bb 99 e2 1e be 7e 9e 54 be
       0.20145887 -0.00209913 -0.15516128 -0.20763585
000050 9f 03 3c be 10 03 92 be a2 4d 98 be 10 5e 17 be
       -0.18360756 -0.28517962 -0.2974673 -0.14781976
000060 1d df eb be 94 aa 8b be d7 87 46 3e ab 32 ca bd
       -0.4606866 -0.27278578 0.19387756 -0.098729454
000070 65 6d d6 bc f2 05 2c be 60 45 ec bd 7c 84 94 3d
       -0.02617521 -0.16799143 -0.1153667 0.07251832
000080 ed f4 31 3e 50 68 db b9 90 75 e4 bd 3a a6 10 be
       0.17378588 -0.00041848654 -0.11155236 -0.1412591
000090 58 72 1c be 9c 05 c9 bd 0c 26 f0 bd fe 3e fa 3e
       -0.15277994 -0.09815523 -0.11726007 0.48876184
0000a0 56 64 c8 3e 47 45 3e be df cb 2e 3e a5 b4 a5 bd
       0.3913905 -0.18581115 0.17069958 -0.08091096
0000b0 bb 8b b6 bc 15 21 35 bc 8d c4 fb 3c 9b 73 58 bd
       -0.022283426 -0.011055251 0.030733371 -0.052844625
0000c0 17 37 42 3e 09 31 5d 3e 4b 42 b3 3c 47 87 21 bd
       0.18966328 0.21600737 0.021882197 -0.03943565
0000d0 54 95 f6 38 2e fb 89 bd e3 b1 99 bd 85 05 d1 3d
       0.000117580086 -0.06737362 -0.07504632 0.10206131
0000e0 6b 18 f3 bc cb 7b 34 3e 68 04 f9 3e 29 f6 ab 3d
       -0.02967473 0.17625348 0.48636174 0.08396561
0000f0 3d dd 14 bd 47 89 ab 3d e7 2d 56 bd 72 fe 3c bd
       -0.0363438 0.08375793 -0.05228987 -0.046141095
000100 53 8b 89 3e 9e 2e 9a 3e 7d 54 eb 3d 7e 76 12 3e
       0.26864108 0.3011369 0.11490724 0.14303014
000110 d0 aa 2f 3e e5 ad cc 3d a2 99 dd bc 51 24 cc bc
       0.17155004 0.09994105 -0.027050797 -0.02491966
000120 b3 7c c8 bd 19 ab 26 bb 03 5f 5f 3e 74 c4 cb 3d
       -0.097894095 -0.0025431572 0.21813588 0.0994958
000130 be ee 14 3d 6a d3 66 3e a1 b1 30 bc 5b f0 a1 3d
       0.036360495 0.22541586 -0.0107845375 0.07907172
000140 e7 14 40 3d 90 51 be 3e 67 07 83 3e 84 eb b6 3d
       0.046894934 0.37171602 0.25591585 0.0893164
000150 90 28 82 3e c5 08 c5 bd 45 1d 3e 3e 70 15 5c 3e
       0.25421572 -0.09620813 0.18565853 0.21492553
000160 97 31 82 3e 5b f1 ad be fd 77 63 bd ec 3b 94 bd
       0.2542846 -0.33973202 -0.05553435 -0.07237992
000170 50 d5 3a 3e 21 7c 9c bd 85 2b 92 bc 62 48 90 3d
       0.18245435 -0.07640863 -0.017843017 0.07045056
000180 f5 a5 4c be 21 92 ed be 0b 32 83 3d d6 a2 a2 be
       -0.19985183 -0.4640055 0.06406029 -0.3176486
000190 e6 c2 9d be 47 5e 45 be 54 c8 a6 bd 1f a8 19 bd
       -0.30812758 -0.19274245 -0.08143678 -0.03751385
0001a0 37 ff 2e bd d3 d0 04 3e 50 ab 53 be 97 8f b1 be
       -0.04272386 0.12970285 -0.2067082 -0.34679863
0001b0 cf 5a a2 bd 1d cf c6 3d 04 ff a0 bd 74 2a c2 bd
       -0.079274766 0.097074725 -0.0786114 -0.094807535
0001c0 e1 b8 26 3e 4f 62 fb 3d 79 34 60 3e ce a6 aa 3e
       0.16281463 0.1227461 0.21895017 0.33330387
0001d0 5b dd 46 3d 66 1b 01 bd 66 d0 07 bd 62 44 d4 bd
       0.048550945 -0.03152027 -0.03315773 -0.103646055
0001e0 b8 a0 8f be c3 74 09 bf 3f fc 70 be ee 74 a2 be
       -0.28052306 -0.5369379 -0.23533724 -0.31729835
0001f0 be bd 37 be bf 4d 09 be 63 c2 d8 bd 2b 95 5b bd
       -0.17943475 -0.13408564 -0.10583951 -0.053609055
000200 b1 b7 d5 bd 5f 83 23 3e 38 a5 8f 3b 26 9d 97 bd
       -0.10435427 0.15968083 0.0043837093 -0.074030206
000210 3e b9 c2 be 47 3f 89 be 5a e6 89 3d 89 95 30 be
       -0.38031954 -0.2680609 0.06733389 -0.17244543
000220 6f a2 17 be 77 c0 49 bd 80 5c bc be a5 e5 91 3e
       -0.14808057 -0.049255814 -0.36789322 0.28495517
000230 20 3a 44 bd 05 01 1b be 87 cf 85 be f6 fc a4 bd
       -0.047906995 -0.15137108 -0.26134893 -0.08056061
000240 db 84 8b be ed a6 30 bf ad b6 55 bf 6b 8a 47 3e
       -0.27249798 -0.6900471 -0.83481866 0.19486396
000250 ac d3 e4 3d e0 ec 23 bf 0a 8e 65 bd ca ce c9 bc
       0.11173186 -0.6403332 -0.056043662 -0.024634738
000260 92 50 4c be 81 e4 22 be 06 98 22 3e b2 e5 3e 3e
       -0.1995261 -0.1590748 0.15878305 0.1864231
000270 54 74 33 bf b2 7f 31 3e 5d d1 06 3e 0b 38 31 be
       -0.7009938 0.17333868 0.13165803 -0.17306535
000280 58 07 fe be d9 6e 0c 3e 75 42 17 be 0e 51 37 bf
       -0.49614978 0.1371416 -0.14771445 -0.71608055
000290 e8 c5 d7 be b2 e6 aa bc a9 9b dd be 9e 40 16 bf
       -0.42143178 -0.020861957 -0.43282822 -0.5869235
0002a0 e0 93 f6 bc 71 b9 33 be b1 3d 14 bf 70 06 82 3e
       -0.03009981 -0.17551209 -0.57906634 0.25395536
0002b0 3e 3d 9f be 4d 22 1c be 92 8c 0f 3f 09 db 84 3e
       -0.31101412 -0.1524746 0.5607387 0.2594836
0002c0 2f 90 f7 be 4f e2 93 3e c8 40 08 3d bd e9 b3 3e
       -0.4835219 0.28883597 0.033264905 0.35139266
0002d0 ee c4 6b 3e 35 20 8f bd 5c ab 2b bf fd e0 0b 3f
       0.23024341 -0.06988565 -0.6705835 0.5464018
0002e0 1f ba 9f bd 62 73 77 be 28 b9 53 3e 1f 01 8d 3e
       -0.07799172 -0.24165109 0.206761 0.27539918
0002f0 d5 b0 ff bc 70 1d 68 3e f2 f4 66 be ff 5c 81 bf
       -0.03121225 0.2266748 -0.22554377 -1.0106505
000300 fc 35 25 3e 7d 84 f4 be f9 36 b1 be 9e fe cb bc
       0.16133875 -0.4775733 -0.34612253 -0.024901684
000310 86 1a 5a be 90 e0 1a bf 80 b9 1c 3d 29 35 4f be
       -0.2129918 -0.60498905 0.038262844 -0.20235123
000320 cc ff 9b be 57 da c7 3d 20 bf e9 bd f9 3c 08 be
       -0.30468595 0.09758442 -0.11413407 -0.13304509
000330 9e 90 69 be 3b 26 fa 3d 8d b3 a2 3d f2 12 ce 3e
       -0.22809073 0.12214323 0.07944403 0.4024883
000340 04 c7 61 be 01 8a 9b be 89 d4 20 3f 09 07 25 be
       -0.22048575 -0.30378726 0.628243 -0.16115965
000350 3e 16 a9 bd 1f 63 8c 3e 53 b3 c1 3c 3b f0 09 3d
       -0.082561955 0.27419373 0.023645079 0.033676367
000360 1a 9f 84 3e d1 cd 5b 3d e1 59 ec bd c8 56 7e 3d
       0.25902635 0.05366308 -0.115405805 0.06209448
000370 66 3c 95 be 6c b1 af bd e3 0a 9f 3e 49 eb 57 be
       -0.29147643 -0.085787624 0.31062993 -0.21085848
000380 40 27 da be 3d b6 e2 ba b8 d1 d2 3e aa 98 5a bd
       -0.4260807 -0.0017296743 0.41175628 -0.053368248
000390 15 cb 03 bf 90 3b d9 3d 75 b7 23 3c 77 a2 e7 bc
       -0.51481754 0.10607064 0.00999247 -0.028275711
0003a0 7a 73 49 be ea 07 df 3c 95 af ad 3e ae bf 24 bd
       -0.19672957 0.027225453 0.3392302 -0.040221862
0003b0 8c f9 20 3f 7a 17 0f 3f 09 eb b0 3c 99 9f 75 be
       0.6288078 0.558952 0.021596448 -0.23986663
0003c0 b1 2f 00 3f 35 00 61 3e e5 2a 7b be 74 2d c8 3e
       0.5007277 0.21972735 -0.24528082 0.39097178
0003d0 b5 82 e4 3e 68 5b 9c 3d ea f7 9a 3e 7f d0 f7 3e
       0.44630972 0.07634622 0.30267268 0.48401257
0003e0 75 5d 75 3e 07 75 8c be 00 84 26 3f 03 85 7a 3e
       0.23961432 -0.27433035 0.65045166 0.24464802
0003f0 8c c2 0f 3c 78 4f 28 3d 42 77 86 bf 80 39 35 be
       0.008774411 0.041091412 -1.0505145 -0.17697716

encoder.2.bias f4 [32]
000000 c8 89 09 bd 64 fb 59 bc 6e e0 50 be e2 19 04 bc
       -0.033578664 -0.013304565 -0.20398113 -0.008062812
000010 a3 28 9b 3d 25 9a be bd 6f 28 53 be b4 d9 81 bd
       0.0757611 -0.093067445 -0.20620893 -0.06340352
000020 17 ea d7 bc c2 10 ea bd 64 f4 4b 3d 81 54 18 3e
       -0.02635674 -0.114289775 0.049793616 0.14875986
000030 2f 7f 18 be 0e 2b 36 bc f2 db 92 3d c9 fd 17 be
       -0.14892267 -0.0111186635 0.071708575 -0.14842905
000040 a2 c6 d9 3d 35 61 d9 bd b1 46 f9 3c 01 64 51 be
       0.10633589 -0.10614244 0.030429216 -0.20448305
000050 32 70 b4 bd 9d 79 03 bc ef b4 4a bd 55 4e b1 bd
       -0.08810462 -0.0080246 -0.049488958 -0.08657519
000060 1b 68 c6 3d 66 9f 9e bd 1d 14 12 be 61 b1 48 bd
       0.09687825 -0.077452466 -0.14265485 -0.048997287
000070 cc d9 08 be da 48 65 bd 8e 32 14 3d bc 3c f7 bd
       -0.13364333 -0.05597768 0.036181025 -0.12072131

encoder.4.weight f4 [64, 32, 7, 7]
000000 49 02 3b 2c a6 c9 14 2f 0c 73 7b 32 31 45 0a bb
       2.6575567e-12 1.3532162e-10 1.46362815e-08 -0.002109837
000010 cf f5 02 35 57 23 ae bb bb b8 c2 37 d5 46 79 2c
       4.878647e-07 -0.0053142714 2.3212624e-05 3.5424348e-12
000020 b5 a4 6b bd fc 44 b8 bd 08 6c 91 3d af 26 17 3d
       -0.057530124 -0.08997533 0.071006835 0.036902126
000030 50 b4 0f 3e 39 e3 a1 3d 51 a4 d1 3c 90 6b a5 bd
       0.14033628 0.079046674 0.025591047 -0.080771565
000040 fa 0e 8a 3d d1 82 e8 bc 62 be db 3d ec 0c 11 be
       0.06741138 -0.02838269 0.10729672 -0.14165086
000050 46 e7 11 3e 3b ab 29 bd ff ae 40 3d d6 69 f8 3c
       0.1424838 -0.041423064 0.04704189 0.030323904
000060 9b 33 40 3e 6e 40 ea 3c b7 90 93 3e bc 54 85 3e
       0.18769686 0.028595176 0.28821346 0.2604121
000070 07 e2 8b b0 9b ac 4a 3d bf 76 4b be db 05 52 3e
       -1.0177822e-09 0.049481016 -0.19869517 0.20510046
000080 92 2e d5 bd 98 2e b9 bc 1c 03 bd bd f5 25 c1 bb
       -0.10409273 -0.022605225 -0.09229109 -0.0058944174
000090 2d 18 1d be 02 51 c9 bc ef 49 5c 3d 57 32 ca 3b
       -0.15341254 -0.02457476 0.053781446 0.0061705518
0000a0 4e 34 76 ba ba f7 13 be aa f0 1a aa 0a 91 8b 3e
       -0.0009391949 -0.14449969 -1.3761445e-13 0.27259094
0000b0 7f 77 09 3f a2 a6 5b 3e 23 ab 91 3d fc 0e b5 bd
       0.5369796 0.21450284 0.0711272 -0.08840749
0000c0 00 f4 ea 3b 42 a1 51 30 94 8a 25 3c 66 58 ed 3d
       0.0071702003 7.626292e-10 0.01010384 0.11589126
0000d0 72 ca 05 3e 13 3b 92 3d 0b 91 54 3d 18 12 d8 bd
       0.13065508 0.07140174 0.051896136 -0.10550326
0000e0 15 64 74 3d 34 cf ec 3d 4e 30 8b 3e ec 19 72 3d
       0.05966576 0.11562958 0.2718529 0.059106752
0000f0 39 ab 8b 3e 43 94 a3 bd 56 5f 1a 3e 60 5b 85 3d
       0.2727907 -0.07987263 0.1507543 0.06511569
000100 ef 15 03 bf a8 3c f6 3c 14 c5 4b 3c b5 2a 1c 3d
       -0.51205343 0.03005822 0.012437124 0.038126666
000110 ac f3 c1 be f5 fd f5 3d bc d3 60 3d 36 91 56 be
       -0.3788122 0.12011329 0.054889426 -0.20953831
000120 4b a7 19 3e d1 f7 8b 3e c5 fe a8 3d f6 54 89 be
       0.15005223 0.27337506 0.082517184 -0.26822633
000130 a2 b7 c8 3a 8a 1f 92 3d d4 61 a7 be b7 91 15 be
       0.0015313516 0.07134922 -0.32691824 -0.14606367
000140 62 90 8a 3e 53 4e 1a be ed ff a0 be b5 15 59 3d
       0.2706328 -0.15068941 -0.31445256 0.052999217
000150 d0 77 80 3d bd 88 b1 3d 14 0e bf bb d9 5b 30 3d
       0.062728524 0.08668659 -0.0058305357 0.043056343
000160 f3 ab 39 3e a6 b4 17 3e 38 ba bc ba b1 11 9b 3d
       0.18132 0.14815006 -0.0014398759 0.07571734
000170 d4 c4 c0 3d 75 3d 94 3d 68 64 05 be d7 51 58 3b
       0.09412542 0.072382845 -0.13026583 0.0033007765
000180 57 04 f8 3d 4e a1 e1 3c 73 f2 a6 aa 26 4e 8c 3c
       0.12110203 0.027542736 -2.9655756e-13 0.017127108
000190 61 9a 57 3d ef 36 1e bc 23 48 91 bd cb ed 6a 3b
       0.05263746 -0.009656652 -0.07093837 0.0035847302
0001a0 a2 ac 78 bc d1 0b 92 3d c1 bf 8f bd ee d9 9d bd
       -0.015177878 0.0713116 -0.07018996 -0.077075824
0001b0 04 72 8d 3d 3f e4 e2 3d 34 4a 0d 3d 4d e1 30 3e
       0.069065124 0.11078691 0.034494594 0.17273445
0001c0 43 38 46 ba 13 b8 d3 bc ca 62 8a 3d 2a 75 40 be
       -0.0007561484 -0.02584461 0.06757124 -0.18794695
0001d0 9d 0b 12 3e 01 63 ad bd 26 49 3c 3e a9 a0 69 3e
       0.14262243 -0.08466149 0.18387279 0.22815193
0001e0 43 b4 e8 bc b7 c5 88 3e 2b 1b e9 3c 4b 03 b1 3e
       -0.028406268 0.26713344 0.028455338 0.34572825
0001f0 00 41 68 bc d3 fa a6 3d 21 5f 04 bd 59 8c 0e be
       -0.014175653 0.0815331 -0.032317284 -0.13920726
000200 18 75 43 3e 30 2c 23 be 4d f9 d8 3c 45 63 fc bd
       0.19087636 -0.15934825 0.026486063 -0.12323622
000210 78 76 cf be b8 ea eb bc 73 7f b4 bd 27 1b 2c bd
       -0.40520072 -0.028798446 -0.088133715 -0.042018082
000220 44 4f 92 be eb ca 40 3e 91 4b 89 3e 10 b1 09 be
       -0.285761 0.18827407 0.26815465 -0.1344645
000230 47 35 ba 3d b3 cc c4 3e 94 cc 58 3e 46 f3 91 bd
       0.09092193 0.38437423 0.2117179 -0.07126479
000240 8c 40 a2 3c e7 b4 c7 3d 88 d1 81 3e c5 ec 61 a3
       0.019806169 0.09751301 0.25355172 -1.2247412e-17
000250 51 db 86 2f 73 62 c8 3d 5e f8 01 be 81 a3 d8 3b
       2.4530292e-10 0.09784403 -0.12692401 0.006611288
000260 48 25 73 3d f6 81 27 3d d0 38 bb bd 43 cd 6a 3d
       0.059361726 0.040895425 -0.091416955 0.05732466
000270 ea 64 b6 bd c2 fc 62 be 54 eb 49 3b 77 2b 45 3d
       -0.089059666 -0.22166732 0.0030810433 0.048137154
000280 23 d6 15 3e 4f e1 14 bd 78 cf 06 bd 51 17 26 bd
       0.14632468 -0.036347684 -0.0329127 -0.04054958
000290 41 5e 38 bd f9 16 2e 3e b5 f1 c5 bd 6e ee 47 3e
       -0.045011763 0.17000951 -0.096652426 0.19524547
0002a0 b0 ec 5f 3d db e5 4b be c5 3f 5a bd 6f cd 88 3e
       0.054669082 -0.19911902 -0.05328347 0.26719233
0002b0 0e a2 13 3e 1b 95 42 3e a0 7f 0e 3e da 22 52 bc
       0.14417288 0.19002192 0.13915873 -0.012825692
0002c0 23 e9 4e be dd 3e 03 be db 5f 98 3d 75 b1 cf bc
       -0.20206122 -0.12816949 0.07440158 -0.025353173
0002d0 cf eb 7e bd ab 3d e6 bd 64 6f 98 bd 1b 40 d2 bd
       -0.062236603 -0.11242231 -0.07443121 -0.102661334
0002e0 f7 be c6 3d 51 08 ca 3d 6d 2f 97 ba 54 78 35 be
       0.097043924 0.098648675 -0.001153452 -0.17721683
0002f0 0e 0a c5 be 24 79 86 bd 52 3f 77 3e 7e 89 d5 3e
       -0.38484234 -0.065660745 0.24145249 0.4170646
000300 bd 71 6c 3e 97 a4 84 be 2e 06 9c be 71 4f 0d 3e
       0.23090263 -0.25906822 -0.30473465 0.13799836
000310 ff f7 4c ad ec 15 d8 bc 49 96 93 3e 8a 6f 65 3d
       -1.1651124e-11 -0.02637764 0.28825596 0.056014575
000320 d8 53 08 be 1e ed 35 be b0 01 c3 3c d4 27 85 3b
       -0.13313234 -0.17766234 0.023804516 0.004063586
000330 71 e8 f8 bc a2 2b 3b 3d fa 04 98 3b 17 77 1e 3e
       -0.030384274 0.04569591 0.004639265 0.15475117
000340 9c 8d e5 3d d2 90 e8 3d ce 18 fa 3d af eb b0 3d
       0.112086505 0.11355747 0.12211762 0.08638703
000350 5d 54 f2 3d e0 c1 22 be 59 08 65 be 9e 88 27 be
       0.11832497 -0.1589427 -0.22366466 -0.16360709
000360 0a 9e 1c 3d de 34 6d 3e 8c 82 41 3c 9d 2c ab 3d
       0.038236655 0.23164698 0.01181091 0.08358119
000370 69 98 29 bd 45 bd 44 3d e2 88 ca 3e ed c4 8d 3d
       -0.041405115 0.048032064 0.39557558 0.06922326
000380 72 92 9a 3d 8f ce 16 3d ff 3f 9c 3e 9a f9 3c bd
       0.075474635 0.036818083 0.30517575 -0.046136476
000390 27 e6 c5 3e 3a f1 5d 3d 9b 7c 0c be b3 7c 7c 3d
       0.38652155 0.05418513 -0.13719408 0.06164236
0003a0 c0 64 56 3e 56 51 3b 3e e8 d0 04 be cf 6c 1b be
       0.2093687 0.18292746 -0.12970316 -0.15178226
0003b0 0b 54 e1 3d 0f 7f 1c 3e 36 fa aa 3c ee 51 dc 3d
       0.11002358 0.15282844 0.020871263 0.10757814
0003c0 7a 87 e9 bd 97 ae ec bc 6b 6d e6 3d f6 b8 26 3d
       -0.11402793 -0.028891845 0.112513386 0.040703736
0003d0 de 9b 68 3d 90 58 48 3c 97 1c 8b 3c 09 7f 01 bd
       0.05678927 0.012228146 0.016981406 -0.03161529
0003e0 32 ad 86 3d 06 95 ff bc a7 41 3c 3c 80 a4 33 bd
       0.06576003 -0.03119899 0.011490262 -0.04385805
0003f0 b9 67 58 3d 2b 64 04 3b 4e b1 25 3e d9 56 9b bb
       0.052833293 0.0020201306 0.16180918 -0.0047405777

encoder.4.bias f4 [64]
000000 d1 15 50 3d 6a e7 b0 3d d3 41 98 3d 3e 25 7f 3d
       0.050802056 0.08637889 0.0743443 0.062291376
000010 d8 c8 21 bd f2 43 54 3d 8f 44 82 3d 49 6e 37 3d
       -0.03949818 0.05182261 0.06360733 0.04478291
000020 ae b9 fe a3 d0 e1 7d a6 13 25 48 3d 97 d8 8e 3d
       -2.7617374e-17 -8.808304e-16 0.04886348 0.06974905
000030 7b 16 be 3d ba ce 77 24 17 3b ba 3c 11 54 0e a3
       0.092816316 5.373469e-17 0.022733254 -7.715637e-18
000040 3d 09 90 bc 58 7e c2 3d 93 ac ba 3c 0b 12 63 a4
       -0.01758253 0.094967544 0.022787368 -4.923806e-17
000050 ed 3b 86 3d 9c d5 d7 a5 7d fb 44 a5 4a 7b c6 25
       0.06554399 -3.7441302e-16 -1.7085498e-16 3.443107e-16
000060 cb 90 bf 3d 0a a1 ad a8 1c cb a6 a6 2b d3 c7 a3
       0.09353789 -1.9276698e-14 -1.1573617e-15 -2.1665056e-17
000070 f0 5c 32 27 93 a3 da 3c 73 3f cd a5 f4 68 1a bd
       2.4752844e-15 0.026689326 -3.5604826e-16 -0.037697747
000080 9a 75 74 a0 b3 8e 7f 3d cf cb 5d 3d 2e 6f cb 3d
       -2.0706515e-19 0.062391948 0.054149445 0.09933315
000090 9c 2b 69 3d 7b eb ea 3d 5e 37 75 bc 0d cf f9 3d
       0.056926355 0.114706956 -0.014966814 0.12197695
0000a0 f5 01 8d 3c 09 e2 74 a4 13 de 21 a2 da 01 9b a2
       0.017212847 -5.3100525e-17 -2.1937134e-18 -4.2014795e-18
0000b0 43 4d 87 af 63 8d ed 3c 88 64 76 3d bd fd 13 a5
       -2.4611255e-10 0.028998083 0.060154468 -1.2836187e-16
0000c0 65 72 86 3d 75 a2 3e 3d 7d 6c 8e 3d 3c c5 01 a3
       0.06564788 0.04654165 0.06954286 -7.03487e-18
0000d0 c8 38 a6 3d 8c 5b 55 24 91 e0 91 bb fa 66 e9 3d
       0.08116299 4.6264556e-17 -0.004451819 0.11396594
0000e0 19 84 61 26 30 e9 96 a2 5f e0 20 3c 7b b0 19 a3
       7.824158e-16 -4.090448e-18 0.009819119 -8.331518e-18
0000f0 d7 00 f8 a6 64 01 83 3d 31 8e a6 3c dd 6d cd 3c
       -1.7208685e-15 0.063967496 0.020331474 0.025076801

decoder.0.weight f4 [64, 32, 7, 7]
000000 b6 e6 f8 3b ec 33 39 3d 0a 74 68 be 92 e1 f9 bc
       0.0075958623 0.045215532 -0.22700515 -0.030503068
000010 64 7e 81 3e ee cf f2 bc 5c 34 94 bb 1e 36 87 ba
       0.2529174 -0.029640164 -0.0045228433 -0.0010315811
000020 ac 3e ce bb 97 b1 45 3d 28 c7 1c 3d b4 1c 96 bc
       -0.006294092 0.048265066 0.038275868 -0.018324234
000030 16 9d 9f bc a3 71 f5 bd 7d ee 4f 3b 2a f9 b2 3d
       -0.019484084 -0.11984565 0.0031727843 0.087389305
000040 9a 73 7f ba 00 fe ef bc 15 6b ee bc d3 b3 29 be
       -0.0009744704 -0.029295921 -0.029103795 -0.16572504
000050 fb 83 ed bd 4f b9 ea 3a db 93 4e 3e e8 0e 33 bb
       -0.11597439 0.001790801 0.2017359 -0.0027322117
000060 06 7e d5 bd a6 93 24 bb 2f d8 21 be b8 07 68 3e
       -0.10424428 -0.002511242 -0.15805124 0.22659194
000070 88 e5 09 bb 7f 16 26 3e 84 47 95 bc fb ac a7 bc
       -0.0021041352 0.16219519 -0.018222578 -0.020468226
000080 ca 93 cf bc ae 3b 6f 3e 2a 43 e6 bc 15 a5 a3 bc
       -0.025339026 0.2336261 -0.028108198 -0.019976178
000090 0e 47 39 3e 26 b5 af bc 4a b6 8e bc e5 62 f5 bc
       0.18093511 -0.021448683 -0.017420907 -0.029954383
0000a0 37 4e 0c 3e 1b 5b 17 bc c1 8c 2e bd 97 78 f2 bc
       0.13701712 -0.00923803 -0.042614702 -0.029598517
0000b0 7e b0 fb bc 13 18 2d bb 49 cc 39 bc 0f 64 83 bb
       -0.030723806 -0.0026412054 -0.011340209 -0.0040097306
0000c0 2c d8 6b 3b 26 31 0a 3b 87 00 f5 bd 61 cd be bc
       0.0035987003 0.0021086424 -0.11962991 -0.023291292
0000d0 1d 70 f1 bb 10 0b 33 3d a1 b4 9e 3d 49 54 a6 ba
       -0.0073681013 0.043711722 0.07749296 -0.0012689914
0000e0 29 1d 1d b9 c4 54 5f bc 1f 2b 8e 3d 6b 47 d1 ba
       -0.0001498355 -0.01363105 0.069418184 -0.0015966719
0000f0 8b 5d f6 bd 1c 53 a3 3a c6 51 07 3a f0 fc f0 ba
       -0.12029561 0.0012460682 0.00051620265 -0.0018385928
000100 2b 9b ee 3b f9 6c 98 bc 36 70 d1 bc 92 56 be bc
       0.007281681 -0.01860665 -0.025566202 -0.02323464
000110 d3 12 d6 bc 75 a9 cb bc d7 64 90 b8 29 da d9 bb
       -0.026132023 -0.024861077 -6.885238e-05 -0.006648321
000120 92 8a e6 3d 38 39 36 bb 43 49 89 bc d2 e6 31 3b
       0.11256899 -0.00278051 -0.016758567 0.0027145636
000130 ac dc 05 bc f7 12 a4 ba ed 1e 44 bc a0 17 d7 bc
       -0.008170288 -0.0012517859 -0.011970264 -0.026256382
000140 51 8d f5 bc aa f7 1d bc e6 8f 23 bc ab 14 c8 bc
       -0.029974611 -0.009641567 -0.0099830385 -0.024423918
000150 4e 65 cd bb 10 6d c8 bc 55 86 16 3e e6 0c c8 bc
       -0.00626818 -0.024466068 0.14699681 -0.024420213
000160 57 9c a9 bc 23 7c 8d bc f4 a8 9f bc f2 da ae b8
       -0.020704431 -0.017271107 -0.019489743 -8.337748e-05
000170 ba 39 0b 3b a7 a2 94 bd 37 f0 41 bf 4c 68 8a be
       0.0021244125 -0.07257586 -0.75757164 -0.27032697
000180 2e 8c 94 bc 43 97 72 bc 75 a9 0f 28 b5 fb ba a1
       -0.01813325 -0.014806571 7.97484e-15 -1.2670477e-18
000190 9d 26 0e a1 60 6f 7e a6 27 6c ab b0 10 7c f9 21
       -4.8162576e-19 -8.8274894e-16 -1.2472626e-09 1.6905735e-18
0001a0 af 51 03 20 70 61 1d a2 cc c4 a3 a6 1f 25 7a bb
       1.1123158e-19 -2.132905e-18 -1.1363739e-15 -0.0038169099
0001b0 eb 6b 1e a8 32 8f 0c ab b8 1a 7c a7 49 4d a3 25
       -8.794163e-15 -4.9936715e-13 -3.498651e-15 2.8328363e-16
0001c0 bf d9 f9 25 e7 6a e3 9f c6 e6 ce a6 51 dc 05 ad
       4.3342165e-16 -9.6315095e-20 -1.4356673e-15 -7.609095e-12
0001d0 7c 88 5a a1 a1 d5 29 3d d1 76 c0 a1 24 cf 84 26
       -7.404191e-19 0.041463498 -1.3041877e-18 9.215486e-16
0001e0 b7 01 b1 bd 0d 42 bf ab 8c a1 0f a6 74 fb a8 a8
       -0.08642905 -1.3589699e-12 -4.983203e-16 -1.8760797e-14
0001f0 c3 cd 15 a7 71 58 db a6 87 21 89 a0 9d de fa a5
       -2.0789447e-15 -1.522015e-15 -2.323089e-19 -4.3518936e-16
000200 38 af b8 a6 d8 c9 45 b2 df c4 5b a8 4c f8 08 3d
       -1.2815058e-15 -1.1512803e-08 -1.2199632e-14 0.03343992
000210 f8 6a 5a a8 74 84 c4 25 52 76 0d be 3b c9 0b be
       -1.2124626e-14 3.4090334e-16 -0.13814667 -0.13650982
000220 d8 2b 65 a6 fd ff a6 a9 c5 33 09 bd 71 98 01 a1
       -7.9509755e-16 -7.416288e-14 -0.033496637 -4.3908655e-19
000230 07 07 9d 26 8a 8a 8d 27 73 5d 07 ae 19 2a 2f 3e
       1.0895968e-15 3.9285566e-15 -3.0778446e-11 0.17105903
000240 ac 0a be bd 4f 7f 18 3d a6 82 ec 21 66 ad ca 23
       -0.09279379 0.037230786 1.6026564e-18 2.1974321e-17
000250 34 18 76 a7 7b 66 15 a8 58 36 0c a6 54 a6 0f a7
       -3.4152479e-15 -8.2933834e-15 -4.8645907e-16 -1.9935403e-15
000260 4e 6e f8 26 16 24 9a b5 12 d3 0b a6 9b 55 76 a6
       1.7238355e-15 -1.1484397e-06 -4.8511366e-16 -8.546441e-16
000270 be df 7e a6 bc 0c b7 25 41 ab 5f 3c 49 70 f4 a4
       -8.842718e-16 3.175407e-16 0.01365167 -1.0600835e-16
000280 0c b3 1c a8 c0 57 b4 25 7d 67 1c a6 85 be c9 a5
       -8.698564e-15 3.1284484e-16 -5.4263625e-16 -3.4997043e-16
000290 49 4f e7 23 ee 02 87 24 13 d4 c5 25 f2 72 0c ac
       2.5078649e-17 5.855188e-17 3.431776e-16 -1.9959004e-12
0002a0 63 04 21 a5 a5 3e 2a 27 7f ff 3b 3d 39 23 4e a5
       -1.396601e-16 2.36262e-15 0.045897957 -1.7879586e-16
0002b0 e4 b2 82 a5 7d 34 e8 3d 21 0e be aa ff 3d 1e bd
       -2.2672626e-16 0.11338136 -3.3760584e-13 -0.038633343
0002c0 ae f0 5d a5 db 1a 34 bc 16 0d 8e a5 29 bd 94 a4
       -1.925024e-16 -0.010992731 -2.464194e-16 -6.450522e-17
0002d0 d8 d5 f1 a8 36 66 e8 a6 77 50 f6 24 f2 f8 8f a7
       -2.6849115e-14 -1.6125938e-15 1.06821807e-16 -3.996038e-15
0002e0 40 e9 40 27 8a 31 86 3d 20 17 af 3d 03 0b 02 ab
       2.6771798e-15 0.065524176 0.085493326 -4.620056e-13
0002f0 77 00 e2 a4 b8 e9 1f 26 7a 42 97 a6 10 59 7d 26
       -9.8012664e-17 5.5480955e-16 -1.0495748e-15 8.789771e-16
000300 9e 49 a5 2c 1c 60 08 a7 13 d9 02 2a 7b 74 11 a9
       4.697755e-12 -1.8925892e-15 1.1621632e-13 -3.22975e-14
000310 c9 0f cf 3b e7 31 45 bc 6f 98 bd bc a6 ca 1e ba
       0.0063190204 -0.012035823 -0.023143975 -0.00060574187
000320 56 a9 9d ba 71 57 07 be 7c 7e e9 bc b7 c2 54 bb
       -0.0012028615 -0.1321695 -0.028502695 -0.0032464692
000330 32 6f 7a bc 40 32 9f 3c 4c 5b ea 3d cf f1 ca bc
       -0.0152853 0.01943314 0.11443195 -0.024773506
000340 a3 9f ce bd 17 1f 21 3e 5d be 62 3b 9e 9f 99 3d
       -0.10089042 0.15734516 0.0034598329 0.07501148
000350 51 53 cb bc c5 28 e2 bb 5e e2 16 bb ab 46 a1 be
       -0.024820002 -0.0069018328 -0.002302311 -0.31499228
000360 4a f9 1d be 50 38 ab bc 40 72 b8 bc 86 7a 5e be
       -0.15427127 -0.020900875 -0.022515416 -0.21726426
000370 42 ff 2f bb ec e6 e5 bc 77 e0 a1 bb 3c 24 91 be
       -0.0026855026 -0.028064214 -0.0049400884 -0.28347957
000380 4f 94 58 3e f0 3e 87 3e d2 95 52 3d 56 e2 9b bc
       0.21150325 0.26415205 0.05141241 -0.019028824
000390 d3 4e 0b bc 60 d7 a1 3c f6 09 13 3d 2c 5f 94 bc
       -0.00850268 0.01975602 0.03589817 -0.018111788
0003a0 54 fc 98 3d 82 26 ed bc 8c 0d 2c bb 35 88 eb bc
       0.07470003 -0.028949026 -0.0026253192 -0.028751472
0003b0 5f 49 e6 bc 84 19 6f 3d bf 60 d9 b9 d6 8f 59 be
       -0.028111158 0.058373943 -0.00041461547 -0.21246275
0003c0 74 ba 8d be dc 97 82 be 2d 8f cc 3d 0b d6 b0 be
       -0.27681315 -0.25506485 0.09988246 -0.34538302
0003d0 7f 7a 0e 3e 91 65 1b 1f f8 2b 27 21 9a 4e 9f a4
       0.13913916 3.290654e-20 5.6639993e-19 -6.9088414e-17
0003e0 e2 cf 48 25 e8 26 54 a2 52 00 e8 25 03 8c 6c a5
       1.7417668e-16 -2.8751954e-18 4.0245802e-16 -2.0517175e-16
0003f0 86 9d 52 a1 db a9 5a a4 b6 4a 43 26 78 19 0a a7
       -7.135925e-19 -4.7415088e-17 6.775547e-16 -1.9165154e-15

decoder.0.bias f4 [32]
000000 55 04 95 3e cb 43 98 3c 15 4d a7 be 7f 38 a0 bd
       0.29104868 0.018587014 -0.32675996 -0.07823276
000010 bb d4 b7 3d b3 01 a7 bd 43 22 f5 bc f9 f3 3f 3e
       0.08976122 -0.08154621 -0.029923564 0.18745412
000020 53 67 3f 3d 8f 54 ac 3d f3 bc 2d be 89 7a 84 3d
       0.046729397 0.08414566 -0.1696661 0.06468684
000030 3a 5d 8e 3e 29 6a a2 ba 8d 71 80 be 00 4f 77 3c
       0.278055 -0.0012391257 -0.25086632 0.015094519
000040 3f 3f c0 bd f5 cd d8 3d 92 f0 ba bd 7d 4d aa bc
       -0.09387063 0.10586158 -0.091279164 -0.020788902
000050 4e 10 f2 bb 01 49 60 be c6 eb 07 3e 47 f9 78 be
       -0.0073871976 -0.21902849 0.13273534 -0.24313842
000060 ef e4 a0 3d 07 af 31 3d f9 1f 2c 3e 01 48 f7 bd
       0.078561656 0.04337981 0.16809072 -0.120742805
000070 e4 19 27 3e f8 2e e8 3d 7f 3d c7 bd d3 c7 4a 3d
       0.1631847 0.113370836 -0.09728526 0.049506973

decoder.2.weight f4 [32, 16, 3, 3]
000000 67 cb 77 3b a8 71 d8 bd b0 fd 43 3d 4c f6 01 3d
       0.0037810446 -0.10568553 0.047849357 0.031729028
000010 a8 d5 39 be 7c f2 88 3d 52 01 89 bd 82 e2 98 be
       -0.1814791 0.06686875 -0.06689705 -0.29860312
000020 dc b7 3e be 42 9c 4b 3e b5 d3 bd bc 44 a6 29 3c
       -0.18624824 0.19883826 -0.023172239 0.010354582
000030 a4 82 13 3e b7 cd b9 3e 1b 34 12 be f9 f8 4a be
       0.14405304 0.3628976 -0.14277689 -0.19821538
000040 1d 53 73 bc 55 3d c4 3d 47 78 ac bd 39 f2 bd 3d
       -0.014851359 0.09582011 -0.084213786 0.09274716
000050 fd 60 11 be bc ff 31 bc e0 ae 0b 3e 74 76 7a 3e
       -0.14197154 -0.0108641945 0.13640928 0.24459249
000060 dd 54 76 3d ef 5f 2a 3e 18 27 74 3e d1 72 b1 3d
       0.060139526 0.16638158 0.23843038 0.086644776
000070 f9 13 82 bd 34 bc 06 3d d3 df 92 3e 19 60 c2 3e
       -0.06351466 0.03289433 0.2868639 0.37963942
000080 0d 43 af bd c1 18 27 3e b6 80 15 be 89 ad 19 be
       -0.08557711 0.16318037 -0.1459988 -0.15007605
000090 e4 ff 34 3d c9 4f 41 bd 1e 65 64 3c 3e 29 8e be
       0.04418935 -0.04719523 0.013940124 -0.2776584
0000a0 47 4f b2 3c 4a 11 86 3e 6d fc c9 be c1 8b f4 3e
       0.021766318 0.26185066 -0.39450398 0.47762874
0000b0 45 68 19 3e e4 16 a0 bd ea af 9b 3e ba 1f 95 3e
       0.14981182 -0.07816866 0.3040765 0.29125768
0000c0 30 d7 a6 3e 77 a4 a2 bd df 48 88 3c 7f e6 3b be
       0.3258605 -0.079415254 0.01663631 -0.18349646
0000d0 76 f3 4e 3e 36 cc fb 3d fa b7 c6 3a 70 56 cd bd
       0.2021006 0.122948095 0.001516103 -0.10026252
0000e0 ba bd 71 be 7f 77 6c 3d 2a 2f da 3d 6b 1b 8d 3e
       -0.23607531 0.057731148 0.10653527 0.2755998
0000f0 7a af 77 bd 0c aa 5d 3e 82 84 5c 3d 09 1d 35 3c
       -0.060470082 0.21646899 0.053837307 0.011054286
000100 83 7e 87 3c 1c 39 99 3d 8c 83 21 bd 21 c8 3e be
       0.016539818 0.07481596 -0.039432094 -0.1863103
000110 d1 b8 04 be 03 e7 3a be 5d ed e4 bd b7 9f b2 bd
       -0.12961127 -0.18252186 -0.11178086 -0.087218694
000120 da ec 03 bd 05 fc 96 3e 21 7d 86 3e aa 87 c4 3d
       -0.0322083 0.2948915 0.2626734 0.09596188
000130 3e aa 77 3e 98 f5 43 3e 4a ab 6a be c4 98 21 bc
       0.24186036 0.19136655 -0.22916904 -0.009863082
000140 70 33 22 bb df ef e5 bd 20 f6 12 be 7b de 03 bf
       -0.0024749897 -0.112273924 -0.14351702 -0.51511353
000150 90 f2 7a 3d 2d 7b 98 bd 49 6e ab bd 5f 47 e2 3d
       0.061266482 -0.07445369 -0.083706446 0.11048769
000160 2c d4 0e 3e 9b 76 e1 3c 44 6f f6 bd 03 c6 c4 3c
       0.13948125 0.027522376 -0.12032941 0.0240202
000170 21 4e 82 3e b6 e2 7b be 82 31 dc bd 5d aa 8d bd
       0.25450233 -0.24598202 -0.1075163 -0.0691726
000180 d5 fe 1c bd 67 cb fc bd 9f cb f2 bd 1c 8e 29 3e
       -0.038328964 -0.123434834 -0.11855244 0.16558117
000190 a0 91 4b 3e 04 80 2a 3e 14 22 72 be 6a f5 ec 3c
       0.1987977 0.16650397 -0.23645812 0.028925616
0001a0 80 ec 62 be 53 be 24 3e 6d 38 62 be ac ed 6b 3d
       -0.2216053 0.16088228 -0.22091837 0.05759971
0001b0 8e 3a 02 be 37 10 3c 3e 73 98 1d be 0e 1a 77 be
       -0.1271765 0.1836556 -0.15390186 -0.24131033
0001c0 32 98 9b 3e 9f c3 6c 3e 37 81 b8 bd d2 48 79 be
       0.30389553 0.23121499 -0.09009021 -0.24344185
0001d0 9c c3 06 3e 1f 86 c7 3c e1 f2 3b be 4f b8 7e 3d
       0.13160557 0.024355946 -0.1835437 0.06218749
0001e0 01 b3 54 3c dc 37 e2 3e 49 d4 09 bd cf 7a 60 3e
       0.012982131 0.44183242 -0.033649717 0.21921848
0001f0 e8 2a 2c 3e ee 82 9e 3d 96 66 94 be 28 e7 f4 bd
       0.16813242 0.077398166 -0.28984517 -0.11958152
000200 e6 c3 84 be 1f 23 24 3e 49 66 5e 3e 21 72 23 3e
       -0.2593071 0.16029023 0.21718706 0.15961505
000210 0f 5f 3c 3d 1d fb a5 bd fc 73 5a be 5c 44 11 3c
       0.045989092 -0.08104537 -0.21333307 0.008866396
000220 e3 6e b4 3d 09 3a f1 bd 4f 80 32 be 09 39 36 be
       0.088102125 -0.117786475 -0.17431758 -0.17795195
000230 f1 7e 89 3e de fd 90 be a5 78 d9 bd b5 f6 48 3e
       0.2685466 -0.28318685 -0.10618714 0.19625361
000240 80 c1 76 3d 13 7c 4c be 80 a5 2e bb e0 2b e5 bd
       0.06024313 -0.19969206 -0.0026648939 -0.11190009
000250 2e 56 75 bd 7c 4f 8b bd a4 a7 8b 3c bd a3 79 3d
       -0.05989664 -0.0680227 0.01704771 0.06094717
000260 b0 38 0a 3e 7f b4 39 3d f1 d3 72 be 88 9a bc bd
       0.13498187 0.04533815 -0.23713662 -0.09209162
000270 e3 ee 13 bf 40 d5 62 3e 8d 0f b2 3e 9b bf c8 bb
       -0.5778639 0.22151661 0.3477749 -0.006126357
000280 09 ae 82 be 4e d4 1b bf 14 02 a3 bd 9c 2b 59 3e
       -0.25523403 -0.60870826 -0.07959381 0.21208042
000290 aa bd 15 3e 54 c0 db bc 9b b4 7a be b7 ed 03 3e
       0.14623132 -0.026825108 -0.24482958 0.1288365
0002a0 25 40 b0 3d 1b 74 4e 3d 17 90 bb bd b4 19 85 bd
       0.086059846 0.050403696 -0.09158342 -0.06499043
0002b0 05 9e 84 be d1 1a 3b 3c c1 32 e2 3d 6b b6 60 be
       -0.2590181 0.011419968 0.11044837 -0.21944587
0002c0 60 a1 f9 bd cb 1f 3a 3e 0f 4a af 3d 38 51 aa bd
       -0.12188983 0.1817619 0.085590474 -0.083162725
0002d0 0e b9 be bd 46 93 b0 3e 2c 3d 38 3e bf 59 c1 bd
       -0.0931264 0.3448736 0.17992085 -0.09440946
0002e0 f6 89 c5 3e 8e d7 8d bd e9 04 65 be 24 b0 74 3e
       0.38581818 -0.069258794 -0.22365154 0.23895317
0002f0 7d 3b b3 bc 97 c4 f8 be 14 3a f4 3d 53 5a 55 3d
       -0.021878952 -0.48587486 0.1192514 0.052088093
000300 46 24 93 be 75 80 b2 bc e3 50 31 3e d4 ee e4 3b
       -0.28738612 -0.021789769 0.17316012 0.0069864783
000310 e6 24 93 bb c5 2b d7 3b 18 a5 e4 3d 86 59 e5 3d
       -0.0044904826 0.006566497 0.11164302 0.11198716
000320 f9 67 18 be 6a fb a4 3d 39 86 9c 3e 5c 05 84 3e
       -0.14883412 0.08055766 0.30571154 0.2578534
000330 44 0d 2d 3e a0 b0 83 be ac 5a 55 bc 4b 75 46 be
       0.16899592 -0.25720692 -0.013022106 -0.19380681
000340 df 3f 94 bc 14 c8 16 3d 99 02 74 be 25 4a de bd
       -0.018096862 0.036811903 -0.23829116 -0.10853986
000350 d4 aa 1a 3d 9e 80 a2 bd b6 ab 81 3e ad 28 91 3d
       0.03776057 -0.07934688 0.25326318 0.070878364
000360 36 23 ba 3d 49 5d d4 bc 3a 00 b2 bd 55 44 14 3e
       0.09088747 -0.025923388 -0.086914495 0.14479192
000370 3b c7 3c 3e b7 28 ce bd b0 e9 f4 bd 90 71 a9 bd
       0.18435375 -0.100663595 -0.11958635 -0.082736135
000380 b8 f8 21 bc d1 79 6c be ec ae d5 bd 63 37 e5 bb
       -0.009885959 -0.23093344 -0.10433754 -0.006995128
000390 92 09 75 3e c0 cb 53 3d 11 5b 02 3d bd 72 27 3e
       0.23929432 0.051707983 0.03182513 0.16352363
0003a0 fe 45 51 bd 2d 8c 37 be 95 22 8e 3c 24 ba 0f be
       -0.05109214 -0.17924567 0.017350474 -0.14035851
0003b0 94 e4 d2 bb d0 e5 c7 bc 57 74 9d bd 4b 79 3d bd
       -0.00643594 -0.024401575 -0.07688206 -0.046258252
0003c0 f4 0c d3 3d d9 50 0c be 92 27 05 3e 7b 13 1c be
       0.10305205 -0.13702716 0.13003376 -0.15241806
0003d0 3e b8 ae 3d 10 b3 93 bf 19 74 ea 3d 34 5b a1 3e
       0.08531235 -1.153902 0.11447925 0.31514895
0003e0 28 60 f5 be 3f 1a 48 3e 49 42 f1 3d c6 25 e6 3d
       -0.47924924 0.19541262 0.11780221 0.112376735
0003f0 17 e0 98 be db d2 f3 3d ed e3 22 3d d0 d9 b2 3c
       -0.29858467 0.11905452 0.03976815 0.021832377

decoder.2.bias f4 [16]
000000 e1 5d 54 3e 90 ce ca 3e be ea 2d 3d fa ad 0a 3e
       0.20738937 0.3961072 0.042460196 0.1354293
000010 fd 4b 09 bd 3e f6 b1 3e 58 4e 1c 3e 39 08 e4 bd
       -0.033519734 0.3475818 0.15264261 -0.11134381
000020 be 81 56 be 1e f5 a3 3e 90 f2 b5 bc 78 88 d3 bc
       -0.2094793 0.32022947 -0.02221039 -0.02582191
000030 19 dd 05 be 73 4b 4e 3e bd c2 8e 3e 21 43 14 3e
       -0.13072623 0.20145969 0.2788295 0.14478733

decoder.4.weight f4 [16, 1, 3, 3]
000000 4a fb 70 be 8b a5 9c be 12 79 d8 bd ab 0d 8b be
       -0.23533359 -0.3059505 -0.10569967 -0.27158865
000010 33 f6 74 be 5c 69 2a bc 6f c9 6f bd 25 12 82 3d
       -0.23922043 -0.010401096 -0.05854171 0.06351117
000020 e8 56 b7 3d 97 b8 20 3e ed de 62 3e 53 18 0c 3e
       0.08952123 0.15695415 0.22155352 0.13681154
000030 45 5c 49 3c ff ca ac bd 7c 0e 02 bd 85 eb 16 be
       0.012290065 -0.08437156 -0.031752095 -0.14738281
000040 3b fd 8f be 26 5b f8 bd 9d 67 dd bc 34 c1 3f bd
       -0.28122887 -0.1212676 -0.027026946 -0.046815112
000050 ed c6 2f bc 2f 85 77 be b2 85 d2 be 7b d7 51 be
       -0.01072858 -0.241719 -0.41117626 -0.20492356
000060 42 d6 1d be ee f8 77 be ff 58 db bd f4 54 84 bc
       -0.15413764 -0.24216053 -0.10710334 -0.01615379
000070 87 fb 30 be 20 4d a4 bd 1a c2 be bd 0a 03 da be
       -0.1728345 -0.08022523 -0.09314366 -0.42580444
000080 fb be 31 be 1f d7 bd bd cc f4 9c be 8f 3b ee bd
       -0.1735801 -0.09269547 -0.30655515 -0.11632454
000090 34 8e cb bd b7 3c 42 be 10 ad 12 bd 73 81 7d be
       -0.099392325 -0.18968473 -0.035809577 -0.24756412
0000a0 92 9b f2 be cd e2 02 be 32 2f 17 be f6 0e 8a be
       -0.47384316 -0.1278183 -0.14764097 -0.2696454
0000b0 b5 a5 9e bd 60 67 85 3d d5 84 98 3c 32 e8 bb bd
       -0.0774645 0.06513858 0.018618027 -0.09175147
0000c0 40 a5 c8 bd 3b 1b 9d be 2f 5d ae be 1b 4b 0e be
       -0.09797144 -0.30684838 -0.34055468 -0.13895838
0000d0 23 a4 a3 be 32 45 80 be a7 5d 5a be 21 cc a9 be
       -0.31961164 -0.25052792 -0.21324788 -0.3316355
0000e0 76 f0 06 be a3 c1 60 be 5c e3 76 be 68 dc d7 bc
       -0.13177666 -0.21948867 -0.24110168 -0.026350215
0000f0 e3 9f 55 bd 41 0d fd bb 90 88 34 3d f3 52 73 3e
       -0.052154433 -0.0077225273 0.04407555 0.23762111
000100 5b 4a e7 3e cf 0b 7b 3e 58 37 9b 3e 8c 23 1a 3f
       0.45173916 0.24516223 0.3031566 0.6021049
000110 e5 c6 a4 3e 5a 15 9d 3d ff fe 2e 3e bc 67 a8 3d
       0.32182994 0.07670088 0.17089461 0.08222911
000120 7a 79 31 be 9b 42 82 be a5 10 1b be c5 52 97 be
       -0.17331496 -0.2544144 -0.15143068 -0.29555336
000130 9c 28 d3 be cb 91 6f be e9 48 48 be ba 59 95 be
       -0.4124192 -0.2339546 -0.19559063 -0.29170018
000140 c8 89 13 be 26 64 24 bd b7 82 80 bd a0 02 6d bd
       -0.14408028 -0.04013457 -0.06274932 -0.05786383
000150 8a 99 56 be 3d 2f ba be e6 80 83 be 9e 5e 82 be
       -0.20957008 -0.36364165 -0.2568428 -0.25462812
000160 c9 ef dd be fb 51 89 be 70 56 c4 bd e2 a7 96 bd
       -0.43347004 -0.2682036 -0.09586799 -0.0735624
000170 98 e2 8a bb 56 a1 9a be 0a e7 c2 be 47 ae 1c be
       -0.004238438 -0.30201215 -0.38066894 -0.15300857
000180 0b e3 8e be d9 0e b5 be 2c 4c 10 be 61 21 51 3e
       -0.27907595 -0.3536289 -0.14091557 0.2042289
000190 0a 27 b4 3e 52 9c 6b 3e 66 a4 8a 3e bd e2 cc 3e
       0.35186034 0.2300885 0.2707855 0.40016738
0001a0 0d 28 83 3e c6 b1 30 3d 41 90 c8 3c 33 29 50 3c
       0.25616494 0.043138288 0.024482848 0.012705135
0001b0 ee 51 ef bd a0 40 4b be 6d 87 21 be af aa 52 be
       -0.11685549 -0.19848871 -0.15774317 -0.20572923
0001c0 05 a5 ca be f8 b2 9b be f6 83 29 be 9e 87 94 be
       -0.39579025 -0.3040998 -0.16554245 -0.29009718
0001d0 34 f7 34 be 1b 2e 99 bd 82 08 fc bd 45 90 4f bd
       -0.17672426 -0.07479497 -0.1230631 -0.050674696
0001e0 51 f6 3e be ae 86 ac be 95 cf 16 be 53 5d fb bc
       -0.1864865 -0.33696502 -0.14727624 -0.030684149
0001f0 89 82 0e bd a0 88 28 39 1f 42 2b 3e 2b a4 1f 3e
       -0.034792457 0.00016072625 0.16724442 0.15589969
000200 e0 e8 ba bb e3 d0 6c 3e 83 15 ea 3d ea a3 02 be
       -0.0057040304 0.23126559 0.11429884 -0.12757841
000210 55 a9 84 3d 06 03 c6 bd e4 cb 3c be ad 85 12 be
       0.0647761 -0.096685454 -0.18437153 -0.14308806
000220 d6 d4 9b bb 9a 4c c3 3d 5a b6 4d be 09 08 da 3d
       -0.0047555966 0.09536095 -0.20089093 0.10646064
000230 c1 9d 71 3e f6 ef df bd 2d 18 ca 3d a1 f4 11 3e
       0.23595335 -0.10934441 0.098678924 0.14253475
