Sparse_Autoencoder.pth (torch, 809163 bytes, 4 tensors)

encoder.weight f4 [128, 784]
0	0x213b9bb6	6.3564146e-19
1	0x1f9b33bb	6.5730634e-20
2	0x219d61a9	1.0664584e-18
3	0x210c3682	4.7505986e-19
4	0x216c980e	8.0161153e-19
5	0xa0f79ab7	-4.194581e-19
6	0x21521c70	7.1188404e-19
7	0x2145d237	6.7024413e-19
8	0x21445cdf	6.6530297e-19
9	0x21b11bf7	1.2001389e-18
10	0xa186023d	-9.080786e-19
11	0x21c92606	1.3630355e-18
12	0xa6cba4f4	-1.4130665e-15
13	0xa7cc284d	-5.666507e-15
14	0x1e0f2f46	7.580133e-21
15	0x21722afb	8.2049673e-19
16	0x218eb24c	9.669489e-19
17	0xa01e150e	-1.3390087e-19
18	0xa0435592	-1.6545455e-19
19	0xa085cd6a	-2.2667008e-19
20	0x2141e30a	6.5691427e-19
21	0x210dbbd2	4.8021236e-19
22	0x211201a7	4.946891e-19
23	0x21617fa0	7.6401876e-19
24	0x202959f1	1.4344616e-19
25	0x21cb8b9a	1.3792767e-18
26	0xa050e707	-1.7694726e-19
27	0x214ac84d	6.870536e-19
28	0x1fb74288	7.761358e-20
29	0xa17be8aa	-8.5350036e-19
30	0xa1b77097	-1.2430365e-18
31	0x214f8d08	7.032098e-19
32	0xbca12bab	-0.019674143
33	0xbcd9b9d3	-0.026577866
34	0xbd031697	-0.032003965
35	0x3d65911d	0.056046594
36	0xbd2b6941	-0.041848425
37	0xbe11a539	-0.14223184
38	0x3d5c7f44	0.053832307
39	0xbcc89974	-0.024487235
40	0xbdab08ef	-0.08351313
41	0xbc21750f	-0.009854569
42	0xbd7cc3d8	-0.06171021
43	0x3d3e6398	0.0464817
44	0xbdf7b9dc	-0.12095997
45	0x3d07974b	0.03310327
46	0x3c14bbd3	0.009077984
47	0x3cc231c0	0.023705363
48	0xbd2f1bd2	-0.04275114
49	0x3d3bf12f	0.045884307
50	0xa98a6189	-6.145351e-14
51	0xa94b4f95	-4.514408e-14
52	0xa1386851	-6.2479687e-19
53	0x2196f7e1	1.0230008e-18
54	0xa1659a74	-7.7792635e-19
55	0x2133b363	6.0884975e-19
56	0xa08e5b9c	-2.4116358e-19
57	0xa0bf65aa	-3.2423934e-19
58	0xbcac3a2c	-0.021023832
59	0x1f969207	6.376905e-20
60	0x3cc4697f	0.023976086
61	0xbda95cea	-0.08269675
62	0xbdc67c2c	-0.09691653
63	0x3d56e4d1	0.05246431
64	0xbd815e3c	-0.06316802
65	0x3d2a2ba8	0.04154554
66	0x3d15722b	0.036485832
67	0xbc8c00d1	-0.017090233
68	0x3d4b11dc	0.04957758
69	0x3c178765	0.009248589
70	0xbc9e71ef	-0.019341437
71	0xbcaff2e7	-0.02147813
72	0xbb1fe5a4	-0.002439835
73	0xbcdc278d	-0.026874328
74	0xbcfe432c	-0.03103789
75	0xbc6e78e6	-0.014555192
76	0x3c931c19	0.017957734
77	0xbd32961f	-0.043600198
78	0xbd110623	-0.035406243
79	0xbc61b1e3	-0.013775322
80	0xbe1a19dd	-0.15048929
81	0xbda97c95	-0.08275715
82	0xa114bcad	-5.039406e-19
83	0xa19bed60	-1.0566041e-18
84	0x9f5035d6	-4.4090245e-20
85	0xa15495cf	-7.2026664e-19
86	0xbd07ad15	-0.03312405
87	0x3d832e48	0.06405312
88	0x3e67048f	0.22560333
89	0xbb4116a0	-0.0029462948
90	0xbb23650a	-0.002493205
91	0xbd4ab9d7	-0.049493637
92	0xbbc43b3a	-0.0059885057
93	0xbc8a1cb8	-0.016859397
94	0xbbd8fe0b	-0.006622081
95	0x3c51ed76	0.012812963
96	0xbb1e5b44	-0.0024163285
97	0xbb0c4d4f	-0.0021408384
98	0xbc2a0a71	-0.010378466
99	0xbd11301a	-0.035446264
100	0xbce88551	-0.028383883
101	0xbd784312	-0.06061084
102	0xbd0630d6	-0.032761417
103	0x3d349b96	0.04409369
104	0xbd947415	-0.072487034
105	0xbc4c9219	-0.012486004
106	0x3c8b7c37	0.017027004
107	0xbc87fbfb	-0.016599646
108	0xbd6538fd	-0.05596255
109	0x3d39979a	0.045310594
110	0xa19dc27a	-1.0690211e-18
111	0xa17cedc6	-8.569561e-19
112	0xa15b0e06	-7.4218646e-19
113	0xbe2e0166	-0.16992721
114	0xbdded4f0	-0.10880458
115	0x3bd61098	0.00653274
116	0xbd235660	-0.039877295
117	0xbdc242e8	-0.094854176
118	0x3c3e4ded	0.011615259
119	0xbd1a351c	-0.037648305
120	0xbbc90121	-0.006134168
121	0xbb31d542	-0.0027135168
122	0x3b861287	0.004091564
123	0xbcdd41e6	-0.027008962
124	0xbc9ebfaa	-0.019378502
125	0x3ce9d11a	0.02854209
126	0x3ca869e3	0.020558303
127	0x3b961235	0.004579807
128	0xbc148bc8	-0.00906653
129	0xbc9575d4	-0.018244661
130	0x3c60422c	0.013687652
131	0xbbecbf2b	-0.0072249374
132	0x3b9a0e4f	0.0047014127
133	0xbc82e5d9	-0.01597874
134	0xbd06bfa6	-0.032897614
135	0x3cb68d60	0.02228421
136	0xbd2716e5	-0.04079332
137	0x3d7a772e	0.061148815
138	0x3af84c9e	0.0018943732
139	0x3cf0dbad	0.029401625
140	0xa1c6fb0e	-1.3483456e-18
141	0xa13f7cbd	-6.4878407e-19
142	0x3e238b46	0.15971097
143	0x3d33bf03	0.043883335
144	0x3c0d8f08	0.008640058
145	0xbcbc571a	-0.022990752
146	0xbc84cc52	-0.016210709
147	0x3b6c8bc0	0.003609404
148	0xbc08fdfd	-0.008361337
149	0x3b540bfb	0.0032355774
150	0xbb4dc750	-0.0031399317
151	0xbcc34afe	-0.02383947
152	0x3c46dd21	0.012137682
153	0x3ce13aec	0.027493916
154	0x3bd940f5	0.006630058
155	0x3ce695d1	0.02814761
156	0x3cb49594	0.02204398
157	0xbb227bc2	-0.0024793004
158	0xbb8aa03c	-0.004230527
159	0xbc695db6	-0.014243534
160	0x3c2dc11f	0.010605126
161	0x3c8e3483	0.017359024
162	0x3c398e1f	0.011325388
163	0xbceda034	-0.029007055
164	0x3d12d44b	0.03584699
165	0x3b64af66	0.0034894585
166	0x3b99514a	0.00467888
167	0xbd876bf7	-0.066123895
168	0x20adb3d6	2.9426345e-19
169	0x3d2e0599	0.042485807
170	0x3d93eb68	0.072226346
171	0xbdd76ab9	-0.105184026
172	0xbc411e68	-0.011787035
173	0x3c6df162	0.014522882
174	0x3c5279f9	0.012846463
175	0x3ca1d1cf	0.019753365
176	0x3d11d5ed	0.035604406
177	0x3d10e480	0.035374165
178	0x3cce72c6	0.025201213
179	0xbc2b00a9	-0.010437169
180	0x3b517b0b	0.0031964208
181	0x3c8e9ff7	0.017410262
182	0xbbd8ff74	-0.0066222493
183	0xbc28c37d	-0.010300514
184	0x3cd5663b	0.026049724
185	0x3cc3bf7b	0.023895016
186	0xbba211b6	-0.004945959
187	0xbc2447db	-0.010026897
188	0xbcde3d74	-0.027128913
189	0x3b9ad642	0.0047252486
190	0x3c2624b7	0.010140589
191	0x3c680985	0.014162426
192	0x3c819774	0.015819289
193	0x3b601d31	0.0034197087
194	0xbb79b801	-0.003810406
195	0x3d6c6f86	0.057723545
196	0xbc90d780	-0.017680883
197	0xbd5af4a7	-0.053455975
198	0xbd9e046b	-0.077156864
199	0xbb9ef420	-0.0048508793
200	0xbc2fff40	-0.010742009
201	0x3b00e58c	0.001966807
202	0x3cf561f4	0.029953934
203	0x3d0843dd	0.033267844
204	0x3d2a343c	0.04155372
205	0x3d1bbbff	0.038021084
206	0x3c71a652	0.0147491265
207	0xbca01bf6	-0.019544583
208	0xbcc942e6	-0.024568032
209	0xbc32b76f	-0.010907992
210	0xbc506b13	-0.012720841
211	0xbc0d4534	-0.008622456
212	0x3c0d9ec7	0.0086438125
213	0x3d08f463	0.03343619
214	0x3d190dc8	0.03736666
215	0xbc009fc0	-0.007850587
216	0xbbfa5186	-0.007639113
217	0x3b0c14c9	0.0021374694
218	0xba6390b2	-0.0008680924
219	0xbc688aa1	-0.014193208
220	0x3b16fcdb	0.0023038897
221	0xbcdbf61a	-0.026850749
222	0x3d0acb23	0.033885133
223	0xbe0747a1	-0.13210918
224	0x3db52d32	0.08846511
225	0x3e05e9ea	0.13077512
226	0x3d13c3f1	0.036075536
227	0xbd30889a	-0.043099023
228	0xbc80936e	-0.0156953
229	0xbc40c876	-0.011766544
230	0xb9bf18c9	-0.00036448825
231	0xbc8927fd	-0.0167427
232	0x3b21eeed	0.0024709061
233	0x3b4578bf	0.0030131785
234	0xbb492f88	-0.0030698497
235	0x3a9c51f2	0.0011926277
236	0xbc5f5b1d	-0.013632563
237	0xbcd8ab5c	-0.026448898
238	0xbd09a0be	-0.03360056
239	0xbbcebb08	-0.006308917
240	0x3c1bda49	0.009512492
241	0x3d1e420c	0.038637206
242	0x3d19ad54	0.037518814
243	0x3cc811f4	0.024422623
244	0x3ba3736c	0.0049881246
245	0x3b2b19a7	0.002610782
246	0xbc5548dc	-0.013017859
247	0x3cb4e162	0.022080127
248	0x3d3f5633	0.046713065
249	0x3c99a263	0.01875419
250	0xbd2a9a8b	-0.04165129
251	0x3dd0d247	0.10196357
252	0xbc4e6cd9	-0.0125991935
253	0xbe147eca	-0.14501491
254	0xbb577451	-0.0032875726
255	0xbadcda96	-0.0016849812

encoder.bias f4 [128]
0	0xbf2a4283	-0.6650774
1	0x3d859c74	0.06523982
2	0x3c8a7d7c	0.016905539
3	0x3cb68f12	0.022285018
4	0xbda08639	-0.07838101
5	0x3d91ef47	0.07125717
6	0xbc2ca01a	-0.010536218
7	0x3dd5a8e1	0.10432602
8	0x3d7a265a	0.06107173
9	0x3e09f94a	0.13474002
10	0x3e154f61	0.14581062
11	0xbf00f4f7	-0.50373787
12	0x3cccd79f	0.02500516
13	0x3e02bbc4	0.1276694
14	0x3d21cef7	0.039504018
15	0xbdc49df2	-0.09600438
16	0x3db0a22d	0.086246826
17	0x3dda2788	0.10652071
18	0xbca6eae4	-0.020375676
19	0x3cb802b7	0.022462232
20	0xbe6ba09a	-0.23010483
21	0x3e475a97	0.19468151
22	0xbd84d012	-0.06484999
23	0xbdf09474	-0.11747065
24	0x3c86321d	0.016381318
25	0x3d48138a	0.04884676
26	0x3dd51798	0.10404891
27	0xbe482d93	-0.19548635
28	0x3e847334	0.25869143
29	0x3d32e1c0	0.043672323
30	0x3d40b25a	0.04704509
31	0xbcf1e7b7	-0.029529436
32	0x3c2fdd1a	0.010733867
33	0x3dfca0c2	0.123353496
34	0xbe0ae6fc	-0.13564676
35	0x3d8f70ef	0.07003962
36	0x3e182b85	0.14860351
37	0x3db53cb3	0.08849468
38	0x3e59aea4	0.21258026
39	0x3e0c479a	0.13699189
40	0xbef8cada	-0.48592263
41	0x3e773594	0.24141532
42	0x3dadc228	0.08484298
43	0x3d57aae1	0.052653197
44	0x3d8e4950	0.06947577
45	0xbb055cdd	-0.002034954
46	0x3db2ea9d	0.08736155
47	0xbbfaac91	-0.007649966
48	0xbde0c7f2	-0.109756365
49	0x3e603a81	0.21897317
50	0xbe2000c0	-0.15625286
51	0xbe39562e	-0.18099281
52	0x3cffdda7	0.031233622
53	0x3dc84253	0.09778275
54	0xbdec56ae	-0.1153997
55	0x3d9662ad	0.0734304
56	0xbd73ca8c	-0.059519336
57	0xbda874af	-0.08225381
58	0x3d383ef5	0.044981916
59	0xbdbdb42c	-0.09262881
60	0x3de3af59	0.11117429
61	0x3c9b4893	0.018955505
62	0x3ddc0a4d	0.10744152
63	0x3de4bfb6	0.111693785
64	0x3e0557a8	0.1302172
65	0x3d4267fc	0.04746245
66	0xbe8d5971	-0.276073
67	0x3bdf84d9	0.0068212566
68	0x3ede20ea	0.43384486
69	0xbe78d8b9	-0.24301423
70	0x3dde1bc9	0.10845143
71	0xbb1009b4	-0.002197844
72	0x3dc82112	0.09771933
73	0x3eaf6c10	0.34262133
74	0x3ac8a656	0.0015308361
75	0x3d32cfb6	0.04365512
76	0x3e2395dd	0.15975137
77	0xbe0277ae	-0.12740967
78	0x3e12cc6b	0.14335792
79	0x3e2fba99	0.17161025
80	0x3b262ba1	0.0025355595
81	0x3d39b258	0.045336097
82	0xbe612a75	-0.21988852
83	0x3dd11c01	0.102104194
84	0x3d9c0d5f	0.07619738
85	0x3dd62cb9	0.10457749
86	0x3dd243c2	0.1026683
87	0x3c7f0708	0.015565641
88	0xbd7f857b	-0.062383156
89	0xbe91c193	-0.28467998
90	0xba803db5	-0.0009784015
91	0xbcc464c7	-0.023973836
92	0x3c7dd6f7	0.015493146
93	0xbdf85036	-0.12124674
94	0xbe1515d4	-0.14559108
95	0xbe8692a4	-0.26283753
96	0x3c91a629	0.017779427
97	0x3e7f8b1d	0.24955411
98	0x3e961b66	0.29317778
99	0x3d666ce6	0.056256197
100	0x3d8b9ffa	0.068176225
101	0x3cdf72f5	0.027276495
102	0xbcc644bb	-0.024202695
103	0x3e157b0e	0.14597723
104	0xbd8e12e7	-0.06937199
105	0x3d84d973	0.06486788
106	0xbc6dc966	-0.014513349
107	0x3d4a2208	0.04934886
108	0xbeb8270e	-0.35967296
109	0x3ea57c20	0.32321262
110	0xbe236ea5	-0.15960176
111	0x3e712300	0.23548508
112	0x3e1a4f21	0.15069248
113	0x3e0b1e3f	0.13585757
114	0xbd594913	-0.053048205
115	0x3e04ff2e	0.12987968
116	0x3f1971fb	0.59939545
117	0x3e118840	0.14212132
118	0xbe48fbc2	-0.19627288
119	0x3df5c308	0.1200009
120	0xbe15cd8b	-0.1462919
121	0x3e8804db	0.26566204
122	0x3e093c9a	0.13402024
123	0x3e0f6b78	0.1400584
124	0x3dbd6172	0.09247102
125	0xbb66325d	-0.0035125234
126	0x3d45d672	0.048300214
127	0xbec78560	-0.38968945

decoder.weight f4 [784, 128]
0	0xbe670788	-0.22561467
1	0xbe67abea	-0.22624174
2	0xbe93a0db	-0.2883366
3	0xbe7b04c4	-0.24513537
4	0xbe526368	-0.20545733
5	0xbe6b8bdc	-0.23002571
6	0xbe3bb606	-0.18331155
7	0xbe4fc4fd	-0.20289989
8	0xbe8c2095	-0.27368608
9	0xbecee538	-0.40409255
10	0xbe67d4f4	-0.22639829
11	0xbe54af60	-0.20770025
12	0xbe304c62	-0.17216638
13	0xbe60abee	-0.21940586
14	0xbec52730	-0.3850646
15	0xbe56e1ee	-0.20984623
16	0xbe719c9e	-0.23594901
17	0xbe66f346	-0.22553739
18	0xbe7794d1	-0.24177863
19	0xbe7aae11	-0.24480464
20	0xbe425b72	-0.18980196
21	0xbe57ec99	-0.21086349
22	0xbeba3b92	-0.36373574
23	0xbe3d053b	-0.18459027
24	0xbe52df23	-0.20592932
25	0xbe8a8001	-0.27050784
26	0xbe9e9a98	-0.3097732
27	0xbe2fdf37	-0.17174993
28	0xbe4bbf37	-0.19897161
29	0xbea152a3	-0.3150836
30	0xbea7e2b7	-0.32790157
31	0xbe68ff96	-0.22753748
32	0xbe3fc5c5	-0.18727787
33	0xbebc9976	-0.3683583
34	0xbe374053	-0.17895631
35	0xbe58d330	-0.21174312
36	0xbe554e47	-0.20830642
37	0xbe88f485	-0.26749054
38	0xbe6a3ae6	-0.2287403
39	0xbe752148	-0.23938477
40	0xbe40fb98	-0.18845975
41	0xbe8d530f	-0.2760243
42	0xbe7bab75	-0.24577124
43	0xbe4669d5	-0.19376309
44	0xbe8e2428	-0.2776196
45	0xbe55b229	-0.20868744
46	0xbe475169	-0.1946465
47	0xbe62070c	-0.22073
48	0xbe2af825	-0.16696222
49	0xbe931f36	-0.2873475
50	0xbe408339	-0.18800057
51	0xbe4ee63b	-0.20205013
52	0xbea1b47d	-0.31583014
53	0xbe4cdf58	-0.20007074
54	0xbe4728b0	-0.19449115
55	0xbec85c9d	-0.39133158
56	0xbe557431	-0.20845105
57	0xbe41b7e4	-0.18917805
58	0xbe831c73	-0.25607643
59	0xbe353bf9	-0.17698659
60	0xbe9ae63a	-0.30253774
61	0xbe7c6cb2	-0.24650839
62	0xbe732d1b	-0.23747675
63	0xbe920b31	-0.28524163
64	0xbe52a36c	-0.20570153
65	0xbe225874	-0.15854055
66	0xbe4c29bd	-0.19937797
67	0xbe57828e	-0.21045896
68	0xbea54a8b	-0.32283434
69	0xbe86e867	-0.26349184
70	0xbe7aa2d8	-0.24476182
71	0xbe8aca2e	-0.27107376
72	0xbe78be31	-0.24291302
73	0xbe6598d1	-0.22421576
74	0xbe65a985	-0.22427948
75	0xbe622aae	-0.22086594
76	0xbe5218f1	-0.20517327
77	0xbe29d6af	-0.16585802
78	0xbe926969	-0.28596047
79	0xbe42748d	-0.18989773
80	0xbe61fcc0	-0.22069073
81	0xbe5c0ac1	-0.21488477
82	0xbe683511	-0.22676493
83	0xbe5a8d68	-0.21343005
84	0xbe64b8f2	-0.22336176
85	0xbecb3d5f	-0.3969526
86	0xbe392d1d	-0.18083616
87	0xbe47064d	-0.19435997
88	0xbe45bc32	-0.19310072
89	0xbe52a655	-0.20571263
90	0xbebef22e	-0.37294143
91	0xbe1bfc1b	-0.1523289
92	0xbe132d21	-0.14372684
93	0xbe355bf6	-0.17710862
94	0xbe66e689	-0.2254888
95	0xbe1377f6	-0.1440123
96	0xbe426071	-0.18982102
97	0xbe986ddc	-0.29771316
98	0xbe88113e	-0.26575655
99	0xbe6e64f3	-0.23280697
100	0xbe4af644	-0.19820505
101	0xbe60e63f	-0.21962832
102	0xbe4a6ee5	-0.19768865
103	0xbe5a1b73	-0.21299534
104	0xbe59b854	-0.21261722
105	0xbe76d1e2	-0.24103501
106	0xbe1dfb42	-0.15427878
107	0xbec13598	-0.377362
108	0xbe3c13be	-0.18366906
109	0xbe7cb312	-0.24677685
110	0xbe38436d	-0.17994471
111	0xbe7d5017	-0.24737583
112	0xbe69f05f	-0.228456
113	0xbe8eaa5b	-0.27864346
114	0xbe280a68	-0.1641022
115	0xbea08fde	-0.31359762
116	0xbe90fed9	-0.28319433
117	0xbe7aad07	-0.24480067
118	0xbe80d252	-0.25160462
119	0xbe5f8883	-0.21829419
120	0xbe611a6c	-0.21982735
121	0xbe8747c3	-0.26421937
122	0xbe7c681b	-0.24649088
123	0xbe56fd97	-0.20995174
124	0xbe8c947e	-0.2745704
125	0xbe628a45	-0.22123058
126	0xbe6e00a3	-0.2324243
127	0xbe47ebfd	-0.19523616
128	0xbe670788	-0.22561467
129	0xbe67abea	-0.22624174
130	0xbe93a0db	-0.2883366
131	0xbe7b04c4	-0.24513537
132	0xbe526368	-0.20545733
133	0xbe6b8bdc	-0.23002571
134	0xbe3bb606	-0.18331155
135	0xbe4fc4fe	-0.2028999
136	0xbe8c2095	-0.27368608
137	0xbecee538	-0.40409255
138	0xbe67d4f4	-0.22639829
139	0xbe54af60	-0.20770025
140	0xbe304c62	-0.17216638
141	0xbe60abee	-0.21940586
142	0xbec5272f	-0.38506457
143	0xbe56e1ee	-0.20984623
144	0xbe719c9f	-0.23594902
145	0xbe66f346	-0.22553739
146	0xbe7794d1	-0.24177863
147	0xbe7aae10	-0.24480462
148	0xbe425b72	-0.18980196
149	0xbe57ec9a	-0.2108635
150	0xbeba3b92	-0.36373574
151	0xbe3d053b	-0.18459027
152	0xbe52df24	-0.20592934
153	0xbe8a8000	-0.2705078
154	0xbe9e9a99	-0.30977324
155	0xbe2fdf38	-0.17174995
156	0xbe4bbf37	-0.19897161
157	0xbea152a3	-0.3150836
158	0xbea7e2b7	-0.32790157
159	0xbe68ff95	-0.22753747
160	0xbe3fc5c5	-0.18727787
161	0xbebc9976	-0.3683583
162	0xbe374053	-0.17895631
163	0xbe58d330	-0.21174312
164	0xbe554e46	-0.2083064
165	0xbe88f484	-0.2674905
166	0xbe6a3ae6	-0.2287403
167	0xbe752148	-0.23938477
168	0xbe40fb97	-0.18845974
169	0xbe8d530f	-0.2760243
170	0xbe7bab74	-0.24577123
171	0xbe4669d5	-0.19376309
172	0xbe8e2428	-0.2776196
173	0xbe55b229	-0.20868744
174	0xbe475168	-0.19464648
175	0xbe62070c	-0.22073
176	0xbe2af825	-0.16696222
177	0xbe931f36	-0.2873475
178	0xbe408339	-0.18800057
179	0xbe4ee63b	-0.20205013
180	0xbea1b47d	-0.31583014
181	0xbe4cdf58	-0.20007074
182	0xbe4728b0	-0.19449115
183	0xbec85c9d	-0.39133158
184	0xbe557430	-0.20845103
185	0xbe41b7e3	-0.18917803
186	0xbe831c73	-0.25607643
187	0xbe353bf9	-0.17698659
188	0xbe9ae63b	-0.30253777
189	0xbe7c6cb3	-0.2465084
190	0xbe732d1b	-0.23747675
191	0xbe920b31	-0.28524163
192	0xbe52a36c	-0.20570153
193	0xbe225874	-0.15854055
194	0xbe4c29bc	-0.19937795
195	0xbe57828f	-0.21045898
196	0xbea54a8b	-0.32283434
197	0xbe86e867	-0.26349184
198	0xbe7aa2d8	-0.24476182
199	0xbe8aca2f	-0.2710738
200	0xbe78be31	-0.24291302
201	0xbe6598d0	-0.22421575
202	0xbe65a986	-0.2242795
203	0xbe622aae	-0.22086594
204	0xbe5218f1	-0.20517327
205	0xbe29d6af	-0.16585802
206	0xbe926969	-0.28596047
207	0xbe42748d	-0.18989773
208	0xbe61fcc0	-0.22069073
209	0xbe5c0ac1	-0.21488477
210	0xbe683512	-0.22676495
211	0xbe5a8d68	-0.21343005
212	0xbe64b8f2	-0.22336176
213	0xbecb3d60	-0.39695263
214	0xbe392d1c	-0.18083614
215	0xbe47064d	-0.19435997
216	0xbe45bc32	-0.19310072
217	0xbe52a654	-0.20571262
218	0xbebef22e	-0.37294143
219	0xbe1bfc1c	-0.15232891
220	0xbe132d21	-0.14372684
221	0xbe355bf6	-0.17710862
222	0xbe66e688	-0.22548878
223	0xbe1377f6	-0.1440123
224	0xbe426070	-0.189821
225	0xbe986ddc	-0.29771316
226	0xbe88113f	-0.26575658
227	0xbe6e64f3	-0.23280697
228	0xbe4af644	-0.19820505
229	0xbe60e63f	-0.21962832
230	0xbe4a6ee5	-0.19768865
231	0xbe5a1b74	-0.21299535
232	0xbe59b854	-0.21261722
233	0xbe76d1e2	-0.24103501
234	0xbe1dfb42	-0.15427878
235	0xbec13598	-0.377362
236	0xbe3c13bf	-0.18366908
237	0xbe7cb311	-0.24677683
238	0xbe38436d	-0.17994471
239	0xbe7d5018	-0.24737585
240	0xbe69f05f	-0.228456
241	0xbe8eaa5b	-0.27864346
242	0xbe280a68	-0.1641022
243	0xbea08fde	-0.31359762
244	0xbe90fed9	-0.28319433
245	0xbe7aad07	-0.24480067
246	0xbe80d252	-0.25160462
247	0xbe5f8883	-0.21829419
248	0xbe611a6c	-0.21982735
249	0xbe8747c3	-0.26421937
250	0xbe7c681b	-0.24649088
251	0xbe56fd97	-0.20995174
252	0xbe8c947e	-0.2745704
253	0xbe628a45	-0.22123058
254	0xbe6e00a3	-0.2324243
255	0xbe47ebfe	-0.19523618

decoder.bias f4 [784]
0	0xc05168fd	-3.272033
1	0xc05168fd	-3.272033
2	0xc05168fd	-3.272033
3	0xc05168fd	-3.272033
4	0xc05168fd	-3.272033
5	0xc05168fd	-3.272033
6	0xc05168fd	-3.272033
7	0xc05168fd	-3.272033
8	0xc05168fd	-3.272033
9	0xc05168fd	-3.272033
10	0xc05168fd	-3.272033
11	0xc05168fd	-3.272033
12	0xc0515bad	-3.2712204
13	0xc05148e3	-3.2700737
14	0xc0516b1a	-3.272162
15	0xc051697d	-3.2720635
16	0xc05168fd	-3.272033
17	0xc05168fd	-3.272033
18	0xc05168fd	-3.272033
19	0xc05168fd	-3.272033
20	0xc05168fd	-3.272033
21	0xc05168fd	-3.272033
22	0xc05168fd	-3.272033
23	0xc05168fd	-3.272033
24	0xc05168fd	-3.272033
25	0xc05168fd	-3.272033
26	0xc05168fd	-3.272033
27	0xc05168fd	-3.272033
28	0xc05168fd	-3.272033
29	0xc05168fd	-3.272033
30	0xc05168fd	-3.272033
31	0xc05168fd	-3.272033
32	0xc05154a4	-3.270791
33	0xc0512e91	-3.2684672
34	0xc0517aef	-3.2731283
35	0xc051734d	-3.2726624
36	0xc050e78c	-3.2641325
37	0xc0508fa6	-3.2587676
38	0xc02dce26	-2.7157073
39	0xbffd627b	-1.9795679
40	0xc0019d1d	-2.0252144
41	0xc000000e	-2.0000033
42	0xbff81950	-1.9382725
43	0xc01aaf92	-2.416966
44	0xc0299f00	-2.6503296
45	0xc04b600f	-3.177738
46	0xc04f230b	-3.2365139
47	0xc04f5cd7	-3.2400415
48	0xc04fa56e	-3.244472
49	0xc050f723	-3.265084
50	0xc05137b0	-3.269024
51	0xc0515afb	-3.271178
52	0xc05168fd	-3.272033
53	0xc05168fd	-3.272033
54	0xc05168fd	-3.272033
55	0xc05168fd	-3.272033
56	0xc05168fd	-3.272033
57	0xc05168fd	-3.272033
58	0xc0516787	-3.2719438
59	0xc0516752	-3.2719312
60	0xc051635e	-3.27169
61	0xc0514495	-3.269811
62	0xc05166b3	-3.2718933
63	0xc0338c3a	-2.8054338
64	0xbfe1b15d	-1.7632252
65	0xbfa357bc	-1.276115
66	0xbf99db5d	-1.2020069
67	0xbf88b52b	-1.0680288
68	0xbf8a0ea7	-1.0785722
69	0xbf679f4d	-0.9047745
70	0xbf5bb420	-0.85821724
71	0xbf648180	-0.892601
72	0xbf549fcf	-0.8305635
73	0xbf4c5d74	-0.798301
74	0xbf3db165	-0.7409881
75	0xbf63e1d7	-0.8901648
76	0xbf718c90	-0.94355106
77	0xbf89f98b	-1.077928
78	0xbfb2d9b4	-1.3972688
79	0xc04fde16	-3.24793
80	0xc05123cf	-3.2678106
81	0xc0516ac8	-3.2721424
82	0xc05168fd	-3.272033
83	0xc05168fd	-3.272033
84	0xc05168fd	-3.272033
85	0xc05168fd	-3.272033
86	0xc051603c	-3.2714987
87	0xc0515e8b	-3.2713954
88	0xc051550a	-3.2708154
89	0xc0506ee9	-3.2567694
90	0xc0201cc7	-2.5017564
91	0xbfb21460	-1.3912468
92	0xbf92f201	-1.1480104
93	0xbfa02ee8	-1.2514315
94	0xbfa69ac0	-1.3015976
95	0xbf9c77a5	-1.2224013
96	0xbfa7c96b	-1.3108343
97	0xbfa9a0e9	-1.3252231
98	0xbfa17b40	-1.2615738
99	0xbf9b3a16	-1.2127101
100	0xbf87502e	-1.0571344
101	0xbf6a28f4	-0.9146874
102	0xbf475abf	-0.7787284
103	0xbf661c25	-0.89886695
104	0xbf819dec	-1.0126319
105	0xbf95ca7a	-1.1702416
106	0xbfacdcf8	-1.3504934
107	0xbfc147c4	-1.5100026
108	0xc03830c4	-2.8779764
109	0xc051361c	-3.2689276
110	0xc0515d52	-3.2713208
111	0xc05168fd	-3.272033
112	0xc05168fd	-3.272033
113	0xc0516807	-3.2719743
114	0xc0514cfa	-3.2703233
115	0xc0515bc0	-3.271225
116	0xc050ffd8	-3.2656155
117	0xbfdb307f	-1.7124175
118	0xbf996457	-1.1983746
119	0xbf84d32d	-1.0376946
120	0xbf93c78b	-1.1545271
121	0xbfa3b02f	-1.2788142
122	0xbf92f3ea	-1.1480687
123	0xbf74acee	-0.9557637
124	0xbf66669e	-0.9000033
125	0xbf489507	-0.783524
126	0xbf3216f5	-0.6956628
127	0xbf44ce58	-0.76877356
128	0xbf1ed5f1	-0.620452
129	0xbf1007ff	-0.562622
130	0xbf07a6e9	-0.5298906
131	0xbf53fd61	-0.828085
132	0xbf69753c	-0.9119451
133	0xbf6ff6a2	-0.93735707
134	0xbf56d96a	-0.839255
135	0xbf7c1193	-0.98464316
136	0xbf84d53a	-1.0377572
137	0xc03f62fb	-2.9904163
138	0xc0514f51	-3.270466
139	0xc0516d1f	-3.2722852
140	0xc05168fd	-3.272033
141	0xc05168fd	-3.272033
142	0xc05107e1	-3.266106
143	0xc050e900	-3.2642212
144	0xbfcb41c8	-1.587945
145	0xbf8ad8c7	-1.0847405
146	0xbf60cac8	-0.8780942
147	0xbf7d2e06	-0.9889835
148	0xbf80b8b7	-1.005637
149	0xbf87bcb0	-1.0604458
150	0xbf8a70f4	-1.081572
151	0xbf7779e7	-0.96670383
152	0xbf354a0a	-0.708161
153	0xbee82198	-0.4533813
154	0xbf139c8d	-0.5766075
155	0xbf0b86b6	-0.5450243
156	0xbed02e3b	-0.4066027
157	0xbeb019a4	-0.34394562
158	0xbee825a7	-0.45341226
159	0xbf58209d	-0.84424764
160	0xbf6ef70e	-0.93345726
161	0xbf40e45a	-0.75348437
162	0xbf44a4dc	-0.76814055
163	0xbf3edfd2	-0.7456027
164	0xbf5d9abc	-0.8656423
165	0xbf9eee53	-1.2416481
166	0xc04f9390	-3.2433815
167	0xc0516e13	-3.2723434
168	0xc05168fd	-3.272033
169	0xc0516892	-3.2720075
170	0xc050feff	-3.2655637
171	0xc0145817	-2.3178766
172	0xbf600ff9	-0.8752437
173	0xbf586582	-0.8452989
174	0xbf6ac410	-0.9170542
175	0xbf67cb3b	-0.9054448
176	0xbf8d43ae	-1.1036279
177	0xbf94cd23	-1.1625103
178	0xbf8a77d4	-1.0817819
179	0xbf54638a	-0.82964385
180	0xbef2f2e0	-0.47450924
181	0xbe7e85ed	-0.24855776
182	0xbe6554de	-0.22395656
183	0xbe1a3088	-0.15057576
184	0xbdc99a7f	-0.09843921
185	0xbd4beef9	-0.04978845
186	0xbe48010f	-0.19531654
187	0xbf0df103	-0.5544588
188	0xbf6ccae3	-0.9249708
189	0xbf8cea1d	-1.1008946
190	0xbf6fbae0	-0.93644524
191	0xbf58ff2c	-0.8476436
192	0xbf81d0cd	-1.0141846
193	0xbf91cbf1	-1.1390363
194	0xbfe99168	-1.82475
195	0xc0514054	-3.2695513
196	0xc0516945	-3.2720501
197	0xc0512e91	-3.2684672
198	0xc04bc279	-3.1837447
199	0xbf8a915b	-1.0825609
200	0xbf38d000	-0.7219238
201	0xbf66a838	-0.9010043
202	0xbf92b2c6	-1.1460807
203	0xbfa2ac9f	-1.270893
204	0xbfa33581	-1.2750703
205	0xbf980113	-1.1875328
206	0xbf68ef48	-0.90990114
207	0xbef14b01	-0.47127536
208	0xbe56da0c	-0.20981616
209	0xbe0cedd9	-0.13762607
210	0x3d0a10bf	0.033707377
211	0x3e88e9cc	0.26740873
212	0x3e877766	0.2645828
213	0x3e28f3e4	0.16499287
214	0xbd279ff6	-0.040924035
215	0xbec67767	-0.38762972
216	0xbf578d9c	-0.84200454
217	0xbf886570	-1.0655956
218	0xbf8f58b1	-1.1198941
219	0xbf8ccdf3	-1.1000351
220	0xbf98cb4e	-1.1937044
221	0xbf8d403c	-1.1035228
222	0xbfb85033	-1.4399475
223	0xc0508541	-3.2581332
224	0xc0513512	-3.2688642
225	0xc04fffec	-3.2499952
226	0xbf9d6bed	-1.2298561
227	0xbf56e997	-0.8395018
228	0xbf59289e	-0.848276
229	0xbf9b4b18	-1.2132292
230	0xbfad839c	-1.3555789
231	0xbfa528b8	-1.2903051
232	0xbf8e26be	-1.1105573
233	0xbf555bff	-0.833435
234	0xbeedc041	-0.4643574
235	0xbe82e3e8	-0.25564504
236	0xbe6c6d73	-0.23088627
237	0xbe364791	-0.17800738
238	0x3dd546bb	0.104138814
239	0x3e741c75	0.2383898
240	0x3e771f2e	0.24132988
241	0x3d45f248	0.04832676
242	0x3d305fe1	0.043060187
243	0xbe264342	-0.16236594
244	0xbf412bf2	-0.7545768
245	0xbf6d66b2	-0.92734826
246	0xbf845a43	-1.0340046
247	0xbf8dfafb	-1.1092218
248	0xbf8b32f2	-1.0874922
249	0xbf81168d	-1.0085007
250	0xbfc15133	-1.5102905
251	0xc050a033	-3.2597778
252	0xc0512c8e	-3.2683444
253	0xc03dbdb7	-2.9647043
254	0xbf8cf9f1	-1.1013776
255	0xbf6a9237	-0.91629356
