VAE.pth (torch, 905841 bytes, 22 tensors)

encoder_shared.0.weight f4 [128, 784]
000000 72 03 c7 21 86 3b 39 a1 f0 d5 a3 a1 72 f5 5a a1
       1.3485676e-18 -6.2759217e-19 -1.1101938e-18 -7.4186117e-19
000010 3b 6a 90 1f 50 11 95 a1 5b 43 09 a1 26 37 01 a1
       6.1162116e-20 -1.0101215e-18 -4.650655e-19 -4.377989e-19
000020 25 f6 74 a0 95 5b 8f 21 99 a0 b9 a1 18 4f 8f a1
       -2.0749046e-19 9.714298e-19 -1.2578597e-18 -9.710993e-19
000030 c4 a4 7a be 10 b6 82 be 4d 9f 66 be a7 3b 66 be
       -0.24476916 -0.25529528 -0.22521706 -0.22483693
000040 7b c6 c0 21 26 29 fe 20 7a 77 c4 a1 ca b5 a9 21
       1.3062963e-18 4.3056503e-19 -1.3313102e-18 1.1500005e-18
000050 14 a7 97 a1 f9 aa 52 a1 b9 32 c0 21 43 89 91 a0
       -1.0276383e-18 -7.137705e-19 1.3023852e-18 -2.4654788e-19
000060 e6 0f 01 a1 d1 6b 95 a1 cb 24 99 a0 0b 33 97 20
       -4.372794e-19 -1.0125171e-18 -2.5943556e-19 2.5614172e-19
000070 8f 23 8b 20 a4 17 ef a0 68 ac c5 21 95 79 96 a1
       2.3571047e-19 -4.050382e-19 1.3394875e-18 -1.0196578e-18
000080 a3 db 87 be 12 f4 89 be 3a c0 9b be d9 2e 2b be
       -0.26534757 -0.26944023 -0.30420095 -0.1671709
000090 24 76 0c bd 84 44 8a be fd 53 13 bf 67 4f dd be
       -0.034292355 -0.27005398 -0.5755003 -0.43224642
0000a0 32 a2 39 be fe a8 5b be f7 3b b9 be b1 fb f9 be
       -0.18128279 -0.21451184 -0.36178562 -0.48824838
0000b0 f1 b9 39 be 39 2a 9a 3d 89 45 05 3d 0f b4 7c bd
       -0.18137337 0.075275846 0.032537017 -0.061695155
0000c0 98 5d 87 be 47 8e 70 3d 86 95 09 3e 75 e8 63 3c
       -0.26438594 0.058729436 0.13435945 0.013910403
0000d0 98 1d 1b a1 8d e3 3a 20 7f 66 34 21 63 6a 86 21
       -5.255521e-19 1.5830103e-19 6.1122025e-19 9.108354e-19
0000e0 61 c4 ac a1 54 19 66 a0 41 7e db bc 4d c7 ea bb
       -1.1707154e-18 -1.9490138e-19 -0.026793601 -0.007164872
0000f0 9c 02 5b 3e 3a 49 a9 be 05 b9 b3 be a2 01 0c be
       0.21387714 -0.3306368 -0.35102096 -0.13672498
000100 a5 45 e2 bd f4 c2 90 be d1 ce b9 be 1c c4 be be
       -0.1104844 -0.28273737 -0.362906 -0.37258995
000110 6a e7 d2 be df fa a8 be ae 5f 45 be 20 25 35 b8
       -0.4119218 -0.330039 -0.1927478 -4.3188338e-05
000120 f3 3c c1 bd da 9d f5 3c 9a cb 4f bd fc d2 7b 3d
       -0.09435453 0.029982496 -0.05073128 0.061480507
000130 56 87 a3 bd 0d d8 0c be 7d ce 2b be f9 2d 29 3d
       -0.07984798 -0.13754292 -0.16777988 0.04130361
000140 1d f5 f5 bd 1c 67 6b be 5a 22 40 a1 95 9d b6 a0
       -0.12009642 -0.22988552 -6.5097594e-19 -3.0936278e-19
000150 87 47 01 21 75 58 b3 a1 a5 11 96 bc 60 37 15 be
       4.3801566e-19 -1.2152926e-18 -0.01831896 -0.14571905
000160 2f f0 0e 3e e4 8e 77 be 5d a5 1c be 42 f8 92 bd
       0.1395881 -0.24175602 -0.15297456 -0.07176258
000170 1e 80 d9 bd d8 99 87 bc 12 47 19 be 24 72 b4 be
       -0.106201395 -0.01655285 -0.14968517 -0.35243332
000180 c7 ec 95 be 6a 48 c6 bd 72 21 a9 bc 23 4a 4e 3e
       -0.2928221 -0.09681781 -0.02064583 0.20145468
000190 a9 1a 33 3e 43 b5 af 3e d2 87 7d 3e af d9 98 3d
       0.17490639 0.3431798 0.24758843 0.07463395
0001a0 c0 2e 2b 3e 4b be 1c 3e 0a 34 07 3e 7d 94 bb 3d
       0.16717052 0.15306966 0.13203445 0.09159181
0001b0 f4 f2 03 be 31 5c 35 bd 71 1b bf 3c bd a9 10 a1
       -0.12885648 -0.044277374 0.023328515 -4.9013745e-19
0001c0 58 c1 c9 a1 00 10 a4 a1 2f 7a 26 3d 7c c3 db bd
       -1.3671467e-18 -1.1117307e-18 0.040643867 -0.10730645
0001d0 8d 24 85 3d 8b cc d6 bd c1 e3 9c 3c ea ff 13 3b
       0.06501112 -0.10488232 0.01915157 0.0022582957
0001e0 0e 29 8a be c1 52 4b be d4 73 49 be af 6e c9 be
       -0.26984447 -0.19855787 -0.19673091 -0.39342257
0001f0 74 a0 5c be 07 61 82 be ae 5f eb bd 8c 3c 9c 3d
       -0.21545583 -0.2546465 -0.11492859 0.07628736
000200 ac ca a9 3d 90 7a eb 3d b8 8a 3b 3e 7e 92 48 3e
       0.0829061 0.11497986 0.18314636 0.19587132
000210 82 75 9c 3e b7 58 26 3e a9 f2 a8 3d 3f 63 2f 3e
       0.305584 0.1624478 0.08249409 0.17127703
000220 20 1d e5 bd 4c 83 06 be 63 c4 c8 3d e8 0e 0e be
       -0.11187196 -0.13136023 0.09803083 -0.13872874
000230 b9 69 9d a1 44 4d 1e 21 b4 b6 59 3d 13 0b 01 bd
       -1.0666718e-18 5.363474e-19 0.053152755 -0.0315047
000240 56 1f 7d bd 68 fa ed 3d d3 59 bc bd 5f 3a 64 be
       -0.061797462 0.11620027 -0.0919682 -0.22287892
000250 a1 69 c4 be b3 9f fe be f3 bc ae be b9 d6 d2 be
       -0.38361838 -0.49731216 -0.34128532 -0.41179445
000260 c0 71 df be 24 96 a9 be 56 58 1d be 35 c5 14 be
       -0.43641472 -0.3312236 -0.15365729 -0.14528354
000270 db b8 92 bd 2b 45 7e bc 23 f9 fc bc a4 40 7a 3c
       -0.07164165 -0.015519421 -0.030880516 0.015274201
000280 09 d8 f8 3d 06 81 8a 3d 67 d4 cf 3d 1c f3 38 bd
       0.121505804 0.067628905 0.101479344 -0.045153722
000290 cc 23 5f 3d b5 43 cc 3b 9c 95 44 be 69 fc bc 3d
       0.054477498 0.0062336572 -0.19197696 0.09227831
0002a0 23 45 56 a1 ae 9c 9c 34 c4 02 4a 3d 9d af 1e bc
       -7.259752e-19 2.9171264e-07 0.049319044 -0.009685424
0002b0 eb 95 0e 3e 94 fe 66 3e 7c 27 72 bd 0d 86 4a be
       0.13924377 0.22558051 -0.059119686 -0.19777699
0002c0 33 6d b6 be b0 9a fc be 6f e8 0d bf 97 35 dd be
       -0.35630187 -0.49336767 -0.5543279 -0.43204948
0002d0 88 5c 90 be 18 67 3d be 89 4a 12 be c8 25 0d be
       -0.28195596 -0.18496358 -0.14286245 -0.13783944
0002e0 bc 9b 99 be e9 99 5b be 15 04 18 be 13 4e ec bc
       -0.30001628 -0.21445431 -0.14845307 -0.028845822
0002f0 f5 30 de 3d a5 a7 bd bd cd 9a 3a be bc 68 d9 be
       0.108491816 -0.09260491 -0.18223114 -0.42462718
000300 15 fe e0 be e2 19 03 be 7a 7c 4c bd 4c 8a 6b 3e
       -0.4394385 -0.12802842 -0.049923398 0.23001975
000310 d7 b3 7a 21 2b 07 36 bd 19 ab b2 bc 88 8c 5c be
       8.494131e-19 -0.04444043 -0.021810101 -0.21537983
000320 7b c1 d3 3d c0 a8 97 bc 66 b2 4c be 10 22 c5 be
       0.10339638 -0.018513083 -0.19989929 -0.3850255
000330 46 fb df be 18 e5 db be ae c9 b7 be 2f a7 97 be
       -0.43746394 -0.42948222 -0.35896057 -0.29619738
000340 a6 53 51 be 8f e2 f5 bd f7 8a 17 be d5 ef 86 be
       -0.20442066 -0.12006103 -0.14799105 -0.26354852
000350 82 a9 cc be 40 1e 98 be 1f 1d 8a be e9 13 eb bd
       -0.39973074 -0.2971058 -0.26975343 -0.11478407
000360 24 2b 0c be fa c1 8f be 7d 8b 04 be 2b 4a 6d be
       -0.13688332 -0.2807768 -0.12943836 -0.23172824
000370 fd fe 33 be 07 f9 96 3d 17 6a 32 3d 9b a0 32 3e
       -0.17577739 0.07371717 0.043558206 0.17444079
000380 cf 8b 4d 3e c9 29 de bd 7b 7b 8f be 3d 13 70 be
       0.20072864 -0.10847814 -0.28023896 -0.23444839
000390 50 c5 04 bd d4 5f 0f bd bf 62 21 be e7 27 db bd
       -0.032414734 -0.0350035 -0.15760325 -0.1070097
0003a0 41 bc a5 be 52 5a ac be c6 ea 64 be 6c 81 c9 bd
       -0.3237019 -0.3366266 -0.22355184 -0.098391384
0003b0 d9 a6 98 bc 55 99 98 bd 88 52 29 bd 84 2a 72 be
       -0.018634247 -0.07451121 -0.041338474 -0.23649031
0003c0 85 4c 85 be dd b8 88 be b7 65 76 be 72 d1 2e be
       -0.26034942 -0.2670354 -0.24062239 -0.17072085
0003d0 d4 ba 69 be f2 f6 1a be 32 22 70 be fc 1d e3 bd
       -0.22825176 -0.15133265 -0.23450544 -0.110897034
0003e0 d5 c9 26 be 5c 89 3f be 69 f1 8a 3e b3 ca 2c 3e
       -0.1628793 -0.18704742 0.27137306 0.16874199
0003f0 c0 7e fd b9 66 91 05 3d 76 df 81 be c8 6d 7b bd
       -0.00048350357 0.032609366 -0.253658 -0.061383992

encoder_shared.0.bias f4 [128]
000000 4e c4 1b 3f e4 67 4d be 45 fd 83 b8 58 a2 82 b5
       0.6084641 -0.20059162 -6.293742e-05 -9.733003e-07
000010 70 78 39 bd 12 a1 07 bd c5 7b 01 3e ab 80 53 b6
       -0.045280874 -0.033112593 0.1264487 -3.1516345e-06
000020 4f 6a c8 3e 17 6d d8 be c4 9d db be b9 4b 61 b2
       0.39143607 -0.4227073 -0.42893803 -1.3113941e-08
000030 21 66 67 bc 61 6c 82 b9 b9 9f e4 bb 8e fd a0 be
       -0.0141234705 -0.0002487628 -0.0069770482 -0.31443447
000040 a5 e0 04 bd 2e 8f e4 3d ad 02 8a 3e b1 cc 55 b3
       -0.0324408 0.11160122 0.26955166 -4.9779093e-08
000050 b1 74 c5 b6 ac a4 b6 af 68 39 67 3e 35 2a 8c 3b
       -5.884642e-06 -3.3222614e-10 0.22580492 0.0042774924
000060 40 93 e9 3d 75 61 96 ba da aa aa 3e 7f 6b 70 3e
       0.11405039 -0.0011473136 0.33333474 0.23478507
000070 b9 d6 6a 3e 53 ca 08 b8 08 2e 27 3c 4b 29 1c be
       0.22933473 -3.2613356e-05 0.010203846 -0.15250127
000080 fa 1a 8a b9 62 de 5c b0 c6 9b 3c 3f 50 6e 86 bc
       -0.0002634151 -8.035156e-10 0.7367519 -0.016410023
000090 5d eb 9e 3e a3 84 49 3e 88 cf ed bc 77 e9 03 bd
       0.31038943 0.19679503 -0.029029623 -0.03220507
0000a0 58 aa aa b2 96 7c 90 3e b2 a5 45 bd d5 e9 81 3e
       -1.9868068e-08 0.28220052 -0.048253722 0.25373712
0000b0 70 4e e1 3d 19 dd 10 3e 70 c0 15 3e 6b 08 02 bd
       0.11001289 0.14146842 0.1462419 -0.03174631
0000c0 9c d3 86 bb 76 03 e2 bc 9f b0 30 3f 3f ce b2 b2
       -0.0041145813 -0.02758954 0.690195 -2.0815717e-08
0000d0 80 2a 45 3e b9 9d 02 bd 8d e8 80 3d 2e 9f 43 3e
       0.19254494 -0.031888697 0.062943555 0.19103691
0000e0 43 71 1e b9 a4 98 cf 3e 89 4c 33 bc a8 4c 12 3f
       -0.00015110247 0.40546143 -0.01094354 0.5714822
0000f0 de d8 e5 be dc 7a 95 af 53 96 d3 3e 69 78 29 3e
       -0.4489202 -2.719024e-10 0.41325626 0.16549839
000100 80 d3 45 b1 63 85 86 3f 97 85 2b be 9e 4c 5d b2
       -2.8787497e-09 1.0509456 -0.16750179 -1.2881314e-08
000110 68 eb 00 bd 19 0c 49 3f 4e b4 9c 3f 22 64 22 3f
       -0.0314745 0.78534085 1.2242525 0.6343404
000120 95 c4 3a 3f b3 49 05 3f 1e d2 ab b9 69 16 c6 ba
       0.7295621 0.5206558 -0.0003277221 -0.001511288
000130 d9 26 fb 3e a4 af 45 3e c8 30 69 3e 93 7d 89 b4
       0.49053076 0.19305283 0.22772515 -2.5609606e-07
000140 50 89 f7 30 55 fb f6 b3 dc 4b 92 bc 6c b3 63 b7
       1.8010642e-09 -1.1500985e-07 -0.017858438 -1.3572029e-05
000150 22 c1 45 3f 44 f5 8a 3f f6 39 00 b2 52 a2 27 3e
       0.7724782 1.0856099 -7.463759e-09 0.16370514
000160 88 cc c7 3e dd f3 47 bc 3a 46 27 b1 5f cb 62 b0
       0.39023232 -0.012204138 -2.4341618e-09 -8.250733e-10
000170 23 0a a6 b2 f8 46 b7 3e 34 88 50 ba 52 61 0d bd
       -1.9329553e-08 0.35796332 -0.0007954866 -0.03451664
000180 e0 81 df b2 02 a1 81 3e 4d 5a 27 3d 00 19 e0 3d
       -2.6019677e-08 0.25318152 0.040857602 0.10942268
000190 39 85 09 bd 9e 59 0f 3f 33 2a b8 3e 6b 93 e1 39
       -0.033574317 0.5599612 0.35969695 0.0004302518
0001a0 84 dd 10 ba 11 b6 63 3d 8d 04 9e bd fc 08 97 3e
       -0.00055261725 0.055593554 -0.07715712 0.29499042
0001b0 52 f4 f6 b0 e1 b4 df 3e 58 a6 bc 3e bf c8 9a b4
       -1.7968296e-09 0.43692687 0.3684566 -2.8830797e-07
0001c0 13 8b 44 b6 5a f3 c7 3e 65 63 0b b1 b6 fd c5 bc
       -2.9287228e-06 0.3905285 -2.0283661e-09 -0.02416883
0001d0 58 63 12 3f 8e ca b8 bc d1 02 e3 b5 77 f0 d6 3e
       0.57182837 -0.022557523 -1.6913638e-06 0.41980335
0001e0 d9 1d 0a 35 c3 1a b2 bd c6 98 68 3e 21 f7 f6 bc
       5.145244e-07 -0.08696511 0.22714528 -0.030147137
0001f0 60 63 c0 3a ac f9 a5 3e 1e 50 1b 3f 17 82 f1 3e
       0.0014678054 0.32417047 0.60669124 0.47169563

encoder_shared.2.weight f4 [64, 128]
000000 cc 00 69 bd f4 27 c2 3a 30 8a 12 ab 97 5a 44 30
       -0.056885526 0.0014812932 -5.2061393e-13 7.143312e-10
000010 51 92 86 3d 31 bf 1d 3d 89 f4 a0 3e 7d 25 a8 ad
       0.065708764 0.038512412 0.31436566 -1.9116037e-11
000020 c0 37 24 bd 4c 92 67 bc a2 a7 82 bd 87 e4 51 b0
       -0.04009223 -0.014134001 -0.0637963 -7.6358514e-10
000030 bc a8 b3 af c7 89 79 ac 1b 9e 7c 2f 6f b7 67 3c
       -3.2679803e-10 -3.546151e-12 2.2975437e-10 0.014142855
000040 70 f8 cb 2f 9e b4 2a be 7b de 06 bd 91 61 26 2f
       3.710201e-10 -0.16670462 -0.032927018 1.5132275e-10
000050 c2 52 7b aa ee 31 32 ae a7 2d 21 3e 17 06 be 2d
       -2.2321991e-13 -4.051686e-11 0.15740071 2.1603204e-11
000060 82 88 b0 3c 3c bf 70 ae 91 67 13 3d a9 39 da 3d
       0.021549467 -5.4739532e-11 0.03598744 0.10655529
000070 9a fd 97 bc fa 6d 40 b1 20 e6 62 be cc 74 93 bd
       -0.018553544 -2.8002192e-09 -0.22158098 -0.072000116
000080 67 58 94 30 8b 0e 1e af 10 24 c8 bd c2 e4 92 ac
       1.0793543e-09 -1.4375183e-10 -0.097725034 -4.174967e-12
000090 11 42 2b be bc d6 2d be f8 ad 7d 3d d0 15 e4 bc
       -0.16724421 -0.16976446 0.061933488 -0.027842432
0000a0 40 c7 d5 30 42 e3 96 be cd 6a 4a bc 84 d8 af bd
       1.555442e-09 -0.2947026 -0.012354565 -0.08586219
0000b0 19 33 0b be 96 cd 87 bd 4e 2d c1 3d 7c 0b 45 bc
       -0.13593711 -0.06631009 0.09432469 -0.012026664
0000c0 b6 47 c7 2b 4c a0 8d b0 c4 b7 e9 3d f5 0c d2 2f
       1.4159704e-12 -1.0304659e-09 0.11412004 3.8207984e-10
0000d0 53 6f 22 3b 23 68 af aa 68 33 52 be 07 cd 3e 3e
       0.0024785593 -3.1158504e-13 -0.20527422 0.18632899
0000e0 f0 c9 1e ad 03 60 f2 3c 74 fa 4c 2e d7 c2 e9 3d
       -9.026099e-12 0.029586798 4.6606677e-11 0.11414116
0000f0 ad 7b 27 bd d4 d6 00 28 e2 a6 2b bd a2 0b 27 3d
       -0.04088943 7.152011e-15 -0.0419072 0.04078258
000100 23 e2 49 b0 ff 71 98 3d d6 55 08 be e7 29 fa 2e
       -7.3444734e-10 0.07443618 -0.13313994 1.1376127e-10
000110 fa d4 38 ae 36 da e5 3c 41 ca f0 bd f2 e1 7f be
       -4.2025917e-11 0.028058153 -0.11757327 -0.24988535
000120 d5 e8 e9 3d 1b 17 2a 3e 7b 8e 17 ad 9a a8 07 2f
       0.11421362 0.16610377 -8.614993e-12 1.2338078e-10
000130 f6 3d 18 3e e8 de e8 bc 4d 1b 2b bd aa 94 a7 30
       0.14867386 -0.028426602 -0.041774083 1.2193102e-09
000140 a8 78 b9 b1 c0 ba 8e 2e dd cb 70 3b de c7 5c a1
       -5.3979257e-09 6.490586e-11 0.0036742606 -7.480342e-19
000150 b0 3b a5 3e 89 08 3b be 5e 3d 0d 2f 80 27 54 3d
       0.322721 -0.18264975 1.2845677e-10 0.051795483
000160 f5 75 81 bc 7a 52 17 3d c2 72 39 2d b7 13 7b 2d
       -0.015803317 0.03694389 1.0541514e-11 1.4272076e-11
000170 61 d8 8e b0 5c fb 05 3d 23 e7 98 ae 62 5b 08 3d
       -1.0393358e-09 0.032710418 -6.953218e-11 0.033290274
000180 1a a0 47 ad f5 d3 16 be 80 ee 14 bf 34 90 27 3d
       -1.134739e-11 -0.14729293 -0.5817642 0.040909007
000190 d3 18 6d 30 eb fc 01 3e 37 f9 94 be ff 0e c3 29
       8.6255375e-10 0.12694137 -0.29096386 8.662341e-14
0001a0 e2 81 7e 22 a1 8f 15 be c8 ae 84 bd dd 35 2b be
       3.4492178e-18 -0.14605571 -0.064786494 -0.16719766
0001b0 ae 82 ae ad f3 f9 8b bd aa d1 5a be 47 62 bd ae
       -1.9839543e-11 -0.068347834 -0.21369043 -8.6121825e-11
0001c0 e3 9b a6 2e 59 40 8d bc 91 01 1f ab 6b 9f 87 31
       7.576497e-11 -0.017242597 -5.649032e-13 3.947141e-09
0001d0 92 59 f6 3c 10 5c 3a bd 18 83 22 b0 33 e9 03 3d
       0.030072007 -0.045497954 -5.912155e-10 0.032204818
0001e0 da be 3f 30 85 4a 7e bd 2f d3 8d 3b 1a 1e 8f ad
       6.975661e-10 -0.062082786 0.0043281536 -1.6270586e-11
0001f0 a6 b7 e4 3c 31 1c 34 bc 58 7c b0 be dc c1 e4 bd
       0.027919602 -0.0109930495 -0.34469867 -0.11169788
000200 b3 22 16 be 6c 28 b0 be b6 a6 03 2c 0c 0b c1 32
       -0.14661674 -0.3440584 1.8708763e-12 2.247318e-08
000210 6b a7 1b 3c 4e de 2a bd 29 6f b6 3d f7 0e 6e 29
       0.009500365 -0.041715913 0.08907921 5.2859596e-14
000220 cd 81 01 3c 95 69 0e be f1 30 f7 bd a0 43 5e af
       0.007904482 -0.13907464 -0.12069882 -2.0214808e-10
000230 72 71 6e 2e 7b 18 40 2b a1 b9 2d 2c cf 4e 83 be
       5.4215694e-11 6.8246076e-13 2.4687823e-12 -0.25646064
000240 1e b4 d6 2d 01 84 64 bd a5 39 29 3e 9c a8 db 2d
       2.4408971e-11 -0.05578995 0.16525896 2.4972295e-11
000250 ea ec a3 ab 86 6c 9b 2c 0b 15 2f 3e d6 b2 ad b8
       -1.1647603e-12 4.4174135e-12 0.17097871 -8.2825936e-05
000260 25 33 66 be 90 01 bd b8 d2 9d c4 3d 6d fe 48 bd
       -0.22480448 -9.012513e-05 0.09600414 -0.049070764
000270 78 9e af 3b 36 1a 96 b0 e0 f9 9b bd 4f 0e 95 be
       0.005359467 -1.0921386e-09 -0.07616019 -0.2911248
000280 21 d5 cc b0 97 a4 48 ae 57 5d 74 3c 33 f1 a9 2b
       -1.4903528e-09 -4.562092e-11 0.014914832 1.2075118e-12
000290 52 51 9a bc ce 26 ff bc d1 01 6c 3d 6b 6d ac 3c
       -0.018837605 -0.031146433 0.05761892 0.021048268
0002a0 65 b3 52 ad 9c 66 aa be 2b 8d 9b 3b 4b d2 bb be
       -1.19769515e-11 -0.3328141 0.004747053 -0.36683878
0002b0 21 61 2b b5 a8 af fd bc c5 a7 95 be 64 91 4a 3b
       -6.3843805e-07 -0.030967548 -0.2922956 0.0030909413
0002c0 04 ff 19 29 4f fb 09 2e 92 1b 3c bf c1 c2 48 af
       3.4194015e-14 3.13734e-11 -0.7347957 -1.8259085e-10
0002d0 2c 7e 71 bd 35 58 8e a9 d2 1d 25 be 78 dc a7 3d
       -0.058958218 -6.321368e-14 -0.16124657 0.08196348
0002e0 5c 54 0d ab 2a ec 45 be 59 2a 5b 2e 4a 24 5f be
       -5.0210335e-13 -0.1932837 4.9832447e-11 -0.21791187
0002f0 75 08 4a be 2b f9 f7 27 58 23 30 be a8 5b 5b 3e
       -0.19729789 6.882642e-15 -0.17200983 0.21421683
000300 83 38 3a ae e0 30 a0 bd e3 26 eb be 48 de 05 ae
       -4.2341696e-11 -0.07821822 -0.45928106 -3.0438124e-11
000310 d5 bc 44 b0 7c 6e be bd ea e6 7a be 8d a0 c6 3c
       -7.157273e-10 -0.09298417 -0.24502149 0.024246478
000320 3b 07 43 3d f2 26 84 be 93 9b 10 ac 41 b3 78 b9
       0.047614317 -0.25810963 -2.0549992e-12 -0.000237179
000330 a0 e6 31 be 54 c8 f0 be 40 77 9c bd f4 ff 77 30
       -0.17373133 -0.47027838 -0.07639933 9.022181e-10
000340 24 c9 6f b0 e8 70 98 ac c6 95 c2 3c ba 7f 45 a2
       -8.723353e-10 -4.332635e-12 0.023753058 -2.6766096e-18
000350 39 d1 66 3d 13 75 c7 bc e5 56 12 ad 20 5b 1b be
       0.056351874 -0.024347818 -8.318434e-12 -0.1517148
000360 b9 41 97 be 14 27 e3 bc 70 61 8f 2a d9 5f 2d ae
       -0.2954233 -0.027728595 2.5469514e-13 -3.9420776e-11
000370 2c 35 da 30 eb 4e aa bd 62 30 46 2d c5 d3 c5 bc
       1.58767e-09 -0.08315834 1.126574e-11 -0.024148831
000380 0e 40 06 ac 30 a9 fd 3d fc 18 dc 3d a4 27 02 bc
       -1.9078103e-12 0.123857856 0.10746953 -0.007944021
000390 e2 88 9a ac e5 24 fb 3d 91 98 54 be 06 11 30 b2
       -4.3921403e-12 0.122628964 -0.20761324 -1.0248419e-08
0003a0 3a 2a d0 20 95 3d c9 3c 06 dd 6e be 81 4c e7 3d
       3.5264514e-19 0.024565497 -0.23326501 0.11293889
0003b0 7e cd 95 ac 66 d6 0e be 7c 04 68 be 7e f8 1a af
       -4.257649e-12 -0.13948974 -0.2265796 -1.40945e-10
0003c0 5c ed 08 ae ac 32 4e be aa 3d 94 b0 00 32 45 2f
       -3.1133637e-11 -0.20136517 -1.0785943e-09 1.7934809e-10
0003d0 fa 96 d1 bb 55 bf 37 3d 7b 6d 71 31 57 53 62 be
       -0.0063961716 0.044860203 3.5132348e-09 -0.22102104
0003e0 6a 23 ff 2d 62 e8 53 3d 3d d3 ac be 98 24 21 2c
       2.900587e-11 0.05173529 -0.33754912 2.289979e-12
0003f0 8e 3c 19 be 86 23 87 bd f9 61 80 be 92 96 9d be
       -0.14964506 -0.065985724 -0.25074747 -0.3077894

encoder_shared.2.bias f4 [64]
000000 3a 02 64 bc ec 39 c5 3a e0 2b 1e be c9 6f a8 3f
       -0.0139165465 0.0015047169 -0.15446424 1.3159114
000010 a0 37 31 3f 9f 36 8b bd ad a3 3d be 55 75 92 bd
       0.692255 -0.067975275 -0.18519469 -0.071512856
000020 85 f4 93 3f 61 60 77 be 7e 51 c5 bc 0e 68 1f 3e
       1.1558996 -0.2415786 -0.02408671 0.15567037
000030 3d 42 1f 3d d6 b1 90 3e 81 59 3b 3f da c2 8a 3f
       0.03888153 0.28260678 0.7318345 1.0840714
000040 5f b2 09 be f3 ed e0 3d 9b f8 07 3f 9b 3b 6c 3e
       -0.1344695 0.10982885 0.53113717 0.23069613
000050 d9 ba 8c 3f fc a2 6c be c4 be c8 bd a3 51 09 be
       1.0994521 -0.23109049 -0.09802011 -0.13410048
000060 d8 97 ef 3d 3a ed d8 3e 6e 4c 23 be b0 9e 7a bd
       0.11698884 0.4236849 -0.15947124 -0.061186492
000070 64 52 59 3f 4e 7d 32 be 46 7e ab 3d 65 7c e3 3c
       0.84891343 -0.17430612 0.08373694 0.027769277
000080 c4 3c 00 3f 4b 68 c0 3b 67 7b 7d 3f 47 56 4e be
       0.5009272 0.0058718077 0.9901642 -0.201501
000090 f3 d9 b8 3e e6 42 0b 3e 88 28 1e bd 09 92 bb 3f
       0.36103782 0.13599738 -0.038612872 1.4653941
0000a0 64 c6 37 3f 7b 63 84 3d 22 ea dd 3e 3b 23 ae 3e
       0.71787095 0.06464287 0.43342692 0.34011254
0000b0 d3 ef b4 3e f8 03 49 3e 37 40 7d bd 6a 5e 14 3e
       0.3533922 0.1963042 -0.06182882 0.14489141
0000c0 b3 ef 46 3f 03 37 bb 3e aa 43 03 be c0 ff 19 bd
       0.777095 0.36565408 -0.1281878 -0.037597418
0000d0 e0 1d 74 3f e6 37 0d bd 12 35 89 3e f0 0f 8d 3f
       0.95358086 -0.034477137 0.26798302 1.1020489
0000e0 22 bc 31 bf b3 73 99 bd c8 59 8c 3d 9f a3 91 3e
       -0.6942769 -0.07492771 0.06853062 0.28445145
0000f0 ba e2 1c 3e fe d0 75 3e c6 a2 fd 3d 23 1c 10 3f
       0.15320864 0.24005505 0.12384562 0.56292933

encoder_shared.4.weight f4 [36, 64]
000000 a7 a8 34 a2 fc ff a1 b5 18 d7 c7 a2 c2 30 72 b8
       -2.4483833e-18 -1.2069936e-06 -5.4166797e-18 -5.7742705e-05
000010 41 00 63 b9 92 aa 8a a2 47 2f bd 20 87 fe 97 a1
       -0.00021648502 -3.7585573e-18 3.204913e-19 -1.0299531e-18
000020 a6 5a 81 b9 df dc 0e ae 85 c0 aa 1f 2b 5e f4 b5
       -0.00024672336 -3.2483235e-11 7.23163e-20 -1.8206823e-06
000030 e7 0d e0 b8 0a c1 52 b9 bb 77 cb b8 0d 3b 98 b9
       -0.00010683742 -0.00020099073 -9.702096e-05 -0.00029035695
000040 09 0e 59 22 52 40 aa b8 9b b8 16 ba 31 e4 03 a2
       2.9416414e-18 -8.118212e-05 -0.0005749554 -1.7874614e-18
000050 f6 87 be b9 f8 0f e5 a0 44 04 57 21 fe 01 c1 a2
       -0.00036340923 -3.8804676e-19 7.285048e-19 -5.2314864e-18
000060 59 6c bb b7 4a 82 4b b8 9f 08 92 22 c3 e4 4f b9
       -2.234259e-05 -4.8520313e-05 3.9582507e-18 -0.00019826279
000070 28 d0 66 ba a2 7c 38 a2 d5 89 82 b7 31 83 ba b9
       -0.00088048214 -2.500263e-18 -1.556139e-05 -0.0003557443
000080 27 a3 47 b9 aa 3c 35 b9 04 8e 09 ba bb 83 7e a0
       -0.00019038898 -0.00017284104 -0.0005247297 -2.1558223e-19
000090 71 d7 d5 38 e5 89 31 b9 f6 1f e1 21 d6 20 de b9
       0.000101967606 -0.00016931405 1.5255053e-18 -0.00042367604
0000a0 ed 96 f0 b8 fc bb 6b b9 27 d4 75 b9 93 23 e6 b9
       -0.00011472204 -0.00022481376 -0.00023444054 -0.00043895523
0000b0 44 78 7e b9 50 cf 2f b9 fd d9 a0 a2 49 fc 39 b7
       -0.0002426813 -0.0001676653 -4.359889e-18 -1.1085599e-05
0000c0 74 73 0b b8 da 79 81 b9 a5 a7 8e a2 5f 98 1f 35
       -3.3247707e-05 -0.00024695584 -3.8666678e-18 5.9453845e-07
0000d0 2a e6 18 ba 9c da 68 b8 07 54 36 b9 22 95 d8 b9
       -0.0005832637 -5.5516706e-05 -0.00017388175 -0.00041309843
0000e0 33 09 ee 20 4a 3a 7d a2 d2 70 2d b8 bd 86 2f b9
       4.0324856e-19 -3.4318752e-18 -4.1351486e-05 -0.00016739494
0000f0 c1 65 02 b9 02 1f c0 b9 54 8e 2d ba 30 92 84 b6
       -0.00012435672 -0.00036644196 -0.0006620635 -3.950925e-06
000100 cb 65 65 3c bf 62 0d 3d 27 50 ae a2 ff d2 0d 3c
       0.01400132 0.034518 -4.724766e-18 0.008656262
000110 55 c0 db bb 4c fa 12 b0 b4 f7 98 27 79 1c 02 3d
       -0.0067062774 -5.3470184e-10 4.2457035e-15 0.031765435
000120 e9 14 1a bd 45 5d 62 a2 a3 1e 47 3d 89 27 98 bb
       -0.037617598 -3.0678088e-18 0.0486132 -0.004643385
000130 a1 05 a5 ae 06 46 0b be b1 42 30 bc 92 8c f1 bc
       -7.504331e-11 -0.1360093 -0.010758088 -0.029485974
000140 87 4a 94 29 49 56 04 bd b1 6f a7 bd e8 cf 9d bc
       6.585449e-14 -0.03230885 -0.081756 -0.019264176
000150 8f 5e 25 be c0 eb 01 3d 31 46 fa aa 26 f9 aa 29
       -0.16149352 0.03171897 -4.4457626e-13 7.592737e-14
000160 af 1d 02 3d 1d bc d3 bb e9 7b 45 ab 77 73 34 3c
       0.03176659 -0.006461634 -7.016042e-13 0.011013857
000170 0f 97 d2 bd 4f 4b ff 2b 7f 20 49 bc da 79 62 bd
       -0.102827184 1.8139742e-12 -0.012275814 -0.055291988
000180 3c 4b 04 be 5f 10 77 bd 7f e0 21 be 3a b1 3b 21
       -0.12919325 -0.060318347 -0.15808295 6.359262e-19
000190 32 37 71 3d a8 d0 02 bd 1e cc 66 af df b7 ff bd
       0.05889053 -0.03193727 -2.0990895e-10 -0.124862425
0001a0 f3 31 7b bc 0c aa 7b bd fb f1 64 bd 07 47 fe bd
       -0.015331733 -0.061441466 -0.055894833 -0.12415891
0001b0 d8 42 2f bd 54 09 f0 bd b1 78 29 ac f8 f0 81 bc
       -0.042788357 -0.11720529 -2.4083342e-12 -0.015861973
0001c0 bb 10 1d be a6 72 04 bd 27 78 94 3b 91 29 31 bc
       -0.15338413 -0.0323359 0.004530925 -0.010813133
0001d0 58 af 6a bd 9b e8 02 bc 2b 4e 23 3c 35 d9 d9 bb
       -0.057296127 -0.007990028 0.009967367 -0.0066482075
0001e0 f7 96 60 a2 1c b3 85 2f 87 82 a6 bd 78 e0 8a bd
       -3.043758e-18 2.4319824e-10 -0.08130365 -0.06781095
0001f0 4a 9d 45 3c 29 fe 11 be d3 96 81 bc 9e 93 06 3d
       0.012061426 -0.1425711 -0.015818989 0.032855622
000200 0b 5a 0e bc 42 24 c6 b1 e6 47 9f 21 c2 df 1c bc
       -0.00868846 -5.7666805e-09 1.079329e-18 -0.009574832
000210 ad 10 06 ba e2 b9 ac 30 8f c0 a7 a9 46 9c a6 31
       -0.0005114179 1.2567478e-09 -7.4496934e-14 4.849002e-09
000220 d8 b6 c9 bd a8 54 6b a2 56 21 93 b2 eb 32 c4 b1
       -0.09849328 -3.1893255e-18 -1.7128212e-08 -5.7101395e-09
000230 47 57 8c 3d 1f 02 b0 bd 87 e5 10 be 9d 3c 8e bd
       0.06852584 -0.085941546 -0.14150058 -0.06945155
000240 f3 c5 d2 ad 89 fe e0 ba 0c 51 c2 b0 78 f8 42 af
       -2.3962143e-11 -0.0017165701 -1.4138393e-09 -1.7732471e-10
000250 73 fc 8d bb 97 34 4f 30 05 73 6a b0 0a c5 0b 30
       -0.004333073 7.5380896e-10 -8.5292157e-10 5.0847915e-10
000260 3b 70 6c bd b9 6f f8 bd 1b 88 85 ae 4b a0 36 ad
       -0.05772422 -0.121306844 -6.072317e-11 -1.0381094e-11
000270 12 e5 fa bd 02 f2 40 2e 46 fb d3 b0 d1 be 94 a1
       -0.12250723 4.3870692e-11 -1.5423687e-09 -1.0079379e-18
000280 4e 8c 89 bd 86 8a a3 bc bc 0f 99 bd cb 52 52 a1
       -0.06716214 -0.019963514 -0.07473704 -7.1260343e-19
000290 d3 d1 bf af d3 92 53 bd 0f 90 42 31 91 58 ff bd
       -3.4891787e-10 -0.051653694 2.8312603e-09 -0.124680646
0002a0 c7 30 8f bd a2 81 7a bc 7f e0 8a 3a 3f cd 0a b1
       -0.069917254 -0.015289696 0.001059547 -2.0198312e-09
0002b0 e4 0a d5 a2 d0 22 8c b0 f0 a1 19 ae d0 63 0f b1
       -5.7745297e-18 -1.0196235e-09 -3.4932002e-11 -2.0865976e-09
0002c0 a5 5f fa bd 74 bf f3 b1 4f 53 a0 bb 9d 31 a4 b1
       -0.12225274 -7.0939965e-09 -0.0048927437 -4.7786686e-09
0002d0 0c d7 8b 3c ac d5 82 bd 17 22 e2 bc 03 d0 3e bd
       0.017070316 -0.06388411 -0.027604146 -0.046585094
0002e0 38 f3 41 ab fd 37 4e b2 ba b3 dd 29 c7 20 16 be
       -6.890491e-13 -1.2003508e-08 9.845549e-14 -0.14660941
0002f0 bb 44 81 bd 5d 11 ac bd b7 17 1d bd 9b 40 be 32
       -0.063119374 -0.08401749 -0.038352694 2.214829e-08
000300 cf 0c d4 a2 a6 ca d3 2b a6 7b 4c a2 23 d3 4a 3d
       -5.7476277e-18 1.5048698e-12 -2.7712614e-18 0.049517762
000310 9f 45 0c b6 73 74 62 ac f6 93 24 a2 e1 7e 74 b4
       -2.090215e-06 -3.2181174e-12 -2.2304474e-18 -2.2770429e-07
000320 44 8e 6d b5 52 68 29 22 e4 05 20 33 8d 11 09 af
       -8.8496404e-07 2.2958998e-18 3.725826e-08 -1.2466313e-10
000330 a6 4b 3c 3d 5f ff 3c 3d 78 60 76 b6 fa c1 09 be
       0.04597058 0.04614198 -3.6713009e-06 -0.13452902
000340 28 4b ad 22 be b1 bf b5 71 19 f2 bc 22 30 25 21
       4.697132e-18 -1.4282339e-06 -0.029553147 5.596788e-19
000350 a5 18 da bd 22 c0 d4 22 ff 53 8a a1 56 e1 72 a2
       -0.10649232 5.7666144e-18 -9.373477e-19 -3.2916408e-18
000360 dc 3e 9d bd 62 03 f2 20 58 16 14 a2 b3 e4 03 bd
       -0.07678005 4.0998633e-19 -2.0069569e-18 -0.032200526
000370 d2 65 20 be db fb 21 aa 2b ee 35 22 53 f9 29 bd
       -0.15663841 -1.4387052e-13 2.465616e-18 -0.04149754
000380 46 4b a9 35 75 9b 82 35 5e b8 10 be ef c6 9e 21
       1.2613389e-06 9.730999e-07 -0.1413283 1.0759154e-18
000390 4f 6c fb b3 ab d6 09 b4 8a 3f 04 30 94 29 73 3c
       -1.17077995e-07 -1.2837215e-07 4.8111615e-10 0.014841456
0003a0 83 54 25 be 04 fc 14 bd c5 e5 60 bd c4 01 fe bc
       -0.1614552 -0.036373153 -0.054906625 -0.031006701
0003b0 63 fd 0d b6 60 05 56 b4 36 b4 96 22 7a 1c 02 bd
       -2.1158128e-06 -1.9932259e-07 4.0848387e-18 -0.03176544
0003c0 a8 c8 42 3d 35 d8 f7 bc 93 72 ba a2 18 19 85 b3
       0.047554642 -0.030254463 -5.053671e-18 -6.19786e-08
0003d0 fc 0b 32 be d9 1c 02 bd f7 af 8a bd fa 20 e8 bd
       -0.17387384 -0.031765793 -0.06771844 -0.11334415
0003e0 f7 5c 99 22 f4 a0 98 ae b6 87 db bc 89 0a de b4
       4.1569163e-18 -6.940751e-11 -0.02679811 -4.1358388e-07
0003f0 69 30 90 3b f6 b2 25 3d 34 32 1e bd 5e 75 28 ad
       0.004400302 0.040453874 -0.038622096 -9.575755e-12

encoder_shared.4.bias f4 [36]
000000 4c 8a 94 b9 c5 f1 8c 3c eb 6f 42 3d 51 67 d8 bd
       -0.000283318 0.017205128 0.047470015 -0.10566581
000010 f1 52 e9 3e 3d 8c ef 3e cf 56 76 bd 57 eb 4c bd
       0.45571092 0.4678668 -0.06014138 -0.050029125
000020 73 76 92 3f 98 16 8c 3e 16 a2 25 be 5b 87 64 bd
       1.1442398 0.27360988 -0.16175112 -0.055793148
000030 2d 52 e3 bd f2 2e f6 3e 4e 9e 4c 3f c6 06 b7 3e
       -0.11099658 0.4808269 0.79929054 0.35747355
000040 71 3a 08 3f 77 89 ad be dd 06 59 be 68 bb db bd
       0.53214175 -0.3389394 -0.21194024 -0.10729104
000050 21 3b 78 bd d9 97 ed 3e 65 8f 56 3b 28 0e 05 3f
       -0.060603265 0.46404913 0.0032739278 0.51974726
000060 f2 cb 7b bf 52 37 ca 3d 68 58 14 3f c6 86 29 3f
       -0.9835807 0.09873833 0.579474 0.6622127
000070 6d 6b a7 3f be 53 d6 3e eb 65 81 bd 75 10 82 3f
       1.3079659 0.41860765 -0.063182674 1.0161272
000080 62 4a 0e bd 8b 58 da 3e 61 ab e4 bd 0a 69 28 be
       -0.034738906 0.42645678 -0.111655004 -0.16446319

encoder_shared.6.weight f4 [18, 36]
000000 c2 95 91 ba 05 80 00 3c 87 46 3f bc 37 0d 02 bd
       -0.0011107253 0.007843022 -0.01167453 -0.031750884
000010 9c ff 85 bd af f6 8c be 41 66 87 bc 88 8b 3f 3c
       -0.06542894 -0.27531955 -0.01652825 0.011690982
000020 b2 91 30 3e 43 9a 49 3a e6 6f be 3b 7d b9 cf bd
       0.17243078 0.00076905283 0.005811679 -0.10142801
000030 99 b7 ff 3c a3 0b 92 3d 16 04 55 3c 67 a5 e5 bd
       0.031215476 0.07131126 0.013001462 -0.112131886
000040 0f 42 0b be bb f9 6d 3b a0 c5 4e 3c 73 3b 98 bc
       -0.13599418 0.003631218 0.01262036 -0.018583035
000050 08 31 4b 3d 2d ac 80 be 0d 08 a1 bd a9 6f d0 3d
       0.049607307 -0.2513136 -0.07862864 0.101775475
000060 cc 33 a3 3d ef db 41 bd 37 b5 81 be b6 ce 07 3e
       0.07968864 -0.047328886 -0.25333568 0.13262448
000070 f0 03 0e 3d 04 3d a5 3d 37 cb 0d 3c 67 d9 96 3e
       0.034671724 0.080682784 0.008654407 0.2946274
000080 20 9d d3 ba 58 57 c9 bd f1 5a 23 3e 93 0d 47 3d
       -0.0016144849 -0.098311126 0.1595266 0.04859693
000090 4d 5b 76 3a 41 91 58 bd ca 17 e1 bc 3a 15 02 bd
       0.000939776 -0.0528729 -0.027477164 -0.031758524
0000a0 86 5b 9d 3c 2e dc ad bf 09 a7 9f 3c ff 23 2a bb
       0.01920868 -1.3582819 0.019488828 -0.0025961397
0000b0 9a 58 09 3d cb 93 14 3e c3 95 1b ba 2d 3c e5 3d
       0.033531763 0.14509504 -0.0005935097 0.11193118
0000c0 41 51 fb b5 64 09 20 3e d3 b5 da 3d c0 c7 3b bd
       -1.8724605e-06 0.15628582 0.106792115 -0.045844793
0000d0 b4 82 ee be 5d a7 aa bd 15 72 aa 3b 91 f8 d6 bd
       -0.46584094 -0.08332703 0.005201588 -0.10496629
0000e0 5d 0f a9 bc 3d 00 71 be 6f bf c9 bd f4 43 a1 3e
       -0.020637209 -0.23535247 -0.09850966 0.31497157
0000f0 98 07 4a be 7f 68 32 be 81 23 ff be 5b 75 ea 3c
       -0.1972946 -0.17422675 -0.49831775 0.028620413
000100 be 05 18 3e 53 69 2f 3d e1 87 af bc 43 53 aa 3d
       0.1484594 0.042825054 -0.021427097 0.08316662
000110 88 71 11 bc ac a1 09 3e 49 ad 91 bd 6d fd 9b 3c
       -0.008877166 0.13440579 -0.0711313 0.019041741
000120 de 1a fc 22 e4 fb 05 21 56 b1 32 a2 e7 ae 50 22
       6.8333184e-18 4.5395527e-19 -2.421738e-18 2.828185e-18
000130 96 18 30 be 53 5d 28 ba 35 24 df 22 2d 6e 5a 22
       -0.17196879 -0.0006422598 6.0482607e-18 2.9602836e-18
000140 ce 1e e1 bc 83 c8 b1 bd a0 8b da a1 a0 b9 fd 22
       -0.02748051 -0.08680823 -1.4809213e-18 6.8772326e-18
000150 a4 07 0e 23 bb c1 06 3d 57 1b 84 bd 07 38 bf bd
       7.699453e-18 0.0328996 -0.06450527 -0.09336858
000160 fd ee aa bb 4d de 1a bb cc ee b3 38 2c 8e 8b bb
       -0.005216478 -0.0023631037 8.5798645e-05 -0.0042588916
000170 6b 9a 05 22 9e 1d 4f be 66 cb f8 32 b7 70 0b bb
       1.810661e-18 -0.20226142 2.8963495e-08 -0.00212769
000180 ec 4a 93 3d 0f b6 69 37 5e d4 c2 bc 2d 05 0f bd
       0.071920246 1.3930271e-05 -0.023782905 -0.034917045
000190 56 1a 08 bd 06 da 3a bd 73 d8 78 31 a9 ff 1f be
       -0.03322824 -0.04561808 3.6211787e-09 -0.1562487
0001a0 6b b2 14 a1 01 1c bb 3c ca e0 01 3b 6d 18 17 a0
       -5.0380485e-19 0.022840502 0.0019817823 -1.2798279e-19
0001b0 b5 d7 e2 a2 7e e3 96 9e 95 c6 0e 23 58 7c a6 22
       -6.148581e-18 -1.5975956e-20 7.739887e-18 4.5126044e-18
0001c0 46 9e 46 be f0 70 a4 a2 81 00 45 22 27 66 08 23
       -0.19396314 -4.4571866e-18 2.6698745e-18 7.394206e-18
0001d0 f7 95 a1 3d 79 89 17 b9 0a 20 ef a1 fb 1e 03 23
       0.07889932 -0.00014451695 -1.6203751e-18 7.108085e-18
0001e0 97 1d 8f a0 c3 2d e7 3d 16 77 7e bd c8 d2 2f be
       -2.4244723e-19 0.11288025 -0.062125288 -0.1717025
0001f0 86 de 78 37 77 6f 5a bc 9e 03 03 bd 0f dd a1 3d
       1.4833762e-05 -0.013332239 -0.03198587 0.07903492
000200 09 da 03 23 c8 4b 03 be bc 4c c6 a2 9c 51 a6 bd
       7.147695e-18 -0.12821877 -5.3749253e-18 -0.081210345
000210 86 e9 1b b1 2b e6 23 a2 37 eb 83 bc 18 5f 0c bd
       -2.2688211e-09 -2.221247e-18 -0.01610337 -0.034270376
000220 7b 4d 08 be 85 f1 b1 b7 cd 78 80 a0 5d 06 18 be
       -0.13310806 -2.121251e-05 -2.1763983e-19 -0.14846177
000230 fe b3 e8 a2 56 ed b0 3c b7 5f 76 3c a3 d5 e5 a2
       -6.30743e-18 0.021597546 0.015037469 -6.229677e-18
000240 1d d8 90 38 e9 82 5a 3d 67 f4 09 3d 3b 62 ad 3d
       6.906709e-05 0.053347502 0.033680346 0.084660016
000250 29 fb 0f 3d 2e f0 4c bd ae 13 8f bc 63 a0 19 3d
       0.035151634 -0.05003374 -0.017465439 0.037506472
000260 94 a0 23 3e a0 ae d4 bd 49 b5 83 3c 91 c4 2a be
       0.15979224 -0.103848696 0.016077654 -0.16676547
000270 51 58 54 bd 67 61 08 be dc c7 50 be 43 32 af bd
       -0.051842038 -0.13318406 -0.2038874 -0.085545085
000280 6f f0 4a be 21 17 09 3c b2 13 88 3d cb a4 00 3e
       -0.1981828 0.008367331 0.066443816 0.12562864
000290 db a2 18 bd e2 2d 00 be d5 ac b2 3d 79 98 36 be
       -0.037264686 -0.12517503 0.08724371 -0.17831601
0002a0 7c 29 c4 bd f4 ef 09 be 9f ea 3b 3d 5b eb 8c 3d
       -0.09578225 -0.13470441 0.04587805 0.06880828
0002b0 42 0e 9f 3e 47 81 f5 3d 59 d5 1f 3c 07 7f 90 3d
       0.31065565 0.11987548 0.009755456 0.070554785
0002c0 33 bb 9e ba a3 9d 9d bc 73 86 8c bd 8e 4c 96 3d
       -0.0012110233 -0.019240206 -0.06861582 0.073388204
0002d0 9f 43 df 37 99 15 ad bc 75 c5 e0 22 79 10 6e a2
       2.661516e-05 -0.021128463 6.0924387e-18 -3.2263735e-18
0002e0 9d db e4 be af 9f d2 3d 8c 76 df bd 0f 77 c6 30
       -0.44698802 0.102843635 -0.10911283 1.4440235e-09
0002f0 d9 8f 82 3e 49 3f 9f 3d fd 64 64 3c 59 f9 06 a2
       0.25500372 0.077757426 0.013940093 -1.829239e-18
000300 e9 58 39 22 15 fd aa 3d cb 98 a4 3d 1c 3a 85 be
       2.5119244e-18 0.08349053 0.080369554 -0.26020896
000310 44 5e de be 8f 20 5a be b0 0e c4 36 87 9f a2 3d
       -0.43431294 -0.21301483 5.842965e-06 0.07940584
000320 a1 ad fd 2e b4 83 d2 bc 1a 4e f0 22 05 6b de 3c
       1.1535951e-10 -0.025697567 6.5134824e-18 0.02715064
000330 e1 2e e4 bd 64 4d 80 3e 66 3d b7 bd 01 7f d2 3d
       -0.11141754 0.25059044 -0.08947258 0.1027813
000340 22 93 fa bd ff 66 fa bd d7 03 ed 3c 59 99 e0 be
       -0.122350946 -0.12226676 0.028932495 -0.43866995
000350 b7 d7 53 ae db ac c1 be fc 57 3b ba 62 0f 3c bd
       -4.816744e-11 -0.3782719 -0.00071465946 -0.045913108
000360 14 b2 0b 3b a0 9d ff bc 90 14 a3 3c f0 36 8e 3d
       0.002131586 -0.031203091 0.019907266 0.06944072
000370 8e a0 1b 3d 37 03 15 be 0c cc 10 3d 85 d3 0d bd
       0.037994914 -0.14552008 0.035350844 -0.03462555
000380 5f 8f 6f 3e da 92 f6 bd 9b 3c ca 3a d9 a6 9f 3d
       0.23394535 -0.120397285 0.0015429439 0.077954955
000390 55 04 0a bd 92 2f 9a bc a5 da 4d 3e 7b 8e b6 3c
       -0.033695538 -0.018821511 0.20102938 0.022284737
0003a0 63 b3 25 be fc 7e f1 bd d1 60 dc 3d fe e7 02 bc
       -0.16181712 -0.117917985 0.10760654 -0.007989882
0003b0 f3 7b df bc ec 6a bd 3e 9a c5 29 3e 52 c9 17 3e
       -0.027280783 0.36995637 0.16579285 0.14822891
0003c0 c4 92 68 3d 43 dd c8 bd 03 6f cd bd 45 1d c1 bd
       0.05678059 -0.09807827 -0.100309394 -0.09429411
0003d0 ad ab 47 bc 78 b5 a1 bd 90 3f 06 bd 56 9a b0 3d
       -0.012186927 -0.078959405 -0.03277546 0.08623187
0003e0 df 1f f4 bb db d7 1d 3e 42 5d 48 bd f9 1a 22 3d
       -0.0074500884 0.15414374 -0.048917063 0.039576504
0003f0 43 5e 02 3a 07 44 28 bd 29 4e bb 3c 4c fd 01 bd
       0.00049731525 -0.0410805 0.022864418 -0.031735703

encoder_shared.6.bias f4 [18]
000000 0f a4 8f 3d 1f da a4 3e 3e 8e 54 be 97 5e 54 be
       0.070137136 0.32197663 -0.20757386 -0.20739208
000010 dd 8e b1 bd d7 4e 66 bd d5 fe a0 3e 85 b6 d0 3e
       -0.08669827 -0.05622753 0.3144442 0.4076425
000020 35 d0 9b 3d 72 fe 3a bd e1 b0 11 3f 7b 24 28 be
       0.07608072 -0.045652814 0.5691052 -0.16420166
000030 db 16 7f bc 5e e4 cd bd 9d 0e f4 bd d3 24 f4 3e
       -0.015569414 -0.10053323 -0.1191685 0.47684345
000040 5a 42 d9 3e 29 d0 68 be
       0.42433435 -0.22735657

fc_mu.weight f4 [9, 18]
000000 7b d1 91 3b 58 58 f5 b9 88 84 e6 3c 33 0a 32 3e
       0.004450021 -0.00046795863 0.028139368 0.17386703
000010 ac f7 89 bb f0 49 1f bc 49 9d 19 ba c3 e5 42 ba
       -0.004210433 -0.009722218 -0.0005859924 -0.000743475
000020 a9 e5 1e 3b e2 44 8a bd 63 59 47 b9 94 11 09 3c
       0.0024245775 -0.067514196 -0.00019011418 0.008366007
000030 ab 2b 03 3e f5 4a 98 3b 5d ca c8 b6 f7 4b 71 3a
       0.12809627 0.0046476074 -5.9840227e-06 0.000920474
000040 22 97 5a 3b 7d 7b 17 3d b2 51 35 3b 4d 2a 8a 3b
       0.0033354242 0.036983002 0.0027667102 0.0042164684
000050 6e 94 18 3d 63 1f 7a bc 0d e2 f4 ba 7b d4 31 bb
       0.03725093 -0.015266272 -0.0018683091 -0.0027134705
000060 a5 c6 e9 b9 3e 99 fc 39 48 b1 09 3b 9c 73 44 39
       -0.00044589225 0.0004817936 0.002101021 0.00018735084
000070 e4 e0 1f bb de 5f 9b 3d 94 b0 3d 3c a1 10 22 3b
       -0.002439552 0.075866446 0.011577744 0.002472915
000080 e8 ef 75 3c cd 46 09 3c 64 f7 35 bb 43 7b ce 3d
       0.015010811 0.008378697 -0.0027765865 0.10082104
000090 7f b3 00 ba e5 e6 9a bb a7 79 d6 3c 94 08 f8 bd
       -0.00049095595 -0.004727232 0.026181055 -0.12111011
0000a0 04 f5 33 3c 9a be 25 bc d2 64 00 ba 20 55 5b bb
       0.010983709 -0.010116244 -0.0004897836 -0.0033467487
0000b0 e5 da 54 3b ae 29 be bc 24 cc 9d 3b 1b db 33 3e
       0.0032479104 -0.023213234 0.004815595 0.17564051
0000c0 40 76 cb 3d 63 5f 03 bc 12 9f 11 bd fa 15 f3 3b
       0.09934664 -0.008018347 -0.035552092 0.0074183913
0000d0 81 1a 19 bb 31 dc f6 bb d0 2a 88 bb 5e 4c 63 3b
       -0.0023361745 -0.007533573 -0.0041554943 0.003468297
0000e0 4d 82 18 bc 80 f7 1d be ec 86 41 ba 34 c1 6d 3c
       -0.00930841 -0.15426445 -0.00073824706 0.014511395
0000f0 1f e9 0f bc 0e 63 52 b9 b3 87 96 3a cb fe c9 bc
       -0.008783608 -0.00020064061 0.0011484533 -0.024657628
000100 dc ae 80 bb b0 ff a9 bd 40 7b 44 be eb c9 49 3b
       -0.003927095 -0.08300722 -0.19187641 0.0030790519
000110 de 2f 45 bc e9 d6 b3 39 49 33 59 3b 9a d7 c1 bd
       -0.012035338 0.0003430166 0.003314214 -0.09464951
000120 2d 95 ff bc 4d 9e 1b 3b 7a 73 9c 3d f3 48 1a bc
       -0.031199062 0.0023745478 0.07639213 -0.0094168065
000130 27 3c 59 3c 7a f9 5b be 2e 85 36 3e 3d 18 15 bf
       0.01325897 -0.21481887 0.17824242 -0.5824011
000140 fd 79 5d 3e 38 ab 5d be 19 17 0f be 25 48 32 bd
       0.21628566 -0.21647346 -0.13973655 -0.043525834
000150 f5 07 ce 3b ea 52 29 bc ff 0d 31 3c 2a 89 14 3e
       0.0062875696 -0.01033471 0.01080656 0.14505449
000160 c7 6b d6 be 7a 44 0c be 41 48 a3 3a 1b ed af bb
       -0.41879103 -0.13697997 0.0012457446 -0.0053688413
000170 f7 71 3b 3c 18 dd f1 bd b1 d2 8c bb 03 be 8f bc
       0.011440746 -0.118097484 -0.0042975773 -0.01754666
000180 74 ce fd 39 a3 d4 b3 bb 5e 8e 1c 3b 97 11 29 bc
       0.0004840974 -0.0054879948 0.0023888568 -0.010319135
000190 84 43 8b bb ea 06 2b bd 49 16 8a bd 0d ed be bb
       -0.004249992 -0.04175464 -0.06742532 -0.0058265985
0001a0 4a a2 ae 3b b9 1b a2 3b 7f c5 b1 3b 12 19 6c bd
       0.005329405 0.0049471525 0.0054251547 -0.057641096
0001b0 26 7e 5e be ce 50 06 bf c7 cb 1f bd 65 75 00 3e
       -0.2172781 -0.5246705 -0.039012697 0.12544782
0001c0 79 89 68 3d 61 6d 6d bd 4d b1 ec bd ad 92 6f 3d
       0.05677173 -0.05796564 -0.11557255 0.05848949
0001d0 94 b2 86 3e 1e a6 41 bd 85 df 6a 3a 8e 3c df bd
       0.2630812 -0.047277562 0.00089596986 -0.10900222
0001e0 9d 18 12 3d 2a 5b 87 3e 1b 71 5c bc 00 01 bd bc
       0.035668004 0.2643674 -0.013454701 -0.023071766
0001f0 85 25 70 3d 85 d6 39 be cd e4 7f 3b 43 a5 07 3b
       0.05862953 -0.18148239 0.0039046288 0.002069787
000200 9a d4 af 3c 2c 6e 01 be 85 2a 2c 3b 86 c6 15 bc
       0.021463681 -0.12639683 0.002627046 -0.00914157
000210 4d 07 95 bb e8 9d 20 bc e5 d5 b3 3b 65 07 af bd
       -0.0045479895 -0.009803273 0.0054881447 -0.08546332
000220 42 ae 03 b8 d7 cb 31 3e 82 80 37 be ed cd 93 bb
       -3.1395124e-05 0.17362915 -0.17920116 -0.0045106323
000230 96 bd 4e 3c 85 8d 37 3b 25 d4 97 3b 2e aa 0c 3d
       0.012618443 0.0028007936 0.004633444 0.034341983
000240 01 bf e2 bb 98 21 c4 3b 87 26 05 bd 2a d6 5d bd
       -0.006919742 0.00598545 -0.032507446 -0.05415932
000250 65 69 36 3c 9b 83 96 3c f3 85 bb ba 8c 54 7f 3b
       0.011133526 0.018373301 -0.0014306888 0.0038960306
000260 ec b8 4a bb 66 c3 4d bb 9b ab 20 3b 12 8b 8b bd
       -0.0030932976 -0.0031396984 0.0024516347 -0.06813635
000270 bc bf f8 bc c0 7a 89 3b e5 83 da 3c db a6 92 3b
       -0.030364864 0.004195541 0.02667422 0.004475457
000280 c8 59 00 bb 1e ac 35 3e
       -0.0019584764 0.17741439

fc_mu.bias f4 [9]
000000 3d 81 67 bc f2 82 15 bb 76 be b8 bb b1 18 08 3c
       -0.014129934 -0.0022813645 -0.005637939 0.008306668
000010 0d 47 76 3e 32 98 80 3c cd 71 c6 3d 07 de d2 bb
       0.24050541 0.015697572 0.096896745 -0.006435159
000020 2d 00 14 bc
       -0.009033245

fc_var.weight f4 [9, 18]
000000 c6 d5 9e b9 3c 4a c2 39 af d7 00 3d 47 16 42 3e
       -0.00030295382 0.00037057872 0.031455692 0.1895381
000010 85 3c f3 ba 99 19 69 bc 36 7d d7 b8 b5 f8 43 ba
       -0.0018557465 -0.014227294 -0.00010275321 -0.000747572
000020 c2 7d 21 b9 eb 2b 04 be d3 53 4d bc f1 aa d2 3c
       -0.00015401005 -0.12907378 -0.012532192 0.025716277
000030 16 46 d0 bd a6 08 e6 b9 0b 91 8d bb 15 11 c3 bb
       -0.10169618 -0.00043875462 -0.004320269 -0.005952964
000040 6f 4d 48 3b 5a 88 46 bd 69 61 6e bb b5 06 64 ba
       0.0030563732 -0.04846988 -0.003637398 -0.0008698509
000050 13 d4 02 3d 68 c8 f0 bd e5 44 d8 ba 75 fd ba bb
       0.03194053 -0.117569745 -0.0016500024 -0.005706484
000060 34 21 27 ba 6c 76 94 bb 01 c0 71 bb c7 4d bc ba
       -0.0006375492 -0.0045307186 -0.0036888125 -0.0014366441
000070 d8 f4 fd bb 2c 4a e6 bb 37 61 13 3b ed 45 d1 3b
       -0.007750135 -0.007027885 0.0022488364 0.0063865096
000080 12 28 b5 ba e6 a0 be bb 15 e3 63 3b 6c ce 39 bd
       -0.0013821146 -0.0058175204 0.0034772803 -0.045362875
000090 66 37 16 bb 8f a8 86 3a bb 0d e9 3c 94 0b 9e ba
       -0.0022921204 0.0010273623 0.02844893 -0.0012057894
0000a0 37 52 15 bb fc e5 86 bc 45 89 21 3b 77 9b 68 3b
       -0.00227846 -0.016467087 0.002464847 0.0035493055
0000b0 99 31 82 ba 45 0e c7 3b 8b cc 06 bc 64 73 91 bd
       -0.0009932994 0.006074699 -0.008227478 -0.07102087
0000c0 ad 3f 63 3d 2a a3 53 bb aa 90 87 bc 5d e9 82 bb
       0.055480648 -0.0032293298 -0.016548473 -0.003995104
0000d0 f3 b6 17 3b 23 7e 01 bd 86 a9 57 bb d6 6d b7 3a
       0.0023149818 -0.031614434 -0.003290744 0.0013994526
0000e0 db 91 03 3d 28 15 52 be a9 5e c3 bb 65 44 8a 3b
       0.03212152 -0.20515883 -0.005962212 0.004219579
0000f0 9d 35 24 3b 44 cc f5 3a 95 81 62 bb 9a 32 9e 3c
       0.002505637 0.0018752893 -0.00345621 0.019311238
000100 1f ed 18 bc d1 c5 6d bd 26 30 96 bd a9 19 bc 3b
       -0.009333878 -0.05804998 -0.07333402 0.0057403636
000110 3b df 00 bb 3f 49 9e bb 57 2d 94 bb 16 15 29 bc
       -0.0019664306 -0.004830509 -0.0045220065 -0.010319969
000120 89 00 ff be 81 69 39 bc c7 95 45 bd 74 34 52 3c
       -0.49805096 -0.011316658 -0.048238542 0.012829889
000130 be bb 90 3e 27 fc ae 3d 81 45 6b bc 95 3e f0 3d
       0.28268236 0.08544188 -0.014359833 0.117306866
000140 3b 5e 2f bf 11 3b 31 3e 12 78 ac bf 3f dc 2e 3e
       -0.6850316 0.17307688 -1.3474143 0.17076205
000150 68 01 d0 bd ae bc 53 3e eb 7a 59 3e f8 ee b6 3e
       -0.10156518 0.20677444 0.21238296 0.35729194
000160 84 f7 31 3d 07 f1 85 bc de d9 e4 ba a4 c2 05 bb
       0.04344894 -0.016350282 -0.0017459949 -0.0020410204
000170 e0 38 03 3d 58 9b f0 3d bb f2 ac bb 06 2d f2 3a
       0.032036662 0.117483795 -0.005277959 0.0018476553
000180 9f 3c 3d 3b 66 ff 53 3a b3 20 0a bc d3 98 91 3b
       0.0028875244 0.00080870686 -0.008430648 0.004443267
000190 de 88 e3 bb 76 fb 00 3e 66 f3 53 3d fb 1a 67 3b
       -0.006943806 0.12595925 0.051745795 0.0035263884
0001a0 3a 50 cf 3b 15 de bf 38 6f ba 57 bb 6f 7b 46 3c
       0.0063267024 9.148956e-05 -0.003291752 0.01211439
0001b0 9b 6b fe be 9d 6b 7f 3d 2e 49 bb 3b da 83 d2 bd
       -0.4969147 0.062358487 0.005715511 -0.10279055
0001c0 06 f9 78 bf 02 7b 14 3f a4 67 fa 3d 57 21 ba 3b
       -0.9725498 0.58000195 0.12226799 0.005680244
0001d0 c5 15 f9 be 6e 83 d5 3d 04 87 85 bf 25 36 7e 3e
       -0.4864942 0.10425459 -1.0431828 0.24825342
0001e0 3b 6a 31 3e 05 fb 2b 3f 6b f5 64 bd 3f d1 29 bf
       0.1732568 0.671799 -0.05589811 -0.6633491
0001f0 e6 29 0d bf b6 37 05 bd 22 9e 42 bb 6a 77 00 3b
       -0.55142057 -0.032523833 -0.0029696305 0.0019602426
000200 8d 9f 02 bd 0c 3a 27 3d 4a 6e 15 bb db 51 aa ba
       -0.03189044 0.040826842 -0.0022801333 -0.0012994366
000210 8c 89 fc 3a 2b 75 36 bb dd 14 ce bb 7a 4f 1a bd
       0.0019267066 -0.0027840834 -0.006289108 -0.03767345
000220 db ba 43 bc ee 49 05 bc 08 2b 37 bd 7f 89 99 3b
       -0.011946405 -0.008135302 -0.044718772 0.0046855803
000230 8e d1 dd bb e6 15 8f bb 4a 96 3d bb fd 2e 0c 3e
       -0.0067693656 -0.004366624 -0.002892869 0.136898
000240 92 72 aa ba 93 5d c7 ba 0e 4b a9 bc ca 41 12 3c
       -0.0013004115 -0.0015210382 -0.020665672 0.008926818
000250 66 6e 93 bb e1 89 aa b9 56 c0 13 39 90 93 9c bb
       -0.0044992445 -0.00032527655 0.00014090663 -0.004778333
000260 9d 43 63 bb 01 2e 15 bd 31 9a 18 bc 54 1c a8 3c
       -0.0034677752 -0.036420826 -0.009314106 0.02052132
000270 7e 26 09 3e f9 18 92 ba 58 1c fd 3b 03 06 97 bb
       0.1339359 -0.0011146358 0.007724326 -0.004608871
000280 07 ad 0b 3c 52 da 09 3d
       0.00852514 0.033655472

fc_var.bias f4 [9]
000000 58 60 88 3c ea c2 f4 3c b5 0a ad 3c e7 74 f3 3c
       0.016647503 0.029878099 0.02112327 0.02971883
000010 47 e0 cd bf 17 b7 9c 3c b7 39 a3 bf 0a fe b6 3c
       -1.6084069 0.019130273 -1.2751988 0.022337932
000020 bb 35 d1 3c
       0.025538316

decoder.0.weight f4 [18, 9]
000000 50 3f ac bb d0 de 35 bc 43 98 b2 ba fa 6c 16 bb
       -0.005256571 -0.011100486 -0.00136257 -0.0022953139
000010 66 c6 bb 3e 40 a8 6c 3b 51 36 58 3d 4d b2 e7 3b
       0.36674803 0.0036111027 0.052786175 0.0070708157
000020 86 8a c1 bb 33 51 f7 3a 09 6c 57 ba d7 3c a0 3a
       -0.005906406 0.0018868804 -0.00082176976 0.0012225163
000030 31 c7 76 ba 35 55 4b 3f 56 36 05 3c 9a 32 a2 3e
       -0.0009413837 0.7942689 0.0081306305 0.3167923
000040 a7 98 07 3a 37 dc 60 3c 84 6d 17 ba 87 59 a7 bb
       0.0005172588 0.013724378 -0.0005776512 -0.005107108
000050 c0 e5 3e 3c a6 26 4f ba b0 7d 3d 3f 28 61 a1 3b
       0.011651456 -0.00079021824 0.7401991 0.004924912
000060 50 d6 6a 3e c7 52 35 3b fa 53 3b 3b d4 41 1e 3b
       0.22933316 0.0027667747 0.002858399 0.0024148123
000070 ac 45 de ba d4 de a6 3a 29 49 3d bb 4e ee 5b 3f
       -0.001695802 0.0012731203 -0.0028882718 0.859105
000080 8c 8c e8 3a 06 0c 85 be cf 54 11 3c a6 42 b1 bb
       0.0017742082 -0.25985736 0.008870318 -0.0054095564
000090 21 83 97 3b 5b 3e 4c bc 02 8e 85 bb ef 89 da ba
       0.004623786 -0.012466039 -0.0040757665 -0.0016673187
0000a0 e9 52 43 3d 47 ea 29 3c f5 18 49 3f cc 76 9d ba
       0.04768649 0.0103707975 0.78553706 -0.0012013554
0000b0 fe 5f 08 3c fe a6 fa 3b b2 ee 22 bc 19 5f 4a 3c
       0.008323668 0.0076493016 -0.009944605 0.012351775
0000c0 e0 e0 71 39 7e 27 92 3e a8 d7 46 bb ae a7 ed 3d
       0.00023067323 0.28545755 -0.0030340943 0.11604248
0000d0 ca 7e 78 bb 2c be 11 3c 92 51 89 bb bc 04 60 b9
       -0.003791737 0.008895438 -0.004190632 -0.00021364068
0000e0 e0 f2 d4 bb 16 2d 00 3c 89 33 4f bf d4 c5 8c 3b
       -0.0064986795 0.007823249 -0.8093801 0.004296044
0000f0 60 42 44 be 5e 41 a1 ba 4c c7 44 bb 67 49 64 bb
       -0.19165945 -0.0012302806 -0.0030026017 -0.003483379
000100 0f 8d 09 3c 31 3c 29 bc d9 b7 1c 3c 22 4c d1 be
       0.008395447 -0.010329292 0.009565317 -0.40878397
000110 87 45 16 ba 49 00 28 3d 1a b0 5c 3c 0f 0b fc 3c
       -0.0005732406 0.041015897 0.01346972 0.030766992
000120 bb 85 15 3c da 6d 93 b9 fe dd b2 bb d6 99 e0 3b
       0.009126122 -0.0002811987 -0.0054585924 0.006854276
000130 1f c2 39 3f 6a b8 32 bc 97 bb 56 be 7e a4 f6 3b
       0.7256183 -0.010908226 -0.20969997 0.007526933
000140 eb de a4 3a 66 1e 10 bc 66 b5 ac ba fd dd 7d 3b
       0.0012578642 -0.00879631 -0.001317662 0.0038737052
000150 6f da c7 bb 9b d8 43 3e 8e a2 fd 3a 25 93 1a bf
       -0.0060990374 0.19125597 0.0019350813 -0.60380775
000160 d8 db 32 bc 9c 47 72 bc 4e 09 98 3b 85 31 e7 3a
       -0.010916673 -0.014787581 0.004639781 0.0017638659
000170 e7 0e 19 bc ed 96 c4 bb 5c a0 02 be 1a fc 81 bb
       -0.009341932 -0.005999437 -0.12756485 -0.0039668204
000180 ff 16 7e 3f 5d 03 8e 3b 4f 9f af bb 7b 3f 1b 3a
       0.9925384 0.004333897 -0.0053595672 0.000592224
000190 2d 3a 24 3c 4d 23 96 3c e8 ce 56 3b 3a 01 c7 be
       0.010023636 0.01832738 0.0032777134 -0.38868123
0001a0 43 d4 fe 3a c0 3e 55 3e 59 ad fe 3b a0 fd f3 bb
       0.0019441921 0.20824718 0.0077721295 -0.007446006
0001b0 e9 7f ac 3b 82 ef 30 bb f4 b3 95 bc 17 b3 c8 3b
       0.0052642715 -0.0026998227 -0.018274285 0.006124865
0001c0 0e c7 88 3e f8 8b 7d bb 4d 35 73 bf 54 8f 81 3a
       0.26714367 -0.0038688164 -0.95003206 0.0009884634
0001d0 7c 7c c8 3b 4a 31 73 ba 33 e8 04 bb b3 82 9c 3b
       0.0061183553 -0.0009277059 -0.0020280003 0.0047763227
0001e0 eb 94 40 bb 4f 54 ef 3d 1e 7f d3 3b 2b fd 67 bf
       -0.0029385637 0.116860025 0.0064543625 -0.9062068
0001f0 0d 8f 18 3b ca b9 52 3b 2a b0 1e 3b d8 31 89 3b
       0.0023278624 0.0032154196 0.0024213889 0.00418685
000200 c7 42 bb 3b 30 b1 c2 bb 1f d9 58 bf 5e 25 1f 3c
       0.0057147476 -0.0059415326 -0.847063 0.009713499
000210 68 ed 98 bb 6b 86 f1 3b 19 02 e5 bb 4b ff 3d bc
       -0.004666973 0.00737076 -0.0069887755 -0.011596511
000220 00 29 b2 3a 50 97 30 bc db 53 3b ba 87 a8 ca bd
       0.0013592541 -0.010778263 -0.00071459793 -0.09895425
000230 a7 74 fe bb 36 56 79 bf 23 d1 63 3b 29 f9 e1 3b
       -0.007765371 -0.9739717 0.0034762106 0.0068961573
000240 54 fe cd ba 79 d4 cb 3b dc 7a 02 bc 35 62 34 bc
       -0.0015716054 0.006220397 -0.007963862 -0.0110097425
000250 68 a3 68 3f 24 e7 10 3b ea f3 46 3e 1d ce 2b 3b
       0.9087434 0.0022110427 0.19428983 0.0026215382
000260 20 dd 44 3b c9 7a b9 3a eb b4 b8 3b 4b 79 64 3c
       0.0030039027 0.0014150973 0.0056368015 0.013944934
000270 36 e9 42 3b 4b 95 b3 3e 79 eb 24 bc a6 1d ff 3e
       0.0029741055 0.3507484 -0.010065907 0.49827307
000280 0a 06 86 bb 0b 82 c4 3b
       -0.0040900754 0.0059969476
